Pb_policy_iteration/cart_pole_modified_env/policy_action_selection_viz/pbpi_algo_exp_setup/pbpi/algo_outputs/models/Modified_algo_CartPole_20_3_20_0.1_pbpi_model.pt (torch, 2191 bytes, 4 tensors)

layers.0.weight f4 [20, 2]
00000000: 21fa c9bc c54b 96be 7ea7 90bd 41ce 903d
00000010: 1483 ba3d 0728 123e 7b04 913f 4f5c ef3e
00000020: 1ddb 993f 8a73 1a3f ea1b afbe 5fbc b93e
00000030: ad10 64bf 5dd8 6fbf 7a78 1cbe 9aa3 033f
00000040: 5360 2fbf 0be6 e83e ff81 6b94 6911 5815
00000050: e51b 94bf 2043 24bf ed3c 2b3d 5fec debd
00000060: 02bb 868f a41d b28f 8bb7 52b0 2cb0 4230
00000070: 41e6 5e3f 0892 853f bdfd 18bf 2f70 d2be
00000080: 1a4d 543f 0b29 723e 70da dabf 2875 67bf
00000090: c80e aa3e 3614 aebe a6c8 a03f 3009 fb3e
-0.024655404 -0.29354683 -0.070631966 0.0707059 0.091070324 0.14273082 1.1329492 0.46750113
1.2019993 0.6033255 -0.34200984 0.36276528 -0.89087945 -0.9368952 -0.15280333 0.5142151
-0.68506354 0.4548801 -1.1890105e-26 4.3634587e-26 -1.1571013 -0.64164925 0.04180615 -0.10884928
-1.3285453e-29 -1.7563572e-29 -7.6658385e-10 7.0827144e-10 0.8707009 1.043519 -0.59762174 -0.41101214
0.8293015 0.23648469 -1.7097912 -0.9041314 0.33214402 -0.33999795 1.2561233 0.49030447

layers.0.bias f4 [20]
00000000: 0082 363f 99b5 f23e 795b b43b 3cd3 873e
00000010: e102 59be b748 0b3f e826 c73e 3a8e 81be
00000020: 97fa bb3d b2c8 7097 5ba6 893e e0f8 1b3f
00000030: 088e ae91 598b c4b3 eb8a f73c 13dc 043e
00000040: 47e3 533e 751b 603b 8774 d83e 2da3 973e
0.71292114 0.47404173 0.0055040685 0.26528347 -0.21192504 0.5440783 0.3889687 -0.25303823
0.091786556 -7.7801496e-25 0.26884732 0.6092663 -2.7539893e-28 -9.1523084e-08 0.030217608 0.12974577
0.20692168 0.0034196053 0.42276403 0.2961668

layers.2.weight f4 [3, 20]
00000000: 0f74 573d d733 723d 101b 883d 69b3 f2be
00000010: 49e6 713f 53ce 883e 4ea2 0b3e 0a9b bfbe
00000020: d649 0b3f b8ec 5095 d978 783e 6971 133e
00000030: f355 6890 f93c 28b2 3958 0c3e 1725 c63d
00000040: 1c50 aabe 4019 fabd cf63 22be e803 29bf
00000050: 07b4 b03d 1a29 b03d e8aa 0bbe 6a02 313e
00000060: 7f85 533e 0955 2f3e 9715 b73e 3106 6b3e
00000070: 97ee f83d 7bae 8996 5752 543e 7c13 bb3d
00000080: a7e6 0d90 2e8f ceb2 35c3 2cbf 5d8f 12be
00000090: 346d ad3e 8455 29bf b023 a63e 6e2b 6b3e
000000a0: a78c 753e 3bcb b3bd 5712 863d 549f 933e
000000b0: e6f3 6dbf 32a1 22bc 2d6a d3be 16b1 323e
000000c0: 8647 b7be b73c 3416 3905 06bf 8447 603d
000000d0: 4fcc 8210 d90b be31 a4db e83e 11ab f9be
000000e0: cc0e 433e 866c 6e3f 5400 263e e81b 783e
0.052600916 0.05913147 0.06645787 -0.47402504 0.9449201 0.26719913 0.13636133 -0.37422973
0.5440954 -4.2192004e-26 0.2426485 0.14398731 -4.5820145e-29 -9.792751e-09 0.1370553 0.09675043
-0.33264244 -0.12211847 -0.15858386 -0.66021585 0.086280875 0.086015895 -0.13639414 0.17286077
0.20656393 0.17122282 0.3575866 0.2295158 0.121548824 -2.2243656e-25 0.20734535 0.09134576
-2.7985035e-29 -2.4046667e-08 -0.6748536 -0.14312501 0.33872378 -0.6614611 0.32449102 0.22965786
0.23979436 -0.087789975 0.06546467 0.28832495 -0.92950284 -0.009926127 -0.41291943 0.17450365
-0.35796756 1.4559442e-25 -0.5235172 0.054755703 5.1590746e-29 5.5310747e-09 0.45480072 -0.48763326
0.19048613 0.93134344 0.16211063 0.24229395

layers.2.bias f4 [3]
00000000: d5e3 243e e219 13bc 2bb5 0e3d
0.16102536 -0.008978339 0.034840744
