Pb_policy_iteration/cart_pole_modified_env/policy_action_selection_viz/pbpi_algo_exp_setup/pbpi/algo_outputs/models/Original_algo_CartPole_50_3_20_0.1_pbpi_model.pt (torch, 2191 bytes, 4 tensors)

layers.0.weight f4 [20, 2]
2.0596511 0.569939 -2.4307655e-13 1.3288624e-12 0.08027957 -0.16000164 -2.3118873 -0.502254
-1.3805963 -0.053101834 0.56908435 0.44224915 -1.4828788 -0.28790224 -0.09068731 0.49907026
-7.1211805e-18 6.954511e-19 -6.273433e-09 2.1335428e-10 0.75532615 0.565133 0.28819183 -0.043247804
-3.953838e-39 1.013898e-39 1.8079537 0.5406428 2.340146e-16 2.3476729e-17 -8.53913e-37 -1.7587096e-35
1.2953062 0.21409494 -0.029060997 0.23372738 0.071231924 6.529855e-05 -1.7257077 -0.8558207
00000000: 53d1 0340 86e7 113f 06d7 88aa 5005 bb2b
00000010: 9d69 a43d 78d7 23be f6f5 13c0 b893 00bf
00000020: 61b7 b0bf 4f81 59bd 83af 113f 7b6e e23e
00000030: f9ce bdbf ec67 93be 45ba b9bd 2386 ff3e
00000040: d35c 03a3 cd42 4d21 b38d d7b1 e495 6a2f
00000050: 0e5d 413f 8eac 103f e18d 933e 9c24 31bd
00000060: b10d 2b80 560a 0b00 076b e73f 9167 0a3f
00000070: 76e6 8625 dc88 d823 2849 9183 a104 bb85
00000080: 98cc a53f b43b 5b3e 5411 eebc 3b56 6f3e
00000090: 0be2 913d e4f0 8838 fde3 dcbf 1117 5bbf

layers.0.bias f4 [20]
-0.1715163 -3.4412373e-12 0.4918989 0.0008086766 0.10295891 0.10140837 -0.1841793 0.25111157
-1.5808368e-17 -8.182729e-07 0.416115 0.74855554 -2.0051e-39 0.024478216 -2.0346769e-16 -2.8466304e-34
0.19869395 0.3278839 0.18672249 0.4518358
00000000: f8a1 2fbe d227 72ac 2cda fb3e 5efd 533a
00000010: 1fdc d23d 31af cf3d 8099 3cbe b291 803e
00000020: 74ce 91a3 49a7 5bb5 060d d53e 56a1 3f3f
00000030: 67d5 1580 8a86 c83c 1095 6aa5 e830 bd87
00000040: 6d76 4b3e 66e0 a73e 2e34 3f3e 0657 e73e

layers.2.weight f4 [3, 20]
0.7522595 -6.790885e-13 0.0055551752 0.33330187 0.74387 -0.15183835 -1.2598588 0.13171886
6.1382013e-19 -3.2105218e-10 -0.2112375 0.26371026 2.507413e-39 -0.14653368 -1.3517023e-16 4.2841936e-35
-0.82572854 0.049981628 -0.07655019 0.14382347 0.20774174 5.004995e-13 0.21197468 -1.1753052
0.15989324 -0.14990716 0.9298982 -0.010758561 -1.973455e-17 3.005582e-07 0.34581298 0.055699278
1.026645e-39 -0.7253806 -4.0155082e-16 -1.3571109e-34 0.38822982 0.36934528 0.0524379 0.5095005
-1.05467 -2.6535423e-13 0.17510335 1.1132054 -1.0510155 0.34224907 0.17774509 -0.13613461
3.5038374e-18 4.713755e-09 -0.043319263 0.39115793 -3.460926e-39 0.8613537 3.1144946e-16 5.5601434e-35
0.28354758 0.1317702 0.11496764 -0.6848289
00000000: 1494 403f 7c25 3fab 3008 b63b 8ba6 aa3e
00000010: 446e 3e3f 837b 1bbe 0e43 a1bf 4fe1 063e
00000020: f02a 3521 1480 b0af a54e 58be 0805 873e
00000030: a64d 1b00 ed0c 16be 36d7 1ba5 6cc9 6306
00000040: f262 53bf 89b9 4c3d 59c6 9cbd 7646 133e
00000050: 40ba 543e cae0 0c2b e40f 593e 6770 96bf
00000060: 0ebb 233e 4381 19be cf0d 6e3f ad44 30bc
00000070: e404 b6a3 685c a134 660e b13e ed24 643d
00000080: de2d 0b00 8bb2 39bf 717a e7a5 1764 3487
00000090: 0fc6 c63e d31a bd3e 20c9 563d a06e 023f
000000a0: 6dff 86bf 9361 95aa 4b4e 333e 847d 8e3f
000000b0: ad87 86bf 453b af3e cf02 363e df66 0bbe
000000c0: cf44 8122 a1f6 a131 8a6f 31bd da45 c83e
000000d0: a7af 2580 ad81 5c3f d489 b325 60d0 9306
000000e0: 262d 913e c4ee 063e 2774 eb3d f250 2fbf

layers.2.bias f4 [3]
0.09831781 -0.028257838 0.0010241142
00000000: d95a c93d fb7c e7bc 923b 863a
