Pb_policy_iteration/cart_pole_modified_env/reproduce_FHCP_results/modified_algo/docker_img_files/models/CartPole_20_3_50_0.05_pbpi_model.pt (torch, 2963 bytes, 4 tensors)

layers.0.weight f4 [50, 2]
000000 cf fd 25 3f 96 13 84 be 84 81 14 bd ed 9c 27 3f
       0.64840406 -0.25796193 -0.03625633 0.65473825
000010 9a a2 0b be 66 9c ba be d7 3d de 3e 4d 1c 52 3e
       -0.13636246 -0.36447448 0.43406555 0.20518608
000020 64 c6 eb be 9a 08 43 3f a5 b7 12 bf c5 c4 46 3d
       -0.46049798 0.76185 -0.5731147 0.048527498
000030 91 f3 d8 be 87 ae d0 be 86 8f 17 3f fe 04 2d be
       -0.42373326 -0.40758154 0.59203374 -0.16896436
000040 a0 d6 25 bf 0a b0 e2 3e d0 10 c9 3e 57 67 20 bf
       -0.64780617 0.44274932 0.3927064 -0.62657684
000050 bd bf 1f bf 3f 86 e4 3e d4 8b 0d 3f 78 ef 02 3f
       -0.62401944 0.44633672 0.55291486 0.5114665
000060 88 7a 4d 3f 4e 47 39 3f ec 30 c7 bc e5 94 71 3e
       0.8026509 0.7237443 -0.02431532 0.23591955
000070 59 49 70 3e f4 ba 19 3f b7 05 18 bf c9 21 a4 be
       0.2346548 0.6005089 -0.5938372 -0.32057026
000080 49 dd be bd 8f 23 0b 3f 45 77 0e 3f 53 31 1b 3f
       -0.093195505 0.54351133 0.5565074 0.6062214
000090 27 07 0a bf 9c c8 21 3f 39 a0 33 3f ab fa 34 3f
       -0.53917164 0.6319673 0.70166355 0.7069499
0000a0 25 2d 88 be c8 dc 2b bf a4 29 32 3f 09 17 70 3e
       -0.26596943 -0.6713376 0.6959479 0.23446287
0000b0 00 a4 31 3e 51 28 46 3f 27 56 4e be d7 9b c5 be
       0.17347717 0.7740527 -0.20150052 -0.3859546
0000c0 b9 05 c0 be 2f 83 30 bf ca 24 ee 3e 5b e6 32 3e
       -0.37504366 -0.6895017 0.46512443 0.17470686
0000d0 66 37 c4 3d 87 64 ff be 41 ff c1 bd 84 55 b0 3e
       0.09580879 -0.49881384 -0.09472514 0.34440243
0000e0 5f 10 41 be d9 68 f1 be 48 62 d9 3e 1a c9 b4 be
       -0.18853901 -0.47150305 0.42457795 -0.35309678
0000f0 b8 b2 0d 3e 48 2e 80 3e 9c de 91 be 9c 85 88 3e
       0.13837707 0.2503531 -0.2849015 0.26664436
000100 a2 75 26 3f 83 ec 70 3e 80 32 18 3f 65 91 b5 be
       0.65023243 0.23527722 0.59452057 -0.3546249
000110 ae 90 43 3e 2f 19 9a be 28 47 42 be 5f 65 2b 3f
       0.1909816 -0.3009734 -0.18972456 0.66951555
000120 9e 6f 1f 3f 2f 62 3a bd 3d 58 33 bf dc c5 b9 3e
       0.6227969 -0.04550379 -0.70056516 0.36283767
000130 fe 52 3d be 65 18 80 3e a9 78 87 3e 06 19 db 3e
       -0.1848869 0.25018612 0.26459244 0.4279253
000140 49 1b 09 3f 78 23 24 bf 44 19 6c be ab 7c 02 bf
       0.5355726 -0.6411662 -0.23056513 -0.5097148
000150 d2 1f 62 3f 22 96 9f 3e 4f 7e 87 3e 13 e7 9f 3e
       0.88329804 0.3116923 0.26463553 0.31230983
000160 ff 14 f2 be 41 4b 07 bf 54 30 31 bf cd 0d 82 be
       -0.47281644 -0.52849203 -0.6921437 -0.25401154
000170 57 8e 30 bf 70 e9 0d bf 2b 10 9b 3e a6 a0 5e be
       -0.68967193 -0.5543432 0.30285773 -0.2174097
000180 ec 3e a0 be 09 e8 26 3d 7c a9 af 3e 17 6a 4d 3f
       -0.31298006 0.04074863 0.34308994 0.80240005

layers.0.bias f4 [50]
000000 b8 02 9a be 92 53 e7 be f3 8d 21 3d b0 0a f1 be
       -0.300802 -0.45180947 0.039442014 -0.47078466
000010 9c 5a cb bd d0 5c fe 3e 5a cf b3 be cb 15 7b be
       -0.09929392 0.49680185 -0.35119134 -0.24520032
000020 cb 09 49 3d f8 f9 2d bf bf 65 b1 3e c5 54 aa be
       0.049081605 -0.6795955 0.3464794 -0.332678
000030 af 67 55 bd c8 15 e0 3e b9 50 f3 bc 07 f4 8e 3e
       -0.052100834 0.43766618 -0.029701577 0.27920553
000040 5c a6 cd be 84 e6 b9 be e2 ea b4 be 38 60 06 bf
       -0.40165985 -0.36308682 -0.3533545 -0.5249057
000050 8d 24 7f 3e c9 90 ba be f2 d0 09 bd 08 b4 12 3e
       0.24916287 -0.36438587 -0.03364653 0.14326489
000060 1b 6f 9a bd e9 32 35 3e 23 f3 b4 be e6 73 c4 be
       -0.07540723 0.17695202 -0.3534175 -0.38369673
000070 6d a5 b2 be ce ff 92 bd db 94 cd be 7c e0 82 3e
       -0.34891835 -0.07177697 -0.4015263 0.25561893
000080 ca ba c7 3e 8f 6c 79 3e 53 70 17 3f 21 a2 0c bf
       0.39009696 0.24357818 0.5915577 -0.5493489
000090 85 43 06 3f 41 46 10 be 0f 3e 16 bf 7a cf bb be
       0.52446777 -0.140893 -0.58688444 -0.3668173
0000a0 5e e5 1a be dc 34 d9 3c 6f 6c aa 3d 9e ec 62 be
       -0.15126559 0.026514463 0.08321463 -0.22160575
0000b0 c1 10 d9 be 6e 7b 47 3e 21 84 c4 3e f1 5a f4 be
       -0.42395595 0.19480678 0.38382056 -0.47725633
0000c0 4e 32 9e be 54 11 8d 3e
       -0.30897754 0.27552283

layers.2.weight f4 [3, 50]
000000 6e 45 c8 bd 8f 0f de bd 94 ba aa bd cd c5 d7 3d
       -0.09778868 -0.10842811 -0.08336368 0.105357744
000010 72 67 89 bd c9 06 56 3e e5 22 0d be 16 29 1e 3d
       -0.06709184 0.20901026 -0.13782842 0.0386134
000020 d9 bf a0 3d 41 ac 76 3d e0 3f 24 3e 86 0f 57 bc
       0.07849092 0.060222868 0.16039991 -0.01312626
000030 0e b9 0a 3d 25 73 99 3d dc 86 8f 3c 18 1b 7e 3e
       0.03386789 0.07492665 0.01752036 0.24815023
000040 93 a1 fa 3c 95 dd 00 3e 91 22 dd bd 7f f2 3c 3d
       0.030594623 0.12584527 -0.10797609 0.0461297
000050 29 d6 84 3e f9 2b 85 bc 7a 7e b9 3d d8 fe 42 3e
       0.2594464 -0.01625632 0.090573266 0.19042528
000060 8f 2e b7 be 98 29 3c be 5a f3 59 bd c6 2c cd 3d
       -0.3577771 -0.18375242 -0.053210594 0.100183055
000070 e1 7c d5 bd 21 2b fb bd 66 38 90 3d ce a1 7a 3e
       -0.104242094 -0.122640856 0.07042007 0.24475786
000080 03 52 af bd 8a 62 4e be 2e b4 64 3d 56 6e 20 3d
       -0.08560564 -0.20154777 0.055835895 0.039167725
000090 69 7d 58 be 65 aa 50 3c eb 41 5b bd 29 a5 01 be
       -0.2114159 0.012735938 -0.05352966 -0.1266066
0000a0 06 e2 8a be 11 8b 1a 3e cd 0e d7 be 09 40 fc bd
       -0.27125567 0.15092112 -0.4200348 -0.12316901
0000b0 09 b3 98 be 62 cd 2e 3e a0 0e 81 3e e5 a1 2d bd
       -0.29824093 0.17070535 0.2520647 -0.042390723
0000c0 7d f1 59 3d fc 23 ba be 86 a1 9b 3d c0 c0 72 3d
       0.053208817 -0.3635558 0.075991675 0.059265852
0000d0 cd 2b 07 be 9e af 9b 3d 94 f1 06 bd cf aa 2d 3c
       -0.13200302 0.07601856 -0.03294523 0.010599806
0000e0 b3 a2 d8 bc e6 2f a9 bd ec b0 4b bd c8 76 f6 bd
       -0.026444769 -0.08261089 -0.049729273 -0.120343745
0000f0 63 2b ed bd 98 50 0d 3e ef 7d 25 bf ea 1a 12 3e
       -0.11580541 0.13800275 -0.64645284 0.1426808
000100 cd 72 a0 be 5c b4 98 3b c4 a1 0c be 3f b8 ac bc
       -0.31337586 0.0046601724 -0.13733584 -0.02108395
000110 96 5e b2 3c e5 23 07 be ab d0 99 3c 0e 24 56 3c
       0.021773618 -0.13197286 0.018776258 0.01307012
000120 77 f7 9a be 34 42 26 bd ed a1 22 3d d4 57 54 3e
       -0.30266926 -0.04059048 0.039705206 0.20736629
000130 8d c8 06 3e e1 03 be bd 7c 70 af 3d 03 94 fa 3d
       0.13162442 -0.092780836 0.085663766 0.12235262
000140 fc fb 7f 3d 47 c9 2d 3d ef 80 2a 3e 69 f3 25 3e
       0.06249617 0.04242828 0.16650747 0.16206135
000150 37 3a c6 3d b2 bf 05 3e 6b 4d 80 3e 12 8f df 3d
       0.09679072 0.13061407 0.25059065 0.1091596
000160 ef 1a e9 bd f0 59 ad bc c3 bb 59 3e 17 f9 a0 be
       -0.1138209 -0.02116105 0.21263032 -0.3144004
000170 3d 77 07 3e 94 48 c9 3d 41 b5 1e 3e 17 3c 7f bd
       0.1322908 0.09828296 0.1549883 -0.062313166
000180 c9 ae 6e bd 71 55 8c 3d 0a 04 81 bd 7d 24 a5 3e
       -0.058272157 0.06852234 -0.062995985 0.322544
000190 61 9f a1 3d 95 2d 85 3c 51 79 58 3e 00 d8 b1 bd
       0.07891727 0.016257087 0.21140029 -0.08683777
0001a0 40 7f e9 3d e6 80 81 bd cb ff 8f 3d 16 dc 65 3d
       0.11401224 -0.063234136 0.070312105 0.056118093
0001b0 46 98 d0 bd 46 3a 90 bd 8d 08 0e bd a7 69 50 3c
       -0.10185294 -0.07042365 -0.034676123 0.012720502
0001c0 36 02 1f 3f dc d5 76 bd a0 c9 ae 3e 0e d2 7f bd
       0.6211275 -0.060262546 0.34138203 -0.062456183
0001d0 37 9e 5a 3d 27 7a 03 3c 5c f7 5a 3c 10 cb d7 3d
       0.05337354 0.008024729 0.013364639 0.10536778
0001e0 52 6f 3b be af fe c0 3d c4 bf 9e 3e dd 7e f7 bd
       -0.18304184 0.09423577 0.3100568 -0.12084744
0001f0 19 97 40 3e 89 38 fa 3d 9d 54 a3 3c 22 f5 a2 3d
       0.18807639 0.122178145 0.019937808 0.079569116
000200 0b dc 3a 3d 7a 65 27 be c4 12 bc bd 17 99 bc 3d
       0.045620006 -0.16347304 -0.09183267 0.09208887
000210 58 24 18 bd f2 5c ed 3d b6 19 9c 3b 84 86 e7 3d
       -0.037144035 0.115899935 0.004763807 0.11304954
000220 64 b7 17 3e b4 5f c5 bd d6 ec fc bd 31 7f f3 bd
       0.14816052 -0.096373945 -0.1234986 -0.11889494
000230 bb c2 08 be d1 ee 51 3e 72 38 f8 3e a9 9f 8d bd
       -0.13355534 0.20501257 0.48480564 -0.069152184
000240 fb 8a 43 bd de fc 0b be b6 64 7e 3d 2c 1d 97 bd
       -0.047739964 -0.1367068 0.062107764 -0.07378611
000250 3e c1 f0 bd 6e 84 b2 3d
       -0.11755608 0.08716665

layers.2.bias f4 [3]
000000 f3 fc f4 3d e0 f6 3c 3e fc 83 50 bc
       0.11962309 0.1845355 -0.01272678
