Pb_policy_iteration/cart_pole_modified_env/reproduce_FHCP_results/modified_algo/docker_img_files/models/CartPole_10_3_20_0.1_pbpi_model.pt (torch, 2963 bytes, 4 tensors)

layers.0.weight f4 [50, 2]
0.2669946 -0.486199 -0.4060803 -0.57041633 0.68283474 0.7812661 -0.6702285 0.2113663
0.35462898 0.21238655 0.4819562 -0.16622978 -0.53389895 -0.23995565 -0.21185441 -0.535223
-0.4183256 0.63664234 0.5721072 0.20332943 0.59246635 -0.5927221 -0.29804176 -0.8502425
-1.0261483 -0.3200287 -0.6752444 0.39192784 -0.27777326 0.46310648 0.30961865 0.5554463
-0.118826285 0.37383378 -0.003453141 0.6103131 0.52695704 0.9169576 -0.46377861 0.48861364
-0.2848354 -0.46383342 0.043294996 -0.32450506 -0.47281355 0.16917583 -0.5994658 0.217801
0.24748726 -1.0417405 0.25454983 -0.1451476 0.44419748 -0.42421842 -0.417224 0.1240382
0.05035973 0.36397752 0.18155746 -0.43699446 -0.40348265 -0.31488588 0.6660066 0.48620343
-0.25744978 0.65026504 0.69411963 -0.34675682 -0.6369102 -0.08182329 -0.5385267 -0.59208965
0.43630525 -0.4213478 0.60543567 -0.49263263 0.6404795 -0.62689877 0.88863254 -0.51125544
-0.58999765 0.69970244 0.21011885 -0.7745804 -0.21019183 0.69477606 -0.51514536 -0.61884457
-0.76388395 -0.17856343 -0.29727456 0.062085755 -0.60839653 -0.2834533 -0.40038657 0.5303589
-0.6132822 -0.35435948 -0.6247015 0.21922459
00000000: 84b3 883e 13ef f8be c2e9 cfbe ce06 12bf
00000010: 42ce 2e3f 0e01 483f 1894 2bbf 6870 583e
00000020: ee91 b53e dc7b 593e f7c2 f63e 2438 2abe
00000030: 9aad 08bf efb6 75be 5df0 58be 6004 09bf
00000040: c62e d6be fefa 223f 9e75 123f 9735 503e
00000050: e0ab 173f a3bc 17bf ee98 98be 7ea9 59bf
00000060: d458 83bf cdda a3be d1dc 2cbf c4aa c83e
00000070: 4c38 8ebe 4b1c ed3e 5686 9e3e bb31 0e3f
00000080: 325b f3bd 2467 bf3e 184e 62bb 7b3d 1c3f
00000090: a8e6 063f bcbd 6a3f 6474 edbe 912b fa3e
000000a0: f2d5 91be 937b edbe 1856 313d 8725 a6be
000000b0: 9e14 f2be 6e3c 2d3e 9776 19bf 3a07 5f3e
000000c0: 4d6d 7d3e c157 85bf 5b54 823e 93a1 14be
000000d0: da6d e33e 2833 d9be 629e d5be bd07 fe3d
000000e0: 0146 4e3d 435b ba3e 33ea 393e bdbd dfbe
000000f0: 4795 cebe b938 a1be 697f 2a3f a8ef f83e
00000100: 75d0 83be c577 263f d3b1 313f 1c8a b1be
00000110: 8c0c 23bf f892 a7bd e3dc 09bf 3093 17bf
00000120: 6763 df3e e6ba d7be d5fd 1a3f 583a fcbe
00000130: 77f6 233f 707c 20bf 6c7d 633f a3e1 02bf
00000140: 160a 17bf b31f 333f 6529 573e e74a 46bf
00000150: 873c 57be d8dc 313f 91e0 03bf 996c 1ebf
00000160: e68d 43bf 55d9 36be 5f34 98be a24d 7e3d
00000170: e0bf 1bbf ca20 91be 78ff ccbe 9ac5 073f
00000180: 1000 1dbf 9b6e b5be 70ec 1fbf 697c 603e

layers.0.bias f4 [50]
-0.55818677 -0.49085763 0.19318375 0.41605812 0.21249771 -0.27441424 0.3837125 -0.4374283
-0.58052504 0.3357936 -0.091267 -0.13589548 0.1356194 -0.6201713 -0.05515785 0.51935863
-0.38284233 0.42775685 0.15453728 -0.67067236 0.11794132 -0.6009484 0.08999564 -0.5894137
-0.41438225 0.07637853 -0.34965038 0.26083338 0.37028196 0.3223019 0.5223529 -0.17749545
-0.08705093 -0.20993224 -0.39608833 0.13786168 -0.15659124 -0.4140027 0.2557292 0.3842855
-0.27869448 -0.3044755 -0.23241636 -0.7046525 0.12313954 0.44195306 -0.45088813 0.41078213
-0.045682523 -0.013954279
00000000: 54e5 0ebf b151 fbbe f6d1 453e 9205 d53e
00000010: 0099 593e 0680 8cbe f775 c43e 9af6 dfbe
00000020: 4a9d 14bf 24ed ab3e 31ea babd 2f28 0bbe
00000030: d0df 0a3e 8cc3 1ebf 33ed 61bd b0f4 043f
00000040: e903 c4be f202 db3e 053f 1e3e 2fb1 2bbf
00000050: 388b f13d c1d7 19bf a24f b83d d1e3 16bf
00000060: e929 d4be 596c 9c3d 6005 b3be f48b 853e
00000070: 9995 bd3e c104 a53e ebb8 053f 5ec1 35be
00000080: c247 b2bd 7af8 56be 17cc cabe 9d2b 0d3e
00000090: 7459 20be 29f8 d3be f0ee 823e 12c1 c43e
000000a0: 0bb1 8ebe 36e4 9bbe 8efe 6dbe 1b64 34bf
000000b0: 9530 fc3d ac47 e23e cfda e6be 0952 d23e
000000c0: 991d 3bbd 7da0 64bc

layers.2.weight f4 [3, 50]
0.045206796 -0.103171565 -0.4173768 0.33521152 -0.17029563 0.1128289 0.24122295 -0.07262237
0.12658621 -0.2719639 -0.47332132 -0.39215076 0.59709805 0.0014823545 0.19025914 -0.1384024
-0.1338933 0.117162324 -0.45590752 -0.12729888 0.1973616 -0.08077285 0.15832564 -0.055676904
0.51010185 -0.1561391 -0.039604127 0.27374548 0.038838234 -0.15267628 0.12598321 0.26097885
0.22859585 -0.027976628 0.08006668 0.39441144 0.1576719 0.008541558 -0.24312939 -0.35262182
0.10788889 0.3947929 0.10696139 0.13614227 0.28067836 0.28986496 0.010564532 0.2679504
-0.08443482 -0.050569247 -0.053570755 0.05227336 0.17510788 -0.12980944 0.03212173 -0.13882741
-0.0060950387 -0.017834183 0.088067345 0.26012716 0.35167587 0.00817631 -0.26460052 0.049262602
-0.016751263 0.00038846026 -0.12768252 0.056020748 0.16626538 -0.041478824 0.081927 -0.062160145
-0.24191253 0.09758299 -0.7423911 0.036400933 0.048435383 -0.009398293 -0.103349574 0.118262134
-0.08186073 -0.19120234 0.022125373 0.021780634 0.06715353 0.026796622 -0.26684755 -0.12671039
0.39127836 0.54117084 -0.051824335 -0.43942058 -0.18664885 -0.11109666 -0.15560016 0.006752615
0.053232986 -0.10827762 -0.20478301 -0.06800155 0.039865606 -0.1276675 0.24945016 -0.19576393
0.039256014 -0.057807144 -0.09030901 -0.045556463 0.105682306 0.1585474 0.044917874 0.26514408
-0.3368539 0.028658377 -0.23938371 0.19675647 -0.021654917 -0.08662845 0.5397247 -0.04729908
-0.087865435 0.1177538 -0.015788672 0.05800853 0.10117661 0.086327955 -0.09970394 -0.06357595
0.10335336 0.06712839 0.048928533 -0.1430286 -0.26862267 -0.028061986 -0.120030575 -0.26965082
-0.012467369 0.0007030971 0.06169252 0.12822522 0.0035821511 0.08152184 -0.048496738 0.13956966
-0.06036681 -0.07090174 0.002524703 0.049180225 0.052594244 -0.118763596
00000000: c32a 393d 9d4b d3bd 69b2 d5be d8a0 ab3e
00000010: fa61 2ebe d712 e73d 2603 773e 0abb 94bd
00000020: d19f 013e da3e 8bbe 2c57 f2be fcc7 c8be
00000030: 6bdb 183f 904b c23a 4bd3 423e 5cb9 0dbe
00000040: 531b 09be cdf2 ef3d b66c e9be a35a 02be
00000050: 2919 4a3e 3c6c a5bd 1e20 223e 770d 64bd
00000060: 0996 023f eee2 1fbe f037 22bd 5e28 8c3e
00000070: d714 1f3d 2c57 1cbe be01 013e 059f 853e
00000080: 0815 6a3e 3e2f e5bc 00fa a33d 4cf0 c93e
00000090: be74 213e e4f1 0b3c e9f6 78be d98a b4be
000000a0: daf4 dc3d 4c22 ca3e 930e db3d e168 0b3e
000000b0: 13b5 8f3e 2e69 943e dc16 2d3c cb30 893e
000000c0: 2aec acbd b321 4fbd 026d 5bbd 971c 563d
000000d0: 7b4f 333e c4ec 04be 1392 033d c628 0ebe
000000e0: e4b8 c7bb fe18 92bc a75c b43d 632f 853e
000000f0: dc0e b43e eef5 053c b879 87be 95c7 493d
00000100: f239 89bc 41aa cb39 35bf 02be 0376 653d
00000110: 7941 2a3e b3e5 29bd 58c9 a73d a39b 7ebd
00000120: ebb7 77be 97d9 c73d 580d 3ebf 2519 153d
00000130: 2e64 463d 4cfb 19bc f1a8 d3bd 6b33 f23d
00000140: 99a6 a7bd 8cca 43be 4540 b53c 4d6d b23c
00000150: ca87 893d 9784 db3c 3ea0 88be 5ec0 01be
00000160: a355 c83e 2c8a 0a3f c145 54bd bcfb e0be
00000170: e020 3fbe a586 e3bd a655 1fbe 0a45 dd3b
00000180: d50a 5a3d a8c0 ddbd a3b2 51be 6644 8bbd
00000190: 1e4a 233d 45bb 02be dd6f 7f3e 5776 48be
000001a0: eaca 203d 2fc7 6cbd eef3 b8bd 6a99 3abd
000001b0: f76f d83d 405a 223e cefb 373d f7c0 873e
000001c0: 1d78 acbe f9c4 ea3c 0121 75be 877a 493e
000001d0: a765 b1bc 426a b1bd 662b 0a3f aebc 41bd
000001e0: cbf2 b3bd e728 f13d 3f57 81bc 5a9a 6d3d
000001f0: af35 cf3d b6cc b03d 9431 ccbd 1c34 82bd
00000200: edaa d33d 9c7a 893d 4969 483d 1776 12be
00000210: e988 89be 40e2 e5bc 97d2 f5bd ac0f 8abe
00000220: f043 4cbc 0c50 383a 4cb1 7c3d 794d 033e
00000230: 86c2 6a3b ecf4 a63d 84a4 46bd 59eb 0e3e
00000240: 3043 77bd ee34 91bd 7d75 253b 3471 493d
00000250: 106d 573d 543a f3bd

layers.2.bias f4 [3]
0.15467128 0.08921371 0.025183536
00000000: 2662 1e3e adb5 b63d b44d ce3c
