Pb_policy_iteration/cart_pole_modified_env/modified_algo_analysis/mod_vs_original_algo_experiments/pbpi/algo_outputs/models/Modified_algo_CartPole_50_3_20_0.1_pbpi_model.pt (torch, 2195 bytes, 4 tensors)

layers.0.weight f4 [20, 2]
000000 e9 33 35 be 67 73 88 be 2a ad ab 3f 02 63 ed 3e
       -0.17695583 -0.26650545 1.341222 0.463646
000010 d3 56 31 3f 7a 3d 37 3f 87 89 d4 3f 1c 66 b4 3d
       0.6927311 0.7157818 1.660447 0.08808538
000020 b7 04 85 bd 7c 30 51 be e9 b2 60 3f 2c 85 29 3f
       -0.0649504 -0.20428652 0.87772995 0.6621883
000030 17 ef 7c 3f d4 7f 08 3f 8c c9 a9 bf 4d fb 85 bf
       0.9880232 0.5332005 -1.3264632 -1.0467316
000040 d5 12 e1 be a6 fd 90 bf f2 82 71 3e db 95 40 3d
       -0.4395968 -1.1327407 0.23585108 0.047017913
000050 03 ca 23 3e 00 df fd 3e 94 e8 9b 3c d3 2e 07 3d
       0.1599503 0.49584198 0.0190318 0.03300364
000060 1e 9c 21 3f 4f d5 16 3f e1 de 1c 3d fc e2 07 3e
       0.6312884 0.58919233 0.03829849 0.13270181
000070 7c fb e5 3f c5 49 32 3f 9b 39 2a 3d 18 78 05 bd
       1.7967372 0.69643813 0.041558843 -0.032585233
000080 71 d6 a6 bc 4d 9c 5a be 14 51 40 bf a3 74 59 3f
       -0.020365926 -0.21348687 -0.75123715 0.849436
000090 6f 39 3c bf 66 46 c4 be 70 9c 1f 3f 8c ab f6 3e
       -0.73525137 -0.3833496 0.6234808 0.48177755

layers.0.bias f4 [20]
000000 5e 79 cb 3e 77 7d 2a 3e 93 19 d6 bd e2 8a 48 be
       0.39741033 0.16649424 -0.10454097 -0.1958423
000010 c0 b2 b7 3e 1d bc c1 ba 44 b9 28 bd 22 5d a5 bd
       0.35878563 -0.0014780794 -0.041192308 -0.08074404
000020 9d 88 3f be 38 67 64 3d b4 7a a0 3e 4c 7b 6e 3d
       -0.18704458 0.0557625 0.31343615 0.058223054
000030 d9 bb 8f 3e 52 d8 3f 3f 36 fd b9 3d 13 45 08 3f
       0.28073004 0.74939454 0.09081499 0.532304
000040 da 93 a6 3e c9 b6 8b 3d 17 06 84 3e 9c 24 a9 3e
       0.32534677 0.06821973 0.25785896 0.33035743

layers.2.weight f4 [3, 20]
000000 9f f7 26 3e 04 1f 29 bf 5c 7f 3f bd 6c dc b2 3e
       0.16305397 -0.6606295 -0.04675232 0.34933794
000010 bd cf ec bb 2b 3a ea 3e 5e e5 08 be 08 14 34 3f
       -0.007226913 0.45747504 -0.13368747 0.70343065
000020 bd ac 4b bf 85 2c 42 be 25 a2 75 bd 9e 5e 67 be
       -0.7956045 -0.18962295 -0.059969086 -0.22594687
000030 c4 f7 02 bf 1d 3a 35 3e 5f ed c9 3e 0d 89 99 bc
       -0.5115931 0.1769795 0.39438912 -0.018742109
000040 cc 17 af 3e 9d 61 30 3f a6 2c 71 3e 74 a5 cb be
       0.34197843 0.68898946 0.23552188 -0.39774668
000050 cf a3 37 3e d5 ce 80 bd 9c 10 2e 3f 5b 3e 4b 3f
       0.17933582 -0.0628945 0.67994094 0.7939202
000060 d2 46 79 3e c2 6d 52 bf 33 68 4c 3f 8d 2d 78 bf
       0.24343422 -0.8219873 0.79846495 -0.96944505
000070 3f 13 4a 3f e0 00 ce 3d b7 a3 9c 3e b7 74 8f 3d
       0.7893562 0.10058761 0.30593655 0.070046835
000080 35 3b 81 3e 4f 9c 7c 3e 69 01 9b bf a3 e3 82 3e
       0.25240484 0.24669002 -1.2109805 0.25564298
000090 c8 65 64 3d 1c 4e 1c be 0b 55 45 3c cd e9 a2 3e
       0.05576113 -0.15264171 0.012044202 0.31819
0000a0 71 95 15 be 87 db 2b 3f 45 2a de be b9 5a ae bf
       -0.14607789 0.6713185 -0.43391624 -1.3621436
0000b0 ef 74 11 be 15 47 a6 3e 90 9d 2e bf 1a ce 6d 3e
       -0.14204763 0.32476106 -0.6820917 0.23223153
0000c0 9e 6a e2 bc ae ca 5e bc bd 3f 3e be fe 98 0d 3e
       -0.02763873 -0.013598127 -0.18579002 0.13827893
0000d0 4c e5 62 3e ae e0 54 3c 0d 1b 66 3f fb 95 ee bc
       0.22157782 0.012993021 0.89885026 -0.02912425
0000e0 46 f5 1e 3e 43 87 07 bf a7 5d ab be c0 bb f6 3d
       0.15523252 -0.5294077 -0.3346989 0.12047529

layers.2.bias f4 [3]
000000 0c c8 92 3d 2f 4a b7 3d 31 c6 df 3d
       0.07167062 0.08949696 0.10926474
