Pb_policy_iteration/cart_pole_modified_env/modified_algo_analysis/mod_vs_original_algo_experiments/pbpi/algo_outputs/models/Original_algo_CartPole_50_3_100_0.05_pbpi_model.pt (torch, 2195 bytes, 4 tensors)

layers.0.weight f4 [20, 2]
0	0xbdcbca0f	-0.09950649
1	0x3decac32	0.11556281
2	0x365be9c1	3.2769606e-06
3	0x37a2fb2c	1.9428866e-05
4	0x3ef2a400	0.47390747
5	0xbf2b7806	-0.66980016
6	0x13c42b0a	4.9519796e-27
7	0x140dab00	7.1524046e-27
8	0xc00417fa	-2.0639634
9	0xbf82cf02	-1.0219424
10	0xbe081eac	-0.1329295
11	0x3d71b133	0.05900688
12	0x3ee6bbae	0.45065063
13	0x3defd216	0.117099926
14	0x3faa0193	1.328173
15	0x3e172bce	0.14762804
16	0x3f721bcd	0.9457367
17	0x3e9bee9d	0.30455485
18	0x3fd506fd	1.6642758
19	0x3f1d71e5	0.61501914
20	0xbff372ca	-1.9019406
21	0xbf069707	-0.525742
22	0xbfbefcb9	-1.4920875
23	0xbf19ff07	-0.60154766
24	0x3e227b70	0.158674
25	0x3f40d222	0.7532064
26	0x3e9ab7c8	0.3021834
27	0x3ef89106	0.48548144
28	0x31251000	2.4019755e-09
29	0xb1153bf5	-2.1716435e-09
30	0xbfa9f775	-1.3278643
31	0xbf2c3955	-0.6727498
32	0xb569b5b0	-8.7063654e-07
33	0x34ba94df	3.4753518e-07
34	0x93df3a0e	-5.635036e-27
35	0x15015a16	2.6122408e-26
36	0xbee438ae	-0.44574493
37	0xbf1205e8	-0.5704026
38	0xbe5a0b86	-0.21293458
39	0xbef59d93	-0.47971782

layers.0.bias f4 [20]
0	0x3ef13611	0.47111562
1	0xbbb204c9	-0.0054326993
2	0xbe283232	-0.16425398
3	0x968fc247	-2.3225502e-25
4	0x3c9476ec	0.018123113
5	0x3f0408b0	0.51575756
6	0x3ea0bca1	0.31393912
7	0xbcbda8f8	-0.02315186
8	0xbcb2e8aa	-0.021839458
9	0xbe9efe1a	-0.3105324
10	0x3f11cb3f	0.56950754
11	0x3e98cfee	0.29846138
12	0x3c2aaa7e	0.010416625
13	0x3f0c0c33	0.54706115
14	0xb1a33904	-4.7504063e-09
15	0x3ea7c53b	0.32767662
16	0xb6f55d09	-7.3123997e-06
17	0x9647ac88	-1.6129533e-25
18	0xbe44e3bc	-0.19227499
19	0xbe2379cb	-0.15964429

layers.2.weight f4 [3, 20]
0	0x3e4519fd	0.19248195
1	0x389bbe10	7.426378e-05
2	0xbe4dbb8a	-0.20091072
3	0x93d08836	-5.2640896e-27
4	0xbf8d9af5	-1.1062914
5	0xbdf79520	-0.1208899
6	0x3e32a381	0.17445184
7	0xbf70970e	-0.9398049
8	0xbf4899b7	-0.7835955
9	0x3f910320	1.1329079
10	0x3edbdd68	0.42942357
11	0x3efea317	0.49733803
12	0xbe97f437	-0.2967851
13	0x3ce269b7	0.0276383
14	0x33d8f6e1	1.0103191e-07
15	0x3f0093dd	0.5022562
16	0x36048f84	1.975307e-06
17	0x9575093f	-4.948465e-26
18	0x3edf7e5f	0.436511
19	0x3ee34af1	0.44393113
20	0xbd681dc4	-0.05666901
21	0xb8b7aab1	-8.757914e-05
22	0x3f0af9e7	0.5428757
23	0x159d8e27	6.363607e-26
24	0x3f15c918	0.5850997
25	0x3de83c7d	0.11339662
26	0x3e5214f0	0.205158
27	0x3d7c9cbf	0.061672922
28	0x3e5feb24	0.21867043
29	0xbf47eb70	-0.78093624
30	0x3eb7793d	0.35834685
31	0xbf0f8305	-0.56059295
32	0x3e831063	0.2559844
33	0x3e410486	0.18849382
34	0x31cebbfb	6.01676e-09
35	0xbeb1ecc1	-0.3475094
36	0xb5944f03	-1.1049855e-06
37	0x15df6d0e	9.024104e-26
38	0xbf0fc56e	-0.5616063
39	0xbebb4117	-0.36573097
40	0x3e1ef782	0.15524104
41	0xb97ddbf6	-0.00024209902
42	0xbe9a2770	-0.30108213
43	0x94ebbb24	-2.380275e-26
44	0x3f26a957	0.6510214
45	0x3ea6dd67	0.32590792
46	0xbd808a2f	-0.062763564
47	0x3f23b475	0.6394723
48	0x3eac248a	0.33621627
49	0xbe99c127	-0.30030176
50	0xbf8d05de	-1.1017416
51	0x3d9c235a	0.0762393
52	0xbe662ef4	-0.22478849
53	0x3e466751	0.1937535
54	0xb0282e3d	-6.118375e-10
55	0x3e70adea	0.23503843
56	0xb698e343	-4.5564097e-06
57	0x9492e4ca	-1.4832474e-26
58	0x3dbb1d1c	0.091364115
59	0xbde2eee8	-0.11080724

layers.2.bias f4 [3]
0	0x3dcd37b1	0.10020388
1	0x3e276390	0.16346574
2	0x3e34acb8	0.17644012
