Pb_policy_iteration/cart_pole_modified_env/modified_algo_analysis/mod_vs_original_algo_experiments/pbpi/algo_outputs/models/Original_algo_CartPole_50_3_10_0.025_pbpi_model.pt (torch, 2195 bytes, 4 tensors)

layers.0.weight f4 [20, 2]
0	0xbdf8df8e	-0.12152015
1	0xbecc2724	-0.39873612
2	0x3e85f966	0.26166838
3	0x3f62158a	0.88314116
4	0x3e45c803	0.1931458
5	0x3e3e466b	0.1858155
6	0xb4ab05cf	-3.1855458e-07
7	0xb51620e2	-5.5927205e-07
8	0x34af9779	3.27065e-07
9	0xb586c7e8	-1.0041958e-06
10	0xa717f6bf	-2.108922e-15
11	0xa732f58e	-2.4835578e-15
12	0xbfa28a5a	-1.2698472
13	0xbf0cde06	-0.5502628
14	0xbf1fa713	-0.6236431
15	0xbf2f6a2a	-0.6852137
16	0xb2a5502a	-1.9244982e-08
17	0x32580ddb	1.2576005e-08
18	0xbeff7a6f	-0.49898097
19	0xbe811f6d	-0.25219288
20	0xbd17f3c7	-0.03709772
21	0x3e8d1c26	0.27560538
22	0x3f2f50ed	0.6848286
23	0x3f5e3583	0.868004
24	0x3e08f58e	0.13374922
25	0xbedf2c2d	-0.4358839
26	0xbf868b80	-1.0511322
27	0xbe1d7098	-0.15374982
28	0xbe83a0c6	-0.25708598
29	0xbee065da	-0.43827707
30	0xb00dd0f7	-5.159246e-10
31	0x3146f2e9	2.895087e-09
32	0x3f32651d	0.69685537
33	0x3f59b14d	0.85036165
34	0xbf08421b	-0.5322587
35	0xbf4a8647	-0.7911114
36	0x3f304d43	0.6886789
37	0xbdf6e7b0	-0.1205591
38	0x3f17a0f9	0.5923
39	0x3ed24847	0.41070768

layers.0.bias f4 [20]
0	0xbe73326a	-0.237497
1	0xbf353714	-0.7078717
2	0x3eb818fc	0.35956562
3	0xb643e06b	-2.9187893e-06
4	0xb5fd72b9	-1.8883358e-06
5	0xa7665ddd	-3.1969795e-15
6	0x3cba57a1	0.022746863
7	0x3f1bb541	0.60823447
8	0xb39d79f1	-7.333063e-08
9	0x3f051c0f	0.5199594
10	0x3edd74d2	0.4325319
11	0xbe6e7b88	-0.23289311
12	0x3eee89bc	0.46589458
13	0x3e8aa762	0.27080828
14	0x3f233079	0.6374584
15	0xb2335f94	-1.0440903e-08
16	0x3f0ef923	0.558489
17	0x3e94217d	0.289318
18	0xbcd9dc28	-0.026594236
19	0x3e359ad4	0.17734843

layers.2.weight f4 [3, 20]
0	0xbe9dca3e	-0.3081836
1	0xbe6c3766	-0.23068008
2	0x3e3bd4ac	0.18342847
3	0x33d9aca5	1.0136254e-07
4	0x35c1f7e0	1.4451762e-06
5	0x2510d90a	1.2563545e-16
6	0x3d6f3efb	0.058409672
7	0x3dae23ad	0.08502898
8	0x315abac2	3.1829335e-09
9	0x3ca81dca	0.020522017
10	0x3ea50fa0	0.32238483
11	0x3f7db875	0.99109584
12	0xbd6c0af9	-0.05762765
13	0x3ed58ca2	0.41708857
14	0x3e192c2d	0.14958258
15	0x3070165a	8.7343255e-10
16	0xbf0dcf18	-0.55394125
17	0xbd290a03	-0.041269314
18	0x3e885817	0.26629707
19	0xbf056f52	-0.52122986
20	0x3f88a30c	1.0674758
21	0x3f306a85	0.68912536
22	0xbd22bc56	-0.039730392
23	0x3625563f	2.4637118e-06
24	0x356d2e7a	8.835701e-07
25	0xa5696197	-2.0242593e-16
26	0xbf4d7932	-0.80263054
27	0x3efc84bb	0.49320015
28	0x35557e64	7.9532606e-07
29	0x3e44b9cf	0.19211505
30	0x3d51d12a	0.051224865
31	0xbe9b15fb	-0.30290207
32	0x3baa9169	0.0052053225
33	0x3e19b66a	0.15010992
34	0x3e7286a4	0.23684174
35	0x3142aade	2.8327842e-09
36	0x3e3b8807	0.18313609
37	0xbf0d46d6	-0.5518621
38	0xbf33c5cf	-0.70223707
39	0xbd8477f6	-0.06468193
40	0xbeb49f28	-0.35277677
41	0xbf8a5a56	-1.0808818
42	0xbc91bce9	-0.017790275
43	0xb6480d71	-2.9810146e-06
44	0xb5079fbf	-5.052388e-07
45	0x25079328	1.1759242e-16
46	0x3ebda363	0.37038717
47	0xbef088f5	-0.4697949
48	0x359c9ee5	1.166915e-06
49	0x3c8bedf7	0.017081244
50	0xbd689cc0	-0.056790113
51	0x3e862702	0.26201636
52	0x3d310a5f	0.04322278
53	0xbf1f0e74	-0.6213143
54	0x3e6c4ff4	0.23077375
55	0xb20c64ba	-8.171975e-09
56	0x3d82d466	0.06388168
57	0x3e977e43	0.29588518
58	0x3ea5b903	0.32367715
59	0x3f0305de	0.5118083

layers.2.bias f4 [3]
0	0x3e20db8a	0.15708748
1	0x3e4c969e	0.19979331
2	0x3e1b0ab5	0.15140803
