Pb_policy_iteration/cart_pole_modified_env/modified_algo_analysis/mod_vs_original_algo_experiments/pbpi/algo_outputs/models/Original_algo_CartPole_50_3_10_0.05_pbpi_model.pt (torch, 2195 bytes, 4 tensors)

layers.0.weight f4 [20, 2]
000000 cc 4a 04 c0 ef b5 9c be 4c 8c 7e bf b2 f5 4d be
       -2.0670652 -0.30607554 -0.99432826 -0.20113257
000010 b8 42 21 3e d8 26 2d 3e d3 8b 43 3f 60 7c a5 3e
       0.15748107 0.16909349 0.7638523 0.32321453
000020 82 44 2a 3d 30 1b 85 3f e6 a3 8b bf 74 bb 05 bf
       0.04156924 1.0398922 -1.0909393 -0.52239156
000030 ad f4 f8 bf b9 d1 3a bf 2f 28 0f be e6 c0 22 be
       -1.9449669 -0.7297626 -0.13980173 -0.15893897
000040 a2 65 ea bf 19 d0 4c bf 46 2a ce bc 5e cc 04 bf
       -1.8312266 -0.8000503 -0.025166642 -0.5187434
000050 2e a4 25 bf eb 12 91 be 3d 9e 28 c0 8a cf 6d bf
       -0.64703643 -0.28334746 -2.634658 -0.92894804
000060 72 3f aa 27 9c f7 5a 2a f6 8f 24 be 8c 80 d9 bd
       4.7253266e-15 1.9448196e-13 -0.16070542 -0.106202215
000070 2a b3 ab 3d a6 77 02 3f 5c 17 cd bf 85 5f 46 3d
       0.08383782 0.5096382 -1.6022754 0.04843094
000080 c3 69 56 b1 63 a8 cb 31 0f df 25 bf 72 08 76 3f
       -3.1201217e-09 5.927221e-09 -0.64793485 0.96106637
000090 f0 c7 aa 3c 7b a7 04 3f 6e 5d 89 3f 9c aa 66 bd
       0.02084729 0.51818055 1.0731637 -0.05631505

layers.0.bias f4 [20]
000000 13 de 54 bc a2 2b 90 bc 49 46 92 3e 9f d0 80 bd
       -0.0129924 -0.01759893 0.28569248 -0.06289791
000010 6e 2c b8 be be ba c7 be 4f 17 35 3e 07 e9 26 3f
       -0.35971397 -0.3900966 0.17684673 0.6519932
000020 5f 68 27 3f 3f 40 25 3f 24 09 14 3f b7 6c 4c 3f
       0.6539363 0.64551157 0.5782645 0.79853386
000030 17 97 75 aa 98 32 29 3e 7c ec a6 3e c7 ad 54 3e
       -2.1812791e-13 0.16523206 0.32602298 0.20769416
000040 ce 70 90 b2 ca 2d 46 bd 6c 5b 94 3e 9f de 30 3a
       -1.6815104e-08 -0.04838351 0.28976 0.00067470403

layers.2.weight f4 [3, 20]
000000 73 11 c5 bf d9 66 e7 be 81 6f 8d 3e e5 80 0d be
       -1.539595 -0.45195654 0.27624133 -0.138187
000010 85 1b 2b bf d8 ee 3a 3f 99 2d 8e bf c1 86 0c 3e
       -0.66838866 0.73020697 -1.1107665 0.1372328
000020 79 20 21 3f d2 89 95 bd 1f 88 04 be 8a 6a 60 3f
       0.62940174 -0.07301678 -0.12942551 0.87662566
000030 67 ad 69 29 66 f3 56 be d4 48 de 3d 3b 69 0e 3f
       5.1886796e-14 -0.20991287 0.108537346 0.5562932
000040 01 61 c0 31 7d d2 0f 3f ba 91 d5 3c cb 90 0c be
       5.5989635e-09 0.56180555 0.026070464 -0.13727109
000050 8a 16 78 3f e2 e4 e7 3d 2e 84 1e bd b1 35 84 3e
       0.9690939 0.11322953 -0.038700275 0.25822213
000060 1e 71 a8 3e 60 34 74 bf 96 7f 52 3f 1e 3f 1f 3e
       0.32898802 -0.9539242 0.8222593 0.15551421
000070 e0 50 a3 be f9 58 9c 3e fd e2 f5 3e e7 92 39 bf
       -0.3189764 0.3053663 0.4802474 -0.7248978
000080 2f 13 0d a9 3d b2 13 3e a0 21 55 3d 8d 69 aa 3d
       -3.132493e-14 0.14423461 0.05203402 0.083209135
000090 57 ba ec 31 d0 a8 1e be 6d 70 21 bd b5 31 18 bf
       6.8896884e-09 -0.15494084 -0.03941386 -0.59450847
0000a0 40 05 62 3f 3c 01 a3 3e a3 d4 bc 3c 0d f4 04 3e
       0.8828926 0.3183688 0.023050612 0.12983723
0000b0 f1 94 78 3e 31 de 57 be 4e 80 0e 3e 82 40 5f bd
       0.24275567 -0.21080853 0.13916132 -0.05450488
0000c0 7d 35 8f 3d 3d c5 e8 bb 57 e1 2d 3d d0 8d d0 be
       0.06992624 -0.0071035908 0.04245123 -0.40733194
0000d0 8b f9 0b a7 63 96 9b 3d 40 58 81 3e 37 5c 64 bf
       -1.9425403e-15 0.07597043 0.25262642 -0.8920321
0000e0 51 da f8 b1 9c 2a e8 be 93 12 e3 3d 8d af 1a 3f
       -7.2425697e-09 -0.45345008 0.11087527 0.6042412

layers.2.bias f4 [3]
000000 76 fa 49 be da dd cb 3d a2 99 b4 3e
       -0.1972445 0.09954424 0.35273463
