Pb_policy_iteration/cart_pole_modified_env/modified_algo_analysis/mod_vs_original_algo_experiments/pbpi/algo_outputs/models/Original_algo_CartPole_100_3_50_0.05_pbpi_model.pt (torch, 2195 bytes, 4 tensors)

layers.0.weight f4 [20, 2]
-2.0158396 -0.8647349 -1.8607804 -0.2621308 0.063104615 -0.14222535 -1.2947708 -1.0352812
-3.3232584 -0.55330443 0.1693689 0.16389677 1.2594689 0.30313846 0.04493101 -0.17468612
-0.030926758 -0.2334562 -1.4734026e-15 5.690745e-15 -0.13417724 0.17359418 -3.1637103e-06 -0.00072551233
1.2597063 0.3158988 -0.33236393 -0.2593821 -2.2771463 -0.28641167 1.0312204 0.45643267
0.20975968 -0.23488285 2.206395 0.5806003 -0.053711466 -0.04058956 2.2110102 0.46195632
00000000: 8403 01c0 445f 5dbf 0d2e eebf 0236 86be
00000010: fe3c 813d 86a3 11be 0dbb a5bf 1884 84bf
00000020: 44b0 54c0 5ca5 0dbf 0a6f 2d3e 8ed4 273e
00000030: 4736 a13f f734 9b3e 9409 383d ebe0 32be
00000040: 1d5a fdbc 240f 6fbe f656 d4a6 dc07 cd27
00000050: c265 09be acc2 313e 2150 54b6 4f30 3eba
00000060: 0e3e a13f 7dbd a13e 9b2b aabe bbcd 84be
00000070: c4bc 11c0 8da4 92be 08ff 833f 8bb1 e93e
00000080: 3ecb 563e 2185 70be 9335 0d40 39a2 143f
00000090: 8e00 5cbd 3d41 26bd 3181 0d40 8a85 ec3e

layers.0.bias f4 [20]
-0.21871103 -0.10748313 0.48149636 0.42637366 -0.4540493 0.5194527 0.21801364 0.30231783
0.35413662 -3.478179e-14 0.51448315 -0.0017843953 0.22717543 0.36075386 -0.12498777 0.5171881
0.1844937 0.19660732 0.22331752 0.3588129
00000000: c9f5 5fbe 1e20 dcbd b186 f63e a64d da3e
00000010: 2679 e8be dafa 043f f83e 5f3e 67c9 9a3e
00000020: 6551 b53e aca4 1ca9 2bb5 033f 5fe2 e9ba
00000030: ada0 683e bbb4 b83e 97f9 ffbd 7066 043f
00000040: ebeb 3c3e 6e53 493e 59ad 643e 53b6 b73e

layers.2.weight f4 [3, 20]
0.21788129 0.6653237 0.1530209 -0.0619869 -1.0096841 0.1228867 -0.2118188 -0.072456524
-0.008402311 2.6217157e-16 0.25557572 -0.00037939163 -0.20996194 0.166671 0.9309057 -0.72056216
-0.19697385 1.0958163 0.09382588 -0.4935492 0.7919894 0.60826814 0.046155207 -0.4651752
-1.282475 -0.13628073 -0.25728652 0.07432767 0.19993055 -4.9724984e-15 0.2982254 0.00203948
-0.22755893 0.09190596 0.763423 0.37338927 0.076034024 0.43795207 0.17268988 -0.4343064
-1.1442814 -1.6217636 0.25217062 0.51571167 2.5303915 0.08722154 0.5128673 0.07199289
0.058511645 1.1128486e-15 0.27867416 0.0013291885 0.5145926 -0.09677654 -1.6981302 0.15404573
0.19514772 -1.2410843 0.08097774 0.7248505
00000000: 461c 5f3e a752 2a3f 83b1 1c3e fae5 7dbd
00000010: 543d 81bf 06ac fb3d 07e7 58be 1664 94bd
00000020: d9a9 09bc b221 9725 d2da 823e 15e9 c6b9
00000030: 4300 57be cdab 2a3e d64f 6e3f c376 38bf
00000040: 83b3 49be b543 8c3f c827 c03d 7bb2 fcbe
00000050: d1bf 4a3f 76b7 1b3f 3e0d 3d3d 722b eebe
00000060: 2428 a4bf 2d8d 0bbe 0fbb 83be 1b39 983d
00000070: 98ba 4c3e 3427 b3a7 00b1 983e cca8 053b
00000080: 3505 69be 3139 bc3d b16f 433f e12c bf3e
00000090: bab7 9b3d 413b e03e 9ed5 303e 695d debe
000000a0: d077 92bf f395 cfbf 821c 813e ae05 043f
000000b0: eff1 2140 35a1 b23d 454b 033f 0271 933d
000000c0: e8a9 6f3d de60 a026 61ae 8e3e 2a38 ae3a
000000d0: 57bc 033f c732 c6bd 555c d9bf 2abe 1d3e
000000e0: ced4 473e dadb 9ebf a8d7 a53d cd8f 393f

layers.2.bias f4 [3]
0.14053752 0.10849485 -0.094747506
00000000: 11e9 0f3e 8c32 de3d fb0a c2bd
