Pb_policy_iteration/cart_pole_modified_env/modified_algo_analysis/mod_vs_original_algo_experiments/pbpi/algo_outputs/models/Original_algo_CartPole_100_3_10_0.05_pbpi_model.pt (torch, 2195 bytes, 4 tensors)

layers.0.weight f4 [20, 2]
000000 5c 71 b3 2f 87 85 50 32 90 9b f2 bd 82 96 0d bf
       3.2640457e-10 1.2137554e-08 -0.118460774 -0.5530778
000010 51 30 23 bf ce d9 12 bf 02 5a b6 27 31 2c cf a6
       -0.637456 -0.57363594 5.0612734e-15 -1.4375488e-15
000020 23 38 de be 02 04 34 3f 67 97 7a a0 f4 c0 83 a0
       -0.43402204 0.70318615 -2.1225919e-19 -2.231995e-19
000030 b5 c0 25 bf c8 59 6a 3f fb 88 98 bf 77 1c 53 3c
       -0.6474717 0.91543245 -1.1916803 0.0128852045
000040 fc fa 78 3e 6c 85 93 3f 28 11 67 3e a3 84 63 bd
       0.24314493 1.1525092 0.22565138 -0.055546414
000050 4d 27 e2 b4 87 8d cb b5 e2 0b 34 bf aa a2 2e 3f
       -4.2124375e-07 -1.5165868e-06 -0.7033063 0.68216956
000060 51 ee c0 bf ee c1 ec bd 53 e7 f5 3e 3b 6f a2 be
       -1.5072728 -0.11560427 0.4802805 -0.31725487
000070 fc fa 0c bd c4 97 98 3e 18 5d 12 3e 40 88 ee be
       -0.034419045 0.29803288 0.14293325 -0.46588326
000080 11 71 6f be 45 2b 9d be 00 b1 cf 25 3b cf 5c ac
       -0.23382975 -0.30697075 3.6028716e-16 -3.1378916e-12
000090 c8 81 0d 3f 60 59 89 3f 64 73 2f bf bf 3d bd be
       0.55276155 1.07304 -0.6853545 -0.3696117

layers.0.bias f4 [20]
000000 2d 77 9d b3 55 18 1c 3e 83 98 23 bf 09 a8 3a a8
       -7.33256e-08 0.15243657 -0.6390459 -1.0361511e-14
000010 17 3f 92 be 42 05 b6 a1 e0 2d 2a 3e 4a b2 46 3e
       -0.2856376 -1.2334191e-18 0.16619062 0.1940395
000020 0c aa 83 be f8 8e dc 3e 0a 2c 46 b6 e3 07 fe 3d
       -0.25715673 0.43077826 -2.9529933e-06 0.12403848
000030 9a d3 ad 3b 30 db 2c 3e 3d 9e 05 3f 79 05 07 bf
       0.005304766 0.16880488 0.5219458 -0.52742726
000040 e5 73 e8 3e df c5 9a ad d8 80 45 3e 6f 73 bd 3e
       0.4540092 -1.7595645e-11 0.19287431 0.3700213

layers.2.weight f4 [3, 20]
000000 62 9f 87 b1 d2 d2 3b 3e ea ae ba be 7a 78 a2 29
       -3.947137e-09 0.1834214 -0.36461574 7.2151446e-14
000010 35 74 ad 3e 39 58 8c a1 a0 fc 16 bf 2b de 09 3e
       0.3387772 -9.510121e-19 -0.58979225 0.13463657
000020 49 86 6c 3f 5d e4 3a 3d f6 07 3b 36 c5 f7 3b be
       0.923924 0.04562794 2.7869805e-06 -0.18356235
000030 54 29 81 be ac 90 f2 bd 98 c3 e0 3e c5 87 6f 3f
       -0.25226843 -0.11844 0.43899226 0.9356654
000040 e5 81 a5 3d 39 7b c5 ab ac 2b 2d bf 6d 32 61 3e
       0.08081416 -1.4031893e-12 -0.67644763 0.21991892
000050 c0 62 e7 ae 96 da 13 bc c3 ee 8a 3e c1 c7 a5 29
       -1.0522205e-10 -0.009024283 0.27135286 7.362124e-14
000060 cd 84 e7 3d cd 34 13 a2 0e 93 cc 3e 5c 21 fe 3e
       0.113046266 -1.9950167e-18 0.39955944 0.49634826
000070 61 c4 35 bf ed ec 61 3e 0d 18 4f b6 9c a0 00 3f
       -0.71002775 0.22063036 -3.0859403e-06 0.5024507
000080 4e aa a8 be 63 8d 4d bd d1 9c 56 3e 2b 2d 3c bf
       -0.32942432 -0.050183665 0.20958258 -0.7350642
000090 77 3b 3d bc 4f ab b0 2b e1 04 85 3c f7 ca 57 3e
       -0.011549822 1.25531e-12 0.016237678 0.21073519
0000a0 be a7 9e b0 7d 70 25 bd a3 93 8c bd df 4f 58 27
       -1.1543688e-09 -0.04039048 -0.06864097 3.001932e-15
0000b0 69 3b 2d bf 0d 34 fd a0 88 c5 a1 3c db f9 5c bf
       -0.6766878 -4.2894311e-19 0.01974751 -0.8631875
0000c0 8c fd ab bd 98 b9 f9 3c 75 10 89 35 f6 04 5c 3d
       -0.083979696 0.030484006 1.0212085e-06 0.05371567
0000d0 4b cb 8e 3f 56 d5 0b 3f b8 cf db 3d d9 1b be bc
       1.115579 0.546224 0.107329786 -0.023206638
0000e0 04 5f 54 3e b2 db 00 ac 9c 66 e6 3e a7 ec 42 bf
       0.2073937 -1.831185e-12 0.4500016 -0.7614235

layers.2.bias f4 [3]
000000 76 7e 79 3e 79 08 15 bc df 25 2c 3e
       0.24364647 -0.009096258 0.16811322
