Pb_policy_iteration/cart_pole_modified_env/reproduce_FHCP_results/modified_algo/models/CartPole_50_3_20_0.05_pbpi_model.pt (torch, 4115 bytes, 4 tensors)

layers.0.weight f4 [100, 2]
-0.56554407 -0.25224078 -0.8178237 -0.5127248 -1.2731469 -0.26949632 -0.29696494 -0.122175045
0.06935398 -0.60483956 0.55809426 -0.35784256 -0.32999757 -0.40390798 0.49273264 0.027461471
0.73595995 -0.75949347 0.21217489 0.00579104 0.19161366 -0.051061563 0.88663006 0.517245
-0.9247536 -0.6679361 0.30858967 0.41257998 0.5989687 0.1529099 0.32188565 -0.4924874
1.0809554 0.5300386 -0.5228635 -0.28623334 0.12708785 0.2693313 -0.43426308 0.20044562
0.5227777 0.077692345 1.1420256 -0.3209188 -0.0014337468 0.30609626 -1.1127545 -0.4887754
0.22588587 0.6110487 0.61859924 0.066845104 -0.039494045 0.059252977 -0.13270158 0.13129833
-0.43154606 -0.42001808 -0.70362043 0.047027882 -0.20496021 -0.39677233 -0.3679603 -0.051217865
0.08438942 0.33655286 -0.30576393 -0.47925335 0.22295691 0.5572637 -0.8849288 -0.38785163
-0.007781786 0.05996711 -0.56455535 -0.0040546767 -0.46434987 -0.57379276 -0.43311188 0.5732723
0.675007 -0.48624936 -0.24376845 -0.28408608 -0.14873205 0.35406825 -0.007526066 -0.17382313
-0.6500088 0.38440326 0.48997465 0.76218736 -0.65745306 0.16549996 -0.12926987 -0.3531633
-0.45658648 -0.49502906 0.12247814 0.090889834 0.27028486 -0.29043654 -0.19921091 0.30821168
0.4056521 -0.0670282 -0.37323147 -0.13599472 -0.07099287 0.6991052 -0.68997276 0.53457946
-0.008607296 -0.2455795 0.81517684 0.7605301 -0.8019429 -0.39241767 0.69276065 -0.57502526
0.25419435 0.42726457 0.9730736 0.25044647 0.9390745 0.2645417 -0.18795195 -0.030742077
0.17412138 -0.32515606 -0.95222485 -0.28613058 -0.703085 0.47935972 -0.5366906 0.2847569
0.86872 0.14740801 -0.24555378 -0.4401426 0.58716047 0.10782138 0.6669031 0.20369242
-0.037431825 -0.3909398 0.19667116 0.010892467 0.4834397 -0.43841392 -0.0027884534 -0.25036976
-0.4652294 -0.19777232 0.6334039 0.12311088 -0.52097046 0.49399945 -0.39720106 -0.08169606
0.010270795 0.3418098 0.31737426 -0.15688227 -1.0219855 -0.5550397 -0.3624682 -0.102783896
0.6804424 0.74946475 -0.64074206 -0.5015006 0.6122557 -0.60227925 0.25722197 0.29098764
0.6277695 0.6327564 0.22963724 -0.20778437 -0.052741785 0.71462715 0.30249238 0.6473118
-0.28900173 0.5568864 -0.49772945 0.11173055 -0.41030988 0.26625937 -0.030503979 -0.40806913
0.12984149 0.11070596 0.45478895 0.50699174 -0.37781528 0.47451317 0.7180486 0.36657244
00000000: 7fc7 10bf b425 81be e55c 51bf ef41 03bf
00000010: 7af6 a2bf 6cfb 89be ca0b 98be e936 fabd
00000020: 7609 8e3d c4d6 1abf 44df 0e3f 2437 b7be
00000030: 71f5 a8be 07cd cebe 7447 fc3e e1f6 e03c
00000040: df67 3c3f 2a6e 42bf 6044 593e c4c2 bd3b
00000050: 5f36 443e ee25 51bd 30fa 623f 2b6a 043f
00000060: a7bc 6cbf dcfd 2abf 77ff 9d3e af3d d33e
00000070: 0356 193f 6a94 1c3e 32ce a43e 4f27 fcbe
00000080: bf5c 8a3f 9cb0 073f 62da 05bf 2d8d 92be
00000090: 5123 023e cbe5 893e bb57 debe 9e41 4d3e
000000a0: c2d4 053f 2a1d 9f3d e52d 923f 784f a4be
000000b0: 8fec bbba a6b8 9c3e bd6e 8ebf c540 fabe
000000c0: a04e 673e b06d 1c3f 855c 1e3f 16e6 883d
000000d0: 82c4 21bd 40b3 723d ece2 07be 1273 063e
000000e0: 9bf3 dcbe 9c0c d7be 7820 34bf 4fa0 403d
000000f0: 17e1 51be be25 cbbe 4b65 bcbe d3c9 51bd
00000100: 5cd4 ac3d a850 ac3e 178d 9cbe b260 f5be
00000110: d14e 643e d5a8 0e3f b28a 62bf 7d94 c6be
00000120: 5afe febb 13a0 753d b386 10bf 18dd 84bb
00000130: 44bf edbe 15e4 12bf d7c0 ddbe f9c1 123f
00000140: 42cd 2c3f adf5 f8be 709e 79be bb73 91be
00000150: 374d 18be 6f48 b53e 389d f6bb b1fe 31be
00000160: fa66 26bf 81d0 c43e f5dd fa3e b61e 433f
00000170: d84e 28bf d278 293e 525f 04be d2d1 b4be
00000180: b4c5 e9be 7374 fdbe d2d5 fa3d 7324 ba3d
00000190: c762 8a3e 19b4 94be f2fd 4bbe eccd 9d3e
000001a0: a2b1 cf3e 1546 89bd 3218 bfbe 3342 0bbe
000001b0: b664 91bd 8ff8 323f 0ea2 30bf 33da 083f
000001c0: 9e05 0dbc 3179 7bbe 6eaf 503f 1ab2 423f
000001d0: 214c 4dbf f8ea c8be c358 313f db34 13bf
000001e0: c325 823e 6cc2 da3e 5a1b 793f 853a 803e
000001f0: 3067 703f 0272 873e 7a76 40be cfd6 fbbc
00000200: e04c 323e db7a a6be 02c5 73bf b57f 92be
00000210: 61fd 33bf a36e f53e 8e64 09bf a8cb 913e
00000220: 6f64 5e3f 20f2 163e 7372 7bbe 5f5a e1be
00000230: 2650 163f 75d1 dc3d 29ba 2a3f bf94 503e
00000240: 1d52 19bd 4329 c8be 2a64 493e 5176 323c
00000250: 6985 f73e ca77 e0be 7cbe 36bb 7730 80be
00000260: 8c32 eebe d484 4abe c226 223f 8f21 fc3d
00000270: 525e 05bf 7fed fc3e f05d cbbe 4450 a7bd
00000280: d646 283c b201 af3e e17e a23e bfa5 20be
00000290: 6cd0 82bf 1517 0ebf 6f95 b9be 5d80 d2bd
000002a0: 7931 2e3f ecdc 3f3f ac07 24bf 5862 00bf
000002b0: cabc 1c3f f92e 1abf 99b2 833e 55fc 943e
000002c0: 80b5 203f 53fc 213f 0626 6b3e 6dc5 54be
000002d0: c507 58bd cef1 363f 48e0 9a3e 3ab6 253f
000002e0: 09f8 93be 1b90 0e3f 65d6 febe fdd2 e43d
000002f0: 2314 d2be 2653 883e 7be3 f9bc 70ee d0be
00000300: 2bf5 043e ceb9 e23d 19da e83e 36ca 013f
00000310: 0171 c1be 64f3 f23e 08d2 373f 62af bb3e

layers.0.bias f4 [100]
-0.19135523 0.01233923 -0.09839565 -0.5898538 0.18296728 0.22006296 0.059963875 -0.65554035
0.056555264 0.32672468 -0.08152962 -0.11196404 0.022960285 0.10893172 0.2047606 -0.40477273
-0.0013831349 -0.30309185 -0.3095924 -0.059359014 -0.49880198 -0.026226208 0.24171773 -0.14459105
0.3923495 -0.38188994 -0.69443685 -0.5593628 0.25296715 -0.57155067 -0.10216581 -0.47448632
-0.3350603 0.44781333 0.14286153 0.065067686 -0.22005972 -0.03870298 0.04441007 0.07488642
0.3111117 0.04131271 0.27469903 0.21036999 0.35869074 -0.032292377 -0.5214055 0.28532928
-0.13181882 0.103042625 0.18521686 -0.12823899 0.20005053 0.03890863 -0.6722947 -0.11952363
-0.28227118 0.20700651 -0.1176372 0.21438846 0.1116764 -0.09624188 -0.09047716 -0.099509835
-0.074355744 0.09667187 0.30666956 0.16954629 0.05904256 -0.43446827 0.3451405 0.2542144
-0.5031079 0.058256328 0.26680198 0.32196522 -0.19892697 -0.4294168 -0.012814294 -0.016815115
0.27203766 0.08549594 0.0038511679 0.1659686 0.20353946 -0.511722 0.2323701 -0.17337051
-0.38303927 -0.4989921 -0.21670255 0.41951916 -0.027446665 0.31379902 -0.16536465 0.2159041
-0.68311685 -0.023966594 0.32478064 -0.25892484
00000000: a0f2 43be 7b2a 4a3c a983 c9bd a900 17bf
00000010: c65b 3b3e 2f58 613e ae9c 753d 7ed1 27bf
00000020: 7ea6 673d 7548 a73e 00f9 a6bd 674d e5bd
00000030: 3517 bc3c 9817 df3d c3ac 513e 5f3e cfbe
00000040: 4e4a b5ba db2e 9bbe e582 9ebe 7022 73bd
00000050: f962 ffbe 58d8 d6bc da84 773e ad0f 14be
00000060: 09e2 c83e 1487 c3be 9dc6 31bf 6732 0fbf
00000070: e984 813e 2551 12bf 4f3c d1bd dfef f2be
00000080: 068d abbe ca47 e53e 4b4a 123e 3542 853d
00000090: 5657 61be 0487 1ebd 55e7 353d 0d5e 993d
000000a0: 084a 9f3e 8437 293d 5aa5 8c3e 3b6b 573e
000000b0: 50a6 b73e 0345 04bd d57a 05bf ae16 923e
000000c0: 83fb 06be 0308 d33d 7da9 3d3e 1551 03be
000000d0: 0cda 4c3e a85e 1f3d 811b 2cbf cec8 f4bd
000000e0: d985 90be 84f9 533e c6eb f0bd a688 5b3e
000000f0: 99b6 e43d 761a c5bd 174c b9bd d0cb cbbd
00000100: d347 98bd e7fb c53d cb03 9d3e 8b9d 2d3e
00000110: 9dd6 713d a072 debe 41b6 b03e 6428 823e
00000120: aecb 00bf 309e 6e3d 459a 883e a0d8 a43e
00000130: 83b3 4bbe 85dc dbbe 0bf3 51bc dabf 89bc
00000140: 8548 8b3e 7f18 af3d e063 7c3b acf3 293e
00000150: a66c 503e 3700 03bf 6df2 6d3e 0a88 31be
00000160: b91d c4be e47b ffbe 46e7 5dbe 37cb d63e
00000170: d4d7 e0bc 44aa a03e 5a55 29be f715 5d3e
00000180: bfe0 2ebf 9755 c4bc a649 a63e cc91 84be

layers.2.weight f4 [3, 100]
0.04085697 0.3510391 -0.7218826 -0.055056497 0.03504614 0.0570657 0.23911177 0.07255368
-0.3770034 -0.061106596 -0.0025368151 0.16513222 0.29259327 -0.04573612 -0.06816819 0.062103555
0.42910162 0.071582146 -0.026293904 0.036107015 0.044383157 -0.1585499 -0.01216219 -0.6552594
0.037960842 0.0051071127 -0.044980805 -0.07456109 0.04196594 0.0044543766 -0.09930574 -0.040736906
0.0037765112 0.12051583 -0.02535251 0.35038242 -0.0104910685 -0.04000453 0.34313548 0.20795928
0.08529353 0.17637655 0.014822187 0.102649 0.08601839 0.08561836 -0.08925344 -0.025901256
-0.26476192 -0.018918986 0.025170423 -0.0949231 0.065008946 0.17014113 -0.028318942 0.08484358
-0.06915175 -0.3565572 -0.42011178 -0.07925413 -0.08374805 0.1805637 0.34772465 0.044143926
-0.1270719 0.24793547 0.09711406 -0.04404727 -0.3867714 -0.064525515 -0.017669717 -0.034752518
0.05015735 0.018640807 -0.06257102 0.07937073 -0.06705362 -0.0025174997 -0.20301205 0.06774509
-0.01996091 -0.04259009 0.51110893 -0.03258145 -0.28521037 -0.05446053 -0.068917476 -0.009980736
-0.06798262 -0.023123745 0.1448657 0.091895096 -0.22821666 0.05000118 0.036741067 0.012301467
-0.074444935 0.11019417 0.037243277 0.015434277 -0.16543752 -0.43627718 0.044196673 -0.087919526
0.19719087 0.14122464 0.13546973 0.025216145 0.035124507 -0.009461155 0.051570617 0.29745355
-0.58389735 0.1139532 0.012841542 -0.09154751 -0.71930844 -0.07799263 -0.013843369 -0.26854104
0.021390801 -0.40056863 -0.0055011963 0.2870515 -0.14691852 0.027441565 0.02050423 0.06180301
0.2332376 -0.071812496 0.26586837 -0.076891504 -0.0967515 0.19453812 0.11350416 0.04581905
-0.02176194 -0.28769088 -0.22020914 -0.0891951 0.14753102 0.056488328 0.05586733 0.15343079
0.08249427 -0.48466033 -0.067606606 0.040889185 0.26866308 -0.061126515 0.06566325 -0.116652146
0.017924162 0.103379376 -0.050611198 -0.24404417 0.07756056 0.32717437 0.20601806 -0.24630788
0.19585623 0.3773786 0.20494606 -0.00036421535 0.17329991 0.284289 0.09498593 -0.027179819
-0.058508374 -0.07393986 -0.042650983 0.0038887043 0.003091116 -0.017108772 0.10116119 0.06913322
0.02794506 0.09346982 -0.16206796 -0.26417488 0.051812906 0.033521242 -0.54126287 0.027554657
0.2515294 0.032309476 -0.14979355 0.13839298 0.18291676 0.062192183 0.19394007 -0.10835682
0.102916084 0.12862353 0.090557486 0.053203493 -0.020083454 -0.40667495 0.077943385 0.26924762
0.09531277 -0.01313165 0.48632213 0.07029201 -0.23904379 0.034609836 -0.28208303 -0.02996567
0.29444638 0.00058110646 -0.004193205 -0.5078432 0.3050036 -0.027752819 0.16768274 0.0746595
0.4204338 0.05180642 0.018522386 0.19189504 -0.08958901 0.6070216 0.08797188 0.38668633
0.07997594 0.05925168 0.032984663 -0.04427276 -0.15814689 0.054820225 -0.08214016 -0.038473055
0.007939947 -0.07064458 -0.15277494 -0.51826435 0.043185946 0.39779848 -0.10515984 -0.060858518
-0.028034173 -0.22615768 -0.018801916 0.062294837 0.08524947 0.28615645 -0.051051818 -0.03889311
-0.064106874 0.106450066 -0.012202184 0.108361505 -0.030107541 -0.23733094 0.0472977 0.20489988
00000000: a359 273d 66bb b33e 4ccd 38bf ec82 61bd
00000010: 8b8c 0f3d b9bd 693d b7d9 743e 0697 943d
00000020: 9706 c1be e94a 7abd b240 26bb 6c18 293e
00000030: c9ce 953e cc55 3bbd c49b 8bbd 4c60 7e3d
00000040: 35b3 db3e a999 923d 5066 d7bc f3e4 133d
00000050: 1dcb 353d e85a 22be ec43 47bc 14bf 27bf
00000060: d47c 1b3d 9159 a73b cb3d 38bd 7cb3 98bd
00000070: 7ae4 2b3d 05f6 913b cf60 cbbd bedb 26bd
00000080: 587f 773b 01d1 f63d 11b0 cfbc 5365 b33e
00000090: bbe2 2bbc cadb 23bd 74af af3e 47f3 543e
000000a0: 60ae ae3d 0e9c 343e c2d8 723c a439 d23d
000000b0: 692a b03d ae58 af3d 82ca b6bd df2e d4bc
000000c0: e08e 87be fdfb 9abc 3432 ce3c 0b67 c2bd
000000d0: 6923 853d 7a39 2e3e 20fd e7bc 79c2 ad3d
000000e0: 6f9f 8dbd aa8e b6be e418 d7be fd4f a2bd
000000f0: 1984 abbd b1e5 383e f708 b23e 43d0 343d
00000100: 231f 02be cce2 7d3e bce3 c63d e96a 34bd
00000110: e706 c6be f425 84bd 15c0 90bc a858 0ebd
00000120: cb71 4d3d 9bb4 983c 3c25 80bd 1f8d a23d
00000130: 6953 89bd a3fc 24bb 64e2 4fbe f0bd 8a3d
00000140: 1085 a3bc f272 2ebd 09d8 023f 2074 05bd
00000150: 1807 92be 0112 5fbd 9b24 8dbd 3e86 23bc
00000160: 793a 8bbd 026e bdbc ad57 143e 7f33 bc3d
00000170: a1b1 69be 0ace 4c3d cd7d 163d 188c 493c
00000180: 9676 98bd 7bad e13d 688c 183d 0de0 7c3c
00000190: 7468 29be b95f dfbe 9207 353d 270f b4bd
000001a0: 67ec 493e 319d 103e 94b8 0a3e 1792 ce3c
000001b0: b7de 0f3d f602 1bbc b63b 533d d54b 983e
000001c0: 4c7a 15bf 4c60 e93d 5565 523c 437d bbbd
000001d0: 9924 38bf 9aba 9fbd 4ccf 62bc 367e 89be
000001e0: c33b af3c 5517 cdbe 6143 b4bb 6af8 923e
000001f0: cf71 16be 22cd e03c 7df8 a73c 2725 7d3d
00000200: d6d5 6e3e 6e12 93bd e61f 883e 4b79 9dbd
00000210: a725 c6bd 0035 473e de74 e83d c2ac 3b3d
00000220: 1946 b2bc 384c 93be 817e 61be ecab b6bd
00000230: 5f12 173e 4e60 673d 24d5 643d f61c 1d3e
00000240: c1f2 a83d 6625 f8be 5575 8abd 6b7b 273d
00000250: 358e 893e cc5f 7abd 747a 863d 52e7 eebd
00000260: b1d5 923c 91b8 d33d b04d 4fbd b7e6 79be
00000270: 12d8 9e3d 6683 a73e 66f6 523e 2238 7cbe
00000280: 898e 483e c537 c13e 61dd 513e 28f4 beb9
00000290: 8875 313e 548e 913e fc87 c23d 36a8 debc
000002a0: 7aa6 6fbd c86d 97bd ccb2 2ebd a2d9 7e3b
000002b0: 5294 4a3b b227 8cbc 992d cf3d b895 8d3d
000002c0: 0aed e43c 1b6d bf3d 25f5 25be ee41 87be
000002d0: c539 543d 924d 093d 3490 0abf 4eba e13c
000002e0: 76c8 803e f156 043d 7b63 19be e4b6 0d3e
000002f0: 884e 3b3e 3bbd 7e3d 3a98 463e 2eea ddbd
00000300: abc5 d23d e3b5 033e 3476 b93d e8eb 593d
00000310: 0e86 a4bc b337 d0be c8a0 9f3d d3da 893e
00000320: 5733 c33d 2226 57bc 37ff f83e 42f5 8f3d
00000330: e5c7 74be 0bc3 0d3d 306d 90be 917a f5bc
00000340: adc1 963e 6555 183a 2767 89bb 0302 02bf
00000350: 6f29 9c3e e159 e3bc 06b5 2b3e 14e7 983d
00000360: 1943 d73e f832 543d 42bc 973c 2280 443e
00000370: 717a b7bd c465 1b3f 9a2a b43d c0fb c53e
00000380: 6dca a33d e4b1 723d ed1a 073d 5b57 35bd
00000390: 42f1 21be 2c8b 603d 1a39 a8bd ec95 1dbd
000003a0: 8d16 023c 1bae 90bd 0971 1cbe f9ac 04bf
000003b0: bfe3 303d 3eac cb3e 0b5e d7bd c846 79bd
000003c0: eca7 e5bc e195 67be 7a06 9abc df28 7f3d
000003d0: 4697 ae3d 1983 923e b61b 51bd 624e 1fbd
000003e0: 774a 83bd 7e02 da3d abeb 47bc a3ec dd3d
000003f0: 17a4 f6bc e206 73be 3cbb 413d 46d1 513e

layers.2.bias f4 [3]
0.017936394 0.23301083 -0.03480728
00000000: 58ef 923c 649a 6e3e 1492 0ebd
