Pb_policy_iteration/cart_pole_modified_env/reproduce_FHCP_results/modified_algo/models/CartPole_100_3_100_0.05_pbpi_model.pt (torch, 4115 bytes, 4 tensors)

layers.0.weight f4 [100, 2]
000000 12 48 0e 3f 17 b0 95 be 61 ff 48 bf ea e3 9f be
       0.5557872 -0.29235908 -0.7851468 -0.31228572
000010 aa 35 c2 bd ef 14 b5 bb a5 6c 79 bf 15 95 d1 bd
       -0.09482892 -0.005526177 -0.97431403 -0.10233513
000020 35 a7 80 bf 5a 0f 39 be 75 17 1d be 5a 01 d6 be
       -1.0051028 -0.18072262 -0.1534098 -0.41797906
000030 64 53 89 be 96 84 14 3f ca e5 be 3e 15 a9 9a 3e
       -0.26821434 0.5801481 0.3728469 0.30207124
000040 02 77 2d 3e 7d bd 90 3f 06 f7 19 3f cc 13 9f be
       0.16939929 1.1307827 0.6014255 -0.3106979
000050 f5 fc a8 bf 42 48 08 be 72 a6 8d 3d fc 2e ba 3e
       -1.3202196 -0.13308814 0.069165125 0.3636397
000060 57 0c d0 bf 33 67 24 be f2 93 86 3d d1 26 7b 3e
       -1.6253766 -0.16054992 0.06571187 0.24526526
000070 b2 99 b5 be c9 30 c3 3e 2c 47 16 be 29 c0 3f bc
       -0.35468823 0.38123158 -0.14675587 -0.011703529
000080 88 b0 89 be 3f 75 c8 3e 81 e6 77 be bc 85 a8 be
       -0.26892495 0.39151952 -0.24209024 -0.3291453
000090 52 68 a0 be e8 f2 83 bc 17 0a 0b bf 2c 9a 86 3e
       -0.3132959 -0.016107038 -0.5431227 0.262895
0000a0 50 a8 4a 3c 29 4e ec 3e ec da ae 3e 2c e0 0e 3f
       0.01236923 0.4615338 0.341514 0.5581081
0000b0 08 a5 29 3f ea 03 1f be 9f 62 9b bd 0b a9 32 3e
       0.6626744 -0.15528837 -0.0758717 0.17447297
0000c0 7c 61 40 bf cf fb 29 bf 2c 32 eb be 07 d5 62 be
       -0.7514875 -0.66399854 -0.45936716 -0.22151576
0000d0 e0 f8 d2 be bc b3 52 3e c4 8a 50 3f 3f 73 2a be
       -0.41205502 0.20576376 0.8146174 -0.16645525
0000e0 b8 96 0d c0 b1 49 b1 be 1b cd 58 3e 56 50 11 bf
       -2.2123241 -0.34626535 0.21171992 -0.5676321
0000f0 5b df 11 3f f7 b7 80 3e 91 a4 c3 3e 89 cc e3 bd
       0.5698144 0.25140354 0.38211492 -0.11122996
000100 c0 e8 33 3f 9f 11 7a 3d 6b 83 f0 3e bb b2 64 bf
       0.70277023 0.06105196 0.46975264 -0.8933522
000110 88 eb 58 3e e6 f9 00 3f 84 bc 3b bf 1a 4b fe be
       0.21183598 0.50381315 -0.73334527 -0.49666673
000120 9f 0c c4 bf ee 09 49 be 4c 11 29 bf 85 fd 11 3f
       -1.5316352 -0.19632694 -0.6604202 0.57027465
000130 0b 2e 97 3e fa c4 d8 be 15 e4 1a be 3a 2e 13 3e
       0.29527315 -0.4233778 -0.15126069 0.14373103
000140 d7 21 9f 3f cc b3 16 3e 05 fe 41 bf 79 ab b4 be
       1.2432202 0.14717025 -0.7577823 -0.35287073
000150 75 ca d0 3e bf 5b 00 bf ab f5 1c bf c0 77 1c be
       0.40779462 -0.50139993 -0.6131236 -0.15280056
000160 d3 1b 22 bf cb e6 d8 3e 96 ef 00 bd 78 79 05 bf
       -0.63323706 0.4236358 -0.031478487 -0.5213847
000170 40 fb 19 bf 1e c5 84 be a2 d9 b3 3e 94 7a ba 3e
       -0.60149 -0.25931638 0.35126978 0.36421645
000180 ba d3 b4 bc c8 1a 0b bf 85 b8 4d bf ce 52 51 3e
       -0.022073615 -0.5433774 -0.8035968 0.20441744
000190 3f a4 99 bf 4d 59 ed bd b9 46 c4 3e 46 8c 64 3d
       -1.2003249 -0.115892984 0.38335207 0.055797838
0001a0 f3 74 ec be 62 49 ee bd a0 dc 63 3d 56 55 7a 3c
       -0.46182975 -0.116350904 0.055630326 0.015279135
0001b0 cc cd b1 bd 24 9e d4 be 6d 98 ad 3c aa 48 bc 3d
       -0.08681831 -0.41526902 0.021190846 0.09193547
0001c0 bd 0b da be 97 44 56 3e 4c 83 85 bf 44 58 e2 be
       -0.4258708 0.20924602 -1.0430694 -0.44207966
0001d0 97 f3 8a be 4c e6 5c 3e 38 bf 53 3f fc 4c 48 be
       -0.2713897 0.21572226 0.8271365 -0.19560617
0001e0 69 53 7d be 12 05 9a be 13 bd 93 bd f7 da 11 3c
       -0.2473885 -0.30081993 -0.072137974 0.008902303
0001f0 fd 6c 91 3e 56 db 28 bf 25 ce 9c be 2f 9e 29 3f
       0.28403464 -0.6595968 -0.30626026 0.66256994
000200 52 ff 21 3f ae 05 65 be dc 86 94 3e 92 d4 80 bf
       0.6328021 -0.22365448 0.2900914 -1.0064871
000210 e4 fa 5c bf 89 59 94 be 73 bb ba be 3b 64 78 bf
       -0.8632033 -0.2897456 -0.36471137 -0.9702794
000220 a4 34 b5 bf 4a 05 5d be b6 05 e9 be be 26 c7 be
       -1.415669 -0.21584049 -0.4551217 -0.38896745
000230 19 2c cf 3d 75 39 5a bd 26 37 11 bf da b8 10 3f
       0.10115833 -0.05327745 -0.56724775 0.5653206
000240 14 68 23 be 8a 1a cd 3e 07 82 c8 be 86 2f 8c 3e
       -0.15957671 0.4005931 -0.39161703 0.27380008
000250 7c f7 f0 be 74 a4 e2 3d c5 26 72 bf 60 7e 0b be
       -0.47063816 0.11066523 -0.9459041 -0.13622427
000260 2b ad 25 bf 45 7f e5 be a3 1c f6 be 5c 05 e9 3e
       -0.6471736 -0.4482366 -0.48068723 0.455119
000270 ec 89 3e be ce 88 d4 3e bb 40 85 be a8 52 73 bd
       -0.186073 0.41510624 -0.26025948 -0.059405
000280 df 37 7a 3f c3 c6 1b 3e 0f cb 0f 3f e7 ef ae bd
       0.977415 0.1521254 0.5616922 -0.085418515
000290 29 dd 23 3f 86 2d 06 bf 2c eb ec bd 6a e1 da 3e
       0.6400934 -0.52413213 -0.11568293 0.42750102
0002a0 1d 27 86 3f e7 1a a8 3e b4 fd 46 bf 09 31 57 bf
       1.0480686 0.32833025 -0.7773087 -0.84059197
0002b0 40 96 a5 3f cc 84 f2 3e e3 aa 88 be 60 b9 1e 3c
       1.2936478 0.4736694 -0.26692876 0.0096877515
0002c0 41 dd 0e 3e b1 78 2b bd b1 22 c7 be 9d 67 bd 3e
       0.13951589 -0.041863147 -0.38893655 0.36993113
0002d0 56 4c 20 bf eb c8 a9 be f1 b5 4b be 1e 44 ad 3d
       -0.6261648 -0.331611 -0.19893624 0.08460258
0002e0 7f be c9 3d 72 2c 23 3f 5f 02 68 bf ab 09 08 be
       0.09850787 0.63739693 -0.9062862 -0.13284938
0002f0 45 63 9b be ce 40 9a 3e f0 c9 ee 3e 03 01 23 bf
       -0.30349174 0.30127567 0.4663844 -0.6367342
000300 06 16 90 be 50 4b da 3e 01 27 98 be 53 24 52 bd
       -0.28141803 0.42635584 -0.29717258 -0.051304173
000310 3d de b4 bf f1 85 4f be 76 05 0b 3f 4f 88 e5 bc
       -1.4130322 -0.20265938 0.5430521 -0.028019099

layers.0.bias f4 [100]
000000 dd f6 0f bf f1 7d c4 bd 35 cb f8 be b8 ba d2 3d
       -0.5623606 -0.09594334 -0.48592535 0.1028952
000010 08 f7 e1 3c 35 84 29 3e 96 4d 32 3e 3c 43 7d bb
       0.027583614 0.16554339 0.17412409 -0.003864481
000020 a6 65 fa bd 89 e9 c4 be 50 a6 92 bd f1 7f bb 3d
       -0.12226419 -0.38459423 -0.07160628 0.09155262
000030 fe 95 c3 bd b6 f8 65 3e 16 da a2 3c b5 87 8f 3d
       -0.09550093 0.22458157 0.019879382 0.07008306
000040 ef ef 97 3d 9f 4b 01 bf c0 cf cd 3d 3c 87 63 3e
       0.074188106 -0.50506014 0.10049391 0.22219557
000050 e0 3c 89 3e f2 d2 1a bf 15 f8 0a bf b1 50 22 be
       0.26804256 -0.60478127 -0.54284793 -0.15851094
000060 09 78 dc be 26 7d 80 3e 0f 58 3b 3e 66 42 50 3d
       -0.4306033 0.2509548 0.1829531 0.050844572
000070 f1 fd ce bb 16 36 83 3e 9f cd 18 bf ab 43 bb be
       -0.0063168933 0.25627202 -0.5968875 -0.36575064
000080 68 33 a1 be e1 1d fb 3d fd 4a 23 3e 9e 12 d5 3b
       -0.31484532 0.12261558 0.15946575 0.0065024635
000090 29 86 87 3d 83 3c 13 bf 1b db 93 3e 10 37 17 bf
       0.06617386 -0.5751421 0.28878102 -0.59068394
0000a0 91 1e b2 3d cb a6 66 3e ac 4b 76 3e 68 cb eb 3d
       0.08697236 0.22524564 0.24052304 0.11513406
0000b0 ea ca 41 3e 74 45 21 bf c0 a2 9e bd 06 82 ee 3d
       0.18925062 -0.629966 -0.07745886 0.11645894
0000c0 22 3b 2a bf 2d ad 71 3d 83 8e f8 3d eb d5 f5 bd
       -0.6649648 0.059003044 0.12136557 -0.12003692
0000d0 73 13 60 be 91 f0 84 3d f1 d7 0e bf 2e 27 6c 3e
       -0.2188242 0.06491197 -0.5579825 0.23061821
0000e0 60 cc 10 bf 05 97 07 be e7 bd 00 3e 5d 6e 74 bd
       -0.5656185 -0.13241203 0.12572442 -0.059675563
0000f0 0a 61 4a be 38 08 dd 3d e3 83 18 bd c9 fd 07 bf
       -0.1976358 0.10792583 -0.037235152 -0.5312162
000100 0b 5f 18 3e 3e 8b d0 3d 70 f5 2a 3e 9e 85 7c bc
       0.14880006 0.10182808 0.1669519 -0.015412716
000110 91 60 36 bb aa f6 f7 be f0 d8 cd be f5 18 09 bc
       -0.0027828554 -0.48430377 -0.40204573 -0.008367767
000120 9c fe 62 3e 50 9b 77 3e b7 ec a1 3d 37 97 f6 3d
       0.22167438 0.24180341 0.07906478 0.12040561
000130 18 52 1d bf aa 8b 58 3e ee 72 b2 3e 3f c2 13 be
       -0.6145339 0.21147028 0.3485331 -0.14429568
000140 66 9f 18 3d 9a 8a 1d bf 78 f1 9a be 5e 66 6c 3e
       0.03726139 -0.61539614 -0.3026235 0.23085925
000150 a0 61 80 bb 54 cf 24 3c 33 15 f4 bb 0b e1 33 bf
       -0.003917888 0.0100591965 -0.007448816 -0.70265263
000160 8c 63 3e 3e 14 ad 96 3c 6f 7c 5b 3e 81 ab 27 bf
       0.18592662 0.018393077 0.21434186 -0.6549607
000170 b0 72 2b 3e 94 17 f0 3d a0 71 4d 3e 4c 12 9b 3e
       0.16742969 0.11723247 0.20062876 0.30287397
000180 f2 3a 64 3e 9d f4 19 bf db 90 56 3d 94 74 f3 be
       0.22288111 -0.60138875 0.05238424 -0.4754988

layers.2.weight f4 [3, 100]
000000 e5 d0 d0 3c 16 30 ee be 28 bb 4f bd a2 b3 8d 3d
       0.025490234 -0.46521062 -0.050715595 0.06919028
000010 b5 d6 13 3f fb a6 8e bc 0a d7 b9 3c 61 05 47 3e
       0.5774949 -0.017413607 0.022685546 0.19435646
000020 a7 9a f8 bd 08 bf b1 bc 76 94 77 bf a0 c4 d7 3d
       -0.121388726 -0.021697536 -0.9671091 0.1053555
000030 6c 0e 91 bf 3f 0d 3a 3d aa ea 2d bd 31 d5 9a bd
       -1.1332526 0.04542279 -0.04246012 -0.07560194
000040 61 e9 8c bd 3d 64 2d be 6e f5 13 bc 83 e7 1e bd
       -0.06880451 -0.16932769 -0.009030683 -0.038795006
000050 a2 50 82 bd 56 97 a2 3d 2b ca 0a 3d 16 d5 ba 3d
       -0.06363036 0.07939021 0.03388421 0.09122674
000060 e9 6c 28 be 85 a8 9c bd cd ad e2 bd fa 5d c2 bd
       -0.16447796 -0.0764933 -0.11068306 -0.09490581
000070 aa 86 2c 3f cc 19 90 3d 62 9e fd bb 82 04 32 3b
       0.6739298 0.0703617 -0.007739828 0.0027163331
000080 ab 9a 7c bd 33 a8 52 be 06 b9 d0 3c ab be 84 3d
       -0.06167094 -0.20571975 0.025478851 0.064816795
000090 3a fe ff 3e 5c 55 82 3d 80 8d c2 3d 02 df bb bd
       0.49998647 0.06363937 0.09499645 -0.09173395
0000a0 f5 db 22 bf 78 61 8f bd 3d e3 a0 3d 0a 2b 14 bd
       -0.6361688 -0.070010126 0.07855842 -0.036173858
0000b0 45 ee b3 3c 13 2b 46 be fc 21 98 be 25 84 91 bd
       0.021964202 -0.19352369 -0.29713428 -0.07105283
0000c0 09 bf 14 be 84 ed 8c bd ed b1 3e 3e 97 01 b6 bd
       -0.14525999 -0.0688124 0.18622561 -0.08887022
0000d0 98 aa 1b be 99 de 9b 3d 9b e2 e8 bc b2 8b 77 3d
       -0.15201795 0.076108165 -0.028428366 0.06043596
0000e0 67 72 1d 3d 11 31 0b bf 21 7e a4 3a c3 eb af 3a
       0.03843918 -0.54371744 0.0012549796 0.0013421703
0000f0 75 59 28 bd 88 92 f3 bc 9e be 21 3c c5 5c 70 3d
       -0.041100938 -0.029732957 0.009872107 0.058682222
000100 fe 0d e7 3d fb 6f 92 bd c3 5a 9d 3d 87 a9 84 3d
       0.11281966 -0.07150265 0.07683327 0.06477647
000110 2e 91 db 3e 0e ea c5 bd 37 cb 93 3d 84 b2 37 3e
       0.428842 -0.09663783 0.072164945 0.17939192
000120 90 ae f2 bc 48 1b 6f bc e1 b9 bf bd 32 d8 a9 3d
       -0.029624254 -0.014593907 -0.093616255 0.08293189
000130 79 ba 0d be 56 32 80 3a 3a 2b cb bd 8d 96 0b be
       -0.13840665 0.0009780626 -0.09920354 -0.1363165
000140 33 eb f2 be 01 c0 76 bd a4 a7 10 3e 05 56 56 bd
       -0.47445068 -0.060241703 0.1412645 -0.05232813
000150 0e 17 06 3f dd 91 21 3e 9c 69 dd 3e 25 62 62 3d
       0.5237893 0.15778299 0.43244636 0.05526938
000160 fc 12 23 3d fe 73 8a 3c db 2f 94 bd 6f 37 96 3d
       0.039813027 0.016901013 -0.0723569 0.07334792
000170 80 68 23 3c 25 de 4c bc a0 0a 88 bd f2 b1 41 3d
       0.009973645 -0.012504135 -0.066426516 0.047288842
000180 31 94 32 bb c2 f6 b7 3d 29 2b 4a 3f d1 44 b6 bd
       -0.0027248973 0.08982612 0.7897211 -0.088998444
000190 ec c1 37 bd a7 9c c8 3e ea a7 08 3c 71 aa d3 3e
       -0.044862673 0.39182016 0.008340815 0.41340974
0001a0 ba 67 0e be 1e 14 45 bd dd d4 4b 3d 38 47 92 be
       -0.13906756 -0.04811489 0.04976355 -0.2856996
0001b0 2d 3f 25 3f 3d 9d 5c 3d 8c db 9f 3e b6 18 e0 3d
       0.64549524 0.05386089 0.31222188 0.10942213
0001c0 d6 70 0d 3f 2f e6 07 3e 13 f7 6b be b7 55 48 bc
       0.552503 0.13271402 -0.2304347 -0.012227467
0001d0 ea bc 21 be f1 26 80 3d e2 5c 20 3d ea 1b 25 3d
       -0.15794721 0.062574275 0.03915108 0.040309824
0001e0 16 d2 7d 3d 50 c3 55 bc 26 6c b9 3c 85 80 e1 bc
       0.06196793 -0.013047054 0.022634577 -0.027527103
0001f0 da fc 3c 3e 0a a2 32 3b 97 29 32 bd 21 26 e2 3e
       0.1845583 0.0027257227 -0.043496694 0.44169715
000200 f7 bd b7 bf 56 bf fe bd 6d 36 29 bc e3 ee be bd
       -1.4354848 -0.12438838 -0.0103279175 -0.09322908
000210 7e 35 6d bd cf b2 06 3f 2f e5 71 3d b8 c7 0a bf
       -0.057912342 0.5261659 0.059056457 -0.54210997
000220 9f 0c ed 3e d1 17 1a 3d 6a 0d e8 3d f3 6f 54 bd
       0.46298692 0.03762037 0.113306835 -0.051864576
000230 23 95 f2 3e fe b1 89 3e de 15 28 be 49 94 52 3e
       0.47379407 0.2689361 -0.16414592 0.20564379
000240 d9 79 ce bb f9 fb 1a 3e e6 76 93 3e c7 9d 84 3e
       -0.0063011465 0.15135182 0.2880165 0.25901625
000250 ce f7 97 3c 5c 19 b9 be dc 77 fc 3e 74 d5 ac 3d
       0.01855078 -0.3615216 0.49310195 0.084391505
000260 b0 6f bd 3b 30 e6 a4 3c 56 27 07 3e 3b d9 e4 3d
       0.0057811365 0.020129293 0.13198599 0.11174246
000270 b2 3a b5 bd 76 01 13 3f 35 38 59 3d 4b ba be be
       -0.08849086 0.57424104 0.05303212 -0.37251505
000280 92 d3 2e 3e 57 95 ac bb a7 90 5b be 99 03 a6 3d
       0.17072895 -0.005266826 -0.21441899 0.08106155
000290 aa 04 bc 3d 05 18 07 3f 32 5d ab 3e fe c9 f9 be
       0.09180577 0.52771026 0.3346954 -0.4878692
0002a0 b9 22 5e bf f3 cd a1 3d d5 c3 c5 bd e4 4d ac be
       -0.8677173 0.0790061 -0.096564926 -0.33653176
0002b0 c3 17 a3 3d ad 8a 35 3d 84 81 84 bd 3c 75 ca 3e
       0.079635166 0.044321705 -0.06470016 0.39542568
0002c0 f7 e9 3b 3e 03 70 80 bc 10 ac 93 3d 70 d1 1a bd
       0.1835097 -0.015678411 0.07210553 -0.03779739
0002d0 c2 f1 17 be a8 ce aa bd 0c 5d 81 bc b1 10 b2 bc
       -0.14838317 -0.08340198 -0.015791439 -0.021736475
0002e0 82 73 2e bf 4f d8 20 bf ff 5b 5f bf 67 f4 b9 3d
       -0.68145 -0.6283006 -0.8724975 0.09079819
0002f0 9b b0 8a 3c 65 05 54 be 92 17 75 3e fb 33 51 bd
       0.016929915 -0.20705183 0.23934773 -0.051074963
000300 90 b8 14 3e 92 83 a3 3e 56 8f ec 3c 13 7d 3c be
       0.1452353 0.31936318 0.028876942 -0.18407087
000310 b4 bf 5a 3d 49 f8 bc 3c 5b 42 cb 3d e2 b5 9a 3d
       0.05340548 0.02306761 0.09924766 0.07554223
000320 0f 69 6c 3d 14 8e 8e 3d f0 60 3a bd 1d 1a 01 bf
       0.05771738 0.06960693 -0.045502603 -0.5043047
000330 6b 18 ba be 7f d0 14 bc b3 61 ba bd 5e e3 16 3e
       -0.36346754 -0.0090829125 -0.09100666 0.14735171
000340 be cb 06 bf ed 0b 83 3c 26 38 1e 3f 7a fb c6 bd
       -0.52654636 0.015996898 0.61804426 -0.09715934
000350 24 69 0d 3f a6 d6 15 3e c6 4f d4 3d f7 0a 80 3c
       0.55238557 0.14632663 0.10366778 0.015630228
000360 86 7b 3f 3e f2 46 96 bd 2e 3e 01 3e 2a fe 4a 3e
       0.18699464 -0.073377505 0.12621376 0.19823518
000370 b0 72 f7 3c b1 df ca 3a 79 25 86 3d d9 b5 2e 3d
       0.030206054 0.0015478042 0.06550116 0.042653892
000380 c5 23 08 be ba ae 42 3e 25 8a 17 3e 11 c0 22 be
       -0.13294895 0.19011965 0.14798792 -0.1589358
000390 5d 7e 30 3f 88 ae d0 3d af 06 b1 bd b5 17 72 3d
       0.68942815 0.10189539 -0.08643853 0.05910464
0003a0 70 6a 96 bd b8 c2 bb be 11 46 a7 bd 13 64 ee 3e
       -0.0734452 -0.36671996 -0.08167661 0.46560726
0003b0 61 2c 89 bf 69 bd 45 3d fd 74 f8 3d c8 f4 98 bd
       -1.0716668 0.04827634 0.12131689 -0.07468563
0003c0 56 6d 5f 3e 7c b3 59 be cc bb 5c 3d 1a 42 19 be
       0.21819052 -0.21259874 0.053890035 -0.14966622
0003d0 69 44 9c 3d a6 fc 8b bd da e1 70 3c 4b cf 2b be
       0.07630236 -0.06835298 0.014702285 -0.16778295
0003e0 e4 45 36 3c 80 04 aa 3e 73 86 25 bf ca 97 69 bd
       0.011125062 0.33206558 -0.6465828 -0.057029523
0003f0 2f 48 9f 3c 57 2d 91 3c 92 87 cc 3a 1d 9b 37 3e
       0.0194436 0.017721815 0.0015604368 0.17930265

layers.2.bias f4 [3]
000000 d8 fc b3 3d 7f aa 47 3e 73 0a 33 3e
       0.087884605 0.19498633 0.17484455
