Pb_policy_iteration/cancer_treatment_env/algo_template/pbpi_algo_exp_setup/pbpi/algo_outputs/models/Mod_algo_Chemo_10_0.1_state_tag_g1_pbpi_model.pt (torch, 5367 bytes, 8 tensors)

layers.0.weight f4 [50, 2]
000000 8f 80 75 bc 6a c6 9c bc f4 f9 ff 3e 22 22 c1 3d
       -0.014984264 -0.01913758 0.49995387 0.094303384
000010 1c 80 7f 3e c9 36 47 3e 0d 9f e6 3e 45 cf 2a be
       0.24951214 0.19454493 0.4504322 -0.1668063
000020 a9 54 3d 3c 35 3b 51 3c 0c dc 8f 3c 7a 4b 02 3c
       0.011555829 0.012770464 0.017560981 0.007952565
000030 05 84 3f 3e 2e 43 10 3e 06 01 d4 3e 0f 55 86 3e
       0.18702705 0.14088127 0.4140703 0.2623677
000040 95 fd ff 3e 19 4c 9a bd af 4a 6f 3e 39 9e d5 3c
       0.49998155 -0.07534046 0.23368333 0.026076423
000050 51 04 b1 bd d5 cb c2 bc f1 84 50 3d 7c f9 36 bc
       -0.086434014 -0.023778835 0.050908033 -0.01116788
000060 ff 86 40 3c 6d 26 5a 3c b1 45 18 3e 53 50 c7 be
       0.011750936 0.0133148255 0.14870335 -0.3892847
000070 14 82 0d bf 4a a4 88 be 34 1e b9 3d f1 69 f6 bd
       -0.5527661 -0.26687843 0.09038964 -0.120319255
000080 74 f8 79 3b 03 98 40 be 97 07 f3 bd 0d b3 fe bd
       0.0038142474 -0.18807988 -0.11866682 -0.12436495
000090 d2 26 69 bd 50 cd 07 bd b4 78 4c 3e 51 67 02 3e
       -0.056921788 -0.033154786 0.1996792 0.12734725
0000a0 ba 97 b2 bd d0 4d 64 3d e5 39 d4 bb 65 04 1f 3e
       -0.08720346 0.05573827 -0.006476628 0.1552902
0000b0 cb 7b 37 3c dc ff 4d bd a6 79 69 be 3a a3 96 3d
       0.011198948 -0.050292835 -0.22800311 0.07355352
0000c0 c3 b0 3f be 37 15 a9 3e 4a dc 09 bf f5 ba c9 bd
       -0.18719773 0.33023998 -0.5385176 -0.09850112
0000d0 e4 17 cd 3e e8 f5 ff 3b 29 fd 18 3c bf 90 78 3c
       0.4005729 0.0078112967 0.009337702 0.015171229
0000e0 e5 1b 8d be eb 84 eb 3c 5e 07 02 3e c4 37 2c bb
       -0.27560344 0.028749904 0.12698123 -0.0026278356
0000f0 bf 6c 52 bd 33 89 bf bb 4c 62 ba bc c3 23 b8 bb
       -0.05137324 -0.005845213 -0.02275195 -0.0056194975
000100 dd ff 40 3e e8 77 c6 be b7 05 8b bd ef bf 20 3b
       0.18847604 -0.38763356 -0.067881994 0.0024528464
000110 17 ca 5e be 25 e8 d7 3e d1 25 af bd 33 82 e6 bd
       -0.21756779 0.421693 -0.08552135 -0.11255302
000120 eb 7a 5b 3e 4a 0f 04 3d 0e f0 83 bd 36 f9 f6 bb
       0.21433608 0.032241143 -0.06442271 -0.0075370325
000130 eb cc 99 be e3 cd d6 3e 4e 2b f7 3e 6d f2 f8 3d
       -0.30039153 0.41953954 0.48275226 0.12155614
000140 5a 30 b6 3c 4d 0d 99 3b 1e e7 c9 be 19 ea 19 3e
       0.022239853 0.004670775 -0.3943414 0.15030707
000150 00 ce e7 3e 18 4f 32 be f8 2a 5b be 7b da 9c 3e
       0.45274353 -0.17412984 -0.2140311 0.30635437
000160 26 5b be 3c d8 a1 e9 3b 4b c8 b4 bd d8 9e f5 bb
       0.023236822 0.007129889 -0.08827265 -0.0074957423
000170 17 54 55 3e 6c eb 52 3d ef 06 b0 be 1d 6a 19 3f
       0.20832859 0.051494047 -0.3438029 0.5992754
000180 c8 3e 45 3e 77 f3 34 3c d4 9a 48 3d b3 f2 e9 be
       0.1926223 0.011044375 0.04897578 -0.45692977

layers.0.bias f4 [50]
000000 b0 da be 3c b1 6c 91 be fe 0e 04 38 4b 6b bb be
       0.023297638 -0.28403237 3.1485215e-05 -0.36605296
000010 c2 f5 84 b8 0c ed c7 b7 51 b7 e4 b8 02 0c 8c b8
       -6.3400264e-05 -2.3833032e-05 -0.000109060325 -6.677957e-05
000020 95 d7 9c b6 69 ca 33 b8 19 f3 64 3d a6 6d a3 bc
       -4.6742593e-06 -4.2865435e-05 0.0558959 -0.019949745
000030 cc de 84 b8 68 1e 1a 3e c0 1a fc b4 79 04 90 3d
       -6.33575e-05 0.15050662 -4.695812e-07 0.07032103
000040 e5 39 9b 3d 72 b2 59 b5 83 69 50 3d 24 fb 03 39
       0.07579402 -8.109847e-07 0.050881874 0.0001258669
000050 09 ea a1 bc db ba 91 bc 4b ad 46 3b 34 91 05 3e
       -0.019764917 -0.017789295 0.0030315693 0.13043672
000060 b6 78 9a bc 0e 8e ba 3e fa 2a c1 be f9 59 1d 38
       -0.018856388 0.36436504 -0.377281 3.751551e-05
000070 f2 45 26 3e cd 18 ba 37 21 e8 00 3d d7 80 d6 3c
       0.1623762 2.2184477e-05 0.031471375 0.026184482
000080 9c 1f 01 3e 57 2b 1d 3d 33 84 57 be 3d d5 33 34
       0.12609714 0.03837141 -0.21046524 1.674825e-07
000090 24 fb b7 38 73 66 3a 3d 91 93 8e 3c 80 7e d3 be
       8.7728986e-05 0.04550786 0.01740435 -0.4130745
0000a0 6d 45 19 b9 04 6e 56 3e e6 3e 20 be a0 e2 c3 bc
       -0.0001461708 0.20940405 -0.15648994 -0.023911774
0000b0 be 24 6c b7 78 c8 86 3d 34 1d 98 38 58 48 85 bd
       -1.4075251e-05 0.06581205 7.253364e-05 -0.06507939
0000c0 2e b6 d5 b7 92 95 5d 3e
       -2.5476413e-05 0.21639088

layers.2.weight f4 [50]
000000 6f 81 64 3e 5b 66 6f 3f 70 17 b4 3e 12 5e 16 3f
       0.22315 0.9351556 0.3517413 0.5873729
000010 19 d2 3f be 55 a9 43 be 6e 02 ca 3e de ff 1a 3f
       -0.1873249 -0.19107564 0.3945498 0.6054667
000020 02 e5 77 3f 2c 22 37 3f 17 f8 09 bf 81 bb 52 3d
       0.96833813 0.7153652 -0.5389418 0.05144835
000030 f5 26 5f 3e 56 6d 0b 3f 4f 31 2f 3f dd 61 de 3e
       0.21792205 0.5446371 0.68434614 0.4343404
000040 7b bf a9 3e 36 41 32 3e 20 06 03 bf 52 2b 04 3f
       0.331539 0.17407688 -0.5118122 0.516286
000050 b3 a4 9d be aa 09 cf 3e b2 0d 5f 3e df be e7 3e
       -0.30789718 0.4043706 0.21782568 0.4526281
000060 5b d7 00 3f bf 22 8f 3f 81 a4 34 3f 81 c3 59 3e
       0.50328606 1.1182479 0.70563513 0.21265985
000070 a4 41 1e 3f 4f 5e 9e 3e 48 58 1b 3f d0 13 40 be
       0.6181891 0.30931327 0.6068158 -0.18757558
000080 6a a6 07 3f e7 dc 3d 3e 3f 59 a3 3e 81 cd 13 3e
       0.529883 0.18541299 0.31904027 0.14433862
000090 12 21 49 3f 39 3f 70 3e ad b0 28 3f a3 14 25 3f
       0.78566086 0.23461618 0.65894586 0.64484614
0000a0 82 7f 2f be 2b be 38 3f 34 7f 00 3f 6b a9 d9 3e
       -0.17138484 0.72165173 0.50194097 0.42512068
0000b0 a4 1b af 3d f1 ee a5 3e 96 af 20 3f ad 6b 05 3f
       0.08550194 0.3240886 0.6276792 0.52117425
0000c0 5a dd 2f 3f 84 e3 37 3f
       0.6869713 0.71831536

layers.2.bias f4 [50]
000000 7f 34 d7 3d 59 07 e4 bd be f5 55 3d c3 59 28 be
       0.1050806 -0.11134214 0.05223631 -0.16440491
000010 1c cd 90 bd 4b 09 0e be 0e 0a e1 bd df f4 04 3d
       -0.070703715 -0.13870732 -0.10988246 0.03246009
000020 96 e7 db bd 19 27 fe bd d0 ad 97 3d 11 6b 1b 3e
       -0.10737531 -0.12409801 0.07406199 0.15177561
000030 ba f9 47 bd 1c b1 88 bd 3b 9f 1c 3e 96 46 b5 3d
       -0.048822142 -0.06674406 0.15295117 0.08851354
000040 42 c1 fe 3d e9 45 09 3e c6 3b af 3d 99 f4 ab bd
       0.12439205 0.13405575 0.08556323 -0.08396263
000050 cd 19 a0 3d a2 2a d1 3d 15 5d aa bd 85 75 3e bc
       0.07817421 0.1021321 -0.08318535 -0.0116246985
000060 bf 77 b9 bd f5 ff 88 3d b7 f8 a0 3d 57 ce 05 bd
       -0.09056043 0.06689445 0.078599386 -0.032667484
000070 50 29 a0 bd 92 e6 70 be 87 2c 8c bd eb ef 7c bd
       -0.0782038 -0.23525456 -0.068444304 -0.06175224
000080 41 80 8d bd 51 06 21 3e 53 9b 2f 3d aa 5c 8f 3d
       -0.06909228 0.15725066 0.042872738 0.07000096
000090 da 6b 85 bb db a0 17 3e 75 2d cf 3d b3 c3 c3 bd
       -0.004071695 0.14807455 0.10116092 -0.09558811
0000a0 3e d7 77 bd 34 04 80 bd 48 38 5f 3c a0 32 cf 3d
       -0.060508005 -0.06250802 0.013624258 0.10117078
0000b0 d3 57 3f bd 52 37 10 bc fb 4c b5 3c 26 48 40 bd
       -0.046714615 -0.008802252 0.022131434 -0.046943806
0000c0 e3 1a a9 3d 73 b8 8c 3d
       0.08257081 0.068711184

layers.2.running_mean f4 [50]
000000 07 5d de 3b a3 1e 00 3d 66 b6 5d 3e b4 57 13 bb
       0.006785992 0.031279217 0.2165161 -0.0022482695
000010 20 25 41 3c c8 51 4c 3c 1b af 23 3e 3d 01 a9 3e
       0.011788636 0.01247067 0.15984766 0.33008757
000020 4c b7 56 3e 72 81 02 3e 88 3d bf 3b 17 96 31 3b
       0.2096836 0.12744692 0.0058361925 0.0027097517
000030 2c 73 47 3c 69 af 3e 3d b4 3f 83 bb ef 17 68 3d
       0.012173455 0.046554003 -0.0040053967 0.05666345
000040 27 49 a9 3b 4d 12 9b ba 1e 92 03 3c 62 87 23 3e
       0.005166191 -0.0011831016 0.0080304425 0.15969613
000050 cb 2a b7 b9 10 5d 5d 3d 0a 5d 59 b8 cc f9 5e 3d
       -0.00034936363 0.05404383 -5.182348e-05 0.054437444
000060 72 d8 5c 3d a5 06 7e 3d 1b 45 e7 ba 36 64 43 3c
       0.053917356 0.062018055 -0.0017644496 0.011925748
000070 2b 07 31 3d 6a e4 7a 3d 10 3b 9a 3b de 13 49 3c
       0.043219727 0.06125299 0.004706748 0.012272803
000080 19 20 35 3d 4c a0 f6 3b c5 a5 f6 39 06 76 7c ba
       0.044220064 0.007526433 0.00047044284 -0.0009630624
000090 8f ed f7 3d 60 9d 2f 3c 51 c5 a0 3d c7 cf 0a 3a
       0.121058576 0.0107186735 0.07850135 0.00052952435
0000a0 0b cc 56 3c 92 8d b7 3d 83 5b 99 3c 2b b3 01 3d
       0.013110171 0.08962549 0.018720394 0.03166501
0000b0 b7 cf 73 3c 66 a9 9c 3c c9 66 02 3e b2 77 94 3d
       0.014881066 0.019123744 0.12734522 0.072493926
0000c0 ec dc cc 3d 29 06 1c 3d
       0.10003075 0.038091812

layers.2.running_var f4 [50]
000000 7d be 3f 37 a2 69 00 3b ed 6a 00 3b 9f 1d f4 34
       1.1428839e-05 0.0019594212 0.0019594983 4.5470094e-07
000010 20 12 c8 36 f6 1e ed 36 43 55 8c 3a f7 29 98 3b
       5.9625745e-06 7.0667547e-06 0.0010706562 0.0046436745
000020 5c c6 a0 3b 1a a8 88 3a e2 20 76 38 c7 5e 90 37
       0.004906459 0.0010426075 5.8681595e-05 1.7210272e-05
000030 05 41 d5 36 84 64 18 3b 78 0b 41 35 f5 f8 fe 39
       6.355464e-06 0.0023253271 7.191479e-07 0.00048632143
000040 78 0f 22 39 3a 02 7e 33 43 f1 5c 38 16 1a 8e 3a
       0.00015455286 5.914101e-08 5.267678e-05 0.0010841514
000050 58 d7 7b 33 ba 1b 07 3a 5b f8 1a 35 b1 a7 84 3a
       5.8636346e-08 0.0005153973 5.7730875e-07 0.0010120777
000060 f2 5f 0b 3b 87 ad 69 3b 6c 1c a3 34 6c 9f dc 36
       0.0021266905 0.003565641 3.0381796e-07 6.57507e-06
000070 c0 4b 94 3a 8f 78 a0 39 54 54 e1 37 84 ce 2d 37
       0.0011314079 0.000306074 2.6861358e-05 1.0359687e-05
000080 ab c3 19 3b 09 c3 65 38 f4 4d a2 38 44 eb 2e 33
       0.0023462574 5.4779495e-05 7.739282e-05 4.0726505e-08
000090 ba 1f 68 3a 7b 01 83 38 c9 03 85 3b e6 f3 da 38
       0.0008854825 6.2468425e-05 0.004059289 0.0001044048
0000a0 03 3b 23 37 53 d8 49 3b 6d b2 95 3a 36 7c b9 3a
       9.729297e-06 0.0030799105 0.0011420973 0.0014151398
0000b0 ef 44 3b 37 00 7c 07 39 4e b8 63 3a d6 52 bd 3b
       1.1162118e-05 0.00012920797 0.00086868263 0.005777697
0000c0 d7 5a 38 3a fd 81 12 3b
       0.0007032579 0.002235531

layers.3.weight f4 [4, 50]
000000 c7 d8 4c bd fd b4 a7 bc a4 3f 9b bc bf ee d6 3d
       -0.050011422 -0.020472044 -0.018951245 0.10494756
000010 ee 59 62 bd ca 6b 75 bd 8e ca cd bb cc 6c 8a 3c
       -0.055261545 -0.05991725 -0.00628025 0.016897582
000020 f8 df ae 3c 56 5a 9d 3b b2 12 9b bc c9 eb 07 3d
       0.021347031 0.0048020286 -0.018929813 0.033183847
000030 7a ab 37 3d ec b6 53 bc 23 8f 0a be 6e 25 82 3b
       0.044841267 -0.01292203 -0.13531165 0.003971747
000040 06 5e 5d bd d7 6d fe 3c 1c fd 85 bd 61 bb 70 bc
       -0.054044746 0.031058235 -0.065424174 -0.014693112
000050 b9 22 36 3d b1 f4 27 bd 19 d7 79 bd de 2f 8d 3d
       0.044466708 -0.04100484 -0.06099615 0.068938956
000060 57 40 dd bd 1d b5 ef 3c c9 94 a7 3d d4 f4 4b 3d
       -0.108032875 0.029261166 0.081826754 0.049794033
000070 ed da 08 bb 96 0f 1c bd 4c cd 3e 3d f1 11 06 3d
       -0.0020882443 -0.0381008 0.046582505 0.032731954
000080 20 a0 ab 3d 87 50 c0 bd f0 ae 4d bc 73 00 8b 3c
       0.08380151 -0.09390359 -0.012553915 0.016967988
000090 23 fc 98 3c 22 e5 b0 bd a9 f8 c4 3c b8 45 6d 3b
       0.018674916 -0.086374536 0.024044352 0.0036204886
0000a0 89 86 8a bd ed f1 14 3d a5 63 b6 bc e2 28 05 3c
       -0.06763942 0.03636353 -0.022264311 0.008127423
0000b0 5c 33 3b bd f6 8f a2 bc 80 44 39 bb 03 79 a8 3d
       -0.045703277 -0.019844037 -0.002826959 0.08226206
0000c0 33 0b 24 3d 76 cf 92 bc 1e 65 ad bd 7e a9 de 39
       0.040049743 -0.01792119 -0.08466552 0.0004246942
0000d0 93 74 af 3d 2a 8b 0e 3d 96 69 3e be a3 6e 60 be
       0.08567157 0.034800686 -0.18594965 -0.21917205
0000e0 c0 ed a2 3d 71 e9 4a bd e4 1e ac 3d d5 43 14 3e
       0.079555035 -0.049539033 0.084043294 0.14479001
0000f0 4b 75 ff bd 4e 68 10 3e 9b 42 0b 3e 83 c3 65 3e
       -0.12473544 0.14102289 0.13599627 0.22437863
000100 17 c0 42 be e0 52 9f bd ed 66 9d 3d 69 5b 1c 3a
       -0.19018589 -0.07779479 0.07685647 0.0005964549
000110 47 b4 79 be d0 b8 b5 3d fd d5 8b be f3 fb ce 3d
       -0.24385177 0.08873141 -0.27311698 0.10106649
000120 ca b2 14 3e 5a a1 d1 3c ba 37 0d 3e 2b 97 b0 3d
       0.14521328 0.025589634 0.13790789 0.08622583
000130 da d4 9f 3e ab 25 3e 3e 8d ec b1 3c 78 d0 64 bd
       0.3121708 0.18569057 0.021719242 -0.055862874
000140 da 3a f8 3d 43 5b 9e 3d 97 67 f3 bd 5b b9 e7 3d
       0.121206 0.077322505 -0.118849926 0.113146506
000150 c9 f5 ae bd c4 61 07 bd bd 88 5d bc 07 72 16 3e
       -0.085429735 -0.03305222 -0.0135213705 0.14691935
000160 33 47 47 be 47 e4 a0 be 45 f0 e2 bd e7 54 67 bc
       -0.19460754 -0.31424162 -0.11080984 -0.014119363
000170 04 7f 1c be 24 eb 0a 3e 49 c2 1d 3d 49 f1 f1 bc
       -0.15282828 0.13566262 0.038515363 -0.029533999
000180 59 12 02 bd b6 4a 2b bd c5 25 00 3e 6f 8c 92 ba
       -0.03175578 -0.041819297 0.12514408 -0.0011180768
000190 63 8a 47 3e ca c6 81 3e ac 44 5f bd b5 e2 af be
       0.19486384 0.25346977 -0.05450885 -0.3435265
0001a0 03 52 a4 3c 9c c2 52 bd dc 34 07 be 1f 3d 30 be
       0.020058637 -0.051455125 -0.13203758 -0.17210816
0001b0 2f b4 7e 3e 69 c2 9c be c2 b0 4b be b9 fa e6 3d
       0.24873422 -0.30617073 -0.19891647 0.1127829
0001c0 56 60 58 be e8 7e ae bd a8 08 e9 3e 1c 04 b5 3d
       -0.21130499 -0.08520299 0.45514417 0.088386744
0001d0 b4 7e 88 3e fc 80 46 3e fc 89 4c bc 73 f2 9d 3e
       0.26659167 0.19385141 -0.01248407 0.30849037
0001e0 8c 91 81 3e c0 cd 24 bd be 83 ca 3b e1 32 bb 3d
       0.25306356 -0.04023528 0.0061802557 0.09140564
0001f0 53 a8 68 be 58 a5 0c bf e5 45 32 be 65 b4 2e be
       -0.2272046 -0.54939795 -0.17409475 -0.17061003
000200 dc 24 3f 3d 7b e3 5d be 08 f8 0f bf b0 17 af bd
       0.04666601 -0.21668808 -0.5623784 -0.0854944
000210 25 a1 11 3e ce 93 70 3e 2f 8b 3d 3e f6 0d 1c 3e
       0.14221628 0.23493883 0.18510126 0.152397
000220 8b 9f 97 be 75 39 85 3e aa 2c 9a 3d 7a 80 47 3e
       -0.2961391 0.260204 0.0752805 0.19482604
000230 2c 57 d0 3c 3c 64 45 3e 0f b8 1b 3d ab 91 1b be
       0.025432192 0.19276518 0.03801733 -0.15192287
000240 90 90 33 bd e9 a2 3a 3e 27 3c eb bd bb cc fe 3d
       -0.043839037 0.18226208 -0.114860825 0.12441393
000250 73 b1 38 be 51 2d 7a be bc a6 60 3e 73 6e 5e be
       -0.18036442 -0.2443135 0.21938604 -0.2172182
000260 ef 01 1d 3e 75 e7 bc bd f3 02 a0 bd fb 05 d9 bd
       0.15332769 -0.092238344 -0.078130625 -0.10596844
000270 34 c1 21 bc 1c 52 3a 3e 4e c9 9d be cd c2 04 3e
       -0.009872723 0.18195385 -0.30817646 0.12964936
000280 06 52 d9 3e 9a b6 57 3e f8 44 50 bd 8f 4a 16 be
       0.4244539 0.2106575 -0.050847024 -0.1467688
000290 e5 13 dd 3d 90 29 f8 3d 8b 50 6f be 7f e1 cc 3d
       0.1079481 0.121173024 -0.23370568 0.100039475
0002a0 42 2f ba 3e 16 86 f2 be f9 c9 e8 3d c5 fb c7 3c
       0.3636418 -0.47367924 0.11366648 0.024412045
0002b0 c1 7e 6c be 1a f1 06 be 61 a3 80 3d 68 e1 cc 3e
       -0.23095228 -0.1317791 0.06281162 0.4001572
0002c0 74 07 f8 3d 53 11 24 3d 51 dd 5f be 47 2e 84 bd
       0.121107966 0.040055584 -0.2186177 -0.06454139
0002d0 77 7e e1 3e 21 f3 3a be 25 e4 05 be 53 6b 9f 3d
       0.44041798 -0.18256809 -0.13075311 0.07784142
0002e0 15 02 91 bd 63 bc 64 3c ef 96 37 3e 51 93 8a bb
       -0.07080475 0.0139609305 0.1792867 -0.0042289873
0002f0 c1 ee eb 3d 3f 34 f6 3d 61 62 83 3d 53 de 2b be
       0.11520148 0.12021684 0.06415249 -0.16784029
000300 b6 35 ba 3d 16 22 f1 3d 88 47 c4 bd 95 b0 27 be
       0.09092276 0.117740795 -0.09583956 -0.16375954
000310 bb 2d 4a 3e b6 67 2b be d1 ca 72 3e 5f 26 76 3e
       0.19744007 -0.16738781 0.23710181 0.24038075

layers.3.bias f4 [4]
000000 e2 76 38 3d 4a 0d 40 3e 4b e9 66 3d 24 81 bd 3c
       0.04503525 0.1875507 0.05637483 0.023132868
