Pb_policy_iteration/cancer_treatment_env/algo_template/pbpi_algo_exp_setup/pbpi/algo_outputs/models/Modified_algo_ChemoSimulation_1000_4_10_0.01_pbpi_model.pt (torch, 5367 bytes, 8 tensors)

layers.0.weight f4 [50, 2]
0.27821493 -0.48620775 0.023102626 -0.25313404 0.09593388 -0.04097352 -0.05920063 0.12430572
0.08826995 -0.36654192 0.15374714 -0.16867445 0.58471924 0.26345482 -0.17632464 0.47189602
-0.5957511 0.17085026 -0.20098063 -0.34028107 -0.410921 -0.2816961 0.095848046 -0.27555683
-0.09461621 -0.014431444 0.16842274 0.23527311 0.044928502 -0.11835778 -0.112986125 0.17806403
0.17692326 0.07850481 -0.37452292 0.25568637 0.36822167 -0.33056426 0.33795413 -0.06642768
-0.21487302 -0.4843117 0.059264466 -0.2819077 -0.61414635 0.24566673 0.0108136535 0.17984922
-0.28024805 -0.21122155 -0.21385135 -0.3462277 -0.019825049 0.16460451 0.2382797 0.09187636
0.013296396 0.047901176 0.062303603 0.13482754 0.58540636 -0.34678695 0.54579157 0.28926682
0.15704836 -0.0894481 0.45451388 0.3414134 -0.027829826 -0.44089946 -0.47089487 -0.26396626
-0.6733817 -0.34167325 0.23228715 0.4113533 0.30588716 0.581365 -0.36720577 0.19335699
0.24873042 0.1852322 -0.20824727 -0.17338091 0.17462729 0.2320053 0.4840057 0.23690037
0.3462495 -0.24688885 0.02299213 -0.19107893 0.14871903 -0.4417395 0.08403843 0.036358103
0.045473013 -0.37333077 0.08593849 0.3074046
00000000: 3072 8e3e 39f0 f8be b841 bd3c c99a 81be
00000010: fb78 c43d dad3 27bd 5c7c 72bd ff93 fe3d
00000020: e0c6 b43d 62ab bbbe e46f 1d3e ffb8 2cbe
00000030: 29b0 153f 8de3 863e 728e 34be 5b9c f13e
00000040: 2583 18bf 5ff3 2e3e decd 4dbe 5239 aebe
00000050: 3d64 d2be 793a 90be fb4b c43d c915 8dbe
00000060: 25c6 c1bd dd71 6cbc 0377 2c3e 6feb 703e
00000070: f306 383d 9065 f2bd 4565 e7bd 6b56 363e
00000080: 5f2b 353e 21c7 a03d 78c1 bfbe 53e9 823e
00000090: 8d87 bc3e b83f a9be 5308 ad3e 3c0b 88bd
000000a0: ac07 5cbe b4f7 f7be 4cbf 723d 3556 90be
000000b0: b238 1dbf 0f90 7b3e c02b 313c 652a 383e
000000c0: ac7c 8fbe 764a 58be d9fb 5abe c244 b1be
000000d0: 2468 a2bc 168e 283e 98ff 733e ac29 bc3d
000000e0: 20d9 593c 0634 443d 1032 7f3d 3b10 0a3e
000000f0: 31dd 153f 0f8e b1be ffb8 0b3f c81a 943e
00000100: 49d1 203e 9130 b7bd 0bb6 e83e bdcd ae3e
00000110: 60fb e3bc 93bd e1be 2219 f1be 9626 87be
00000120: be62 2cbf ccef aebe afdc 6d3e e69c d23e
00000130: 3e9d 9c3e 56d4 143f 6502 bcbe 60ff 453e
00000140: 30b3 7e3e 83ad 3d3e c63e 55be c48a 31be
00000150: 7fd1 323e cc92 6d3e 98cf f73e 0396 723e
00000160: 9d47 b13e 6ed0 7cbe fe59 bc3c 32aa 43be
00000170: cd49 183e ae2b e2be 571c ac3d 3cec 143d
00000180: e941 3a3d 3625 bfbe 8500 b03d 2364 9d3e

layers.0.bias f4 [50]
0.065564714 -1.6962176e-07 -0.061758537 -0.22337465 0.31081513 -0.10867698 4.3471005e-07 -0.41035235
-0.1023429 -1.918085e-07 -1.9793252e-07 -0.0957643 0.051782075 -0.47108412 -0.026882498 0.08492478
6.2605e-06 0.14127217 -0.59672886 0.09047704 2.7213428e-06 0.5075401 0.2979595 -0.21842085
0.38482428 -1.4609735e-06 0.0016179973 -0.3306022 -0.09751125 6.633627e-07 -0.15999876 -5.1824522e-06
0.10610907 -0.62860304 -2.276842e-06 -3.1179016e-07 0.30611476 -0.8597261 -8.446752e-06 -0.3232043
-2.9164275e-06 -1.4575156e-07 -2.4627236e-05 -2.3521593e-06 -0.076592505 -0.0026298868 0.5763282 4.133032e-06
-0.0060896524 1.4983597e-06
00000000: cb46 863d 4621 36b4 85f6 7cbd 53bc 64be
00000010: 2923 9f3e 0992 debd 1862 e934 b419 d2be
00000020: 2899 d1bd ebf3 4db4 4787 54b4 1320 c4bd
00000030: 7119 543d f031 f1be af38 dcbc 0bed ad3d
00000040: 4911 d236 a7a9 103e 39c3 18bf 074c b93d
00000050: 50a0 3636 26ee 013f 268e 983e b7a9 5fbe
00000060: b007 c53e ab16 c4b5 fb12 d43a b144 a9be
00000070: fab3 c7bd f011 3235 b7d6 23be ede4 adb6
00000080: b64f d93d 21ec 20bf d9cb 18b6 1d64 a7b4
00000090: 13bb 9c3e 0217 5cbf 86b6 0db7 097b a5be
000000a0: d8b7 43b6 e27f 1cb4 9696 ceb7 cad9 1db6
000000b0: 88dc 9cbd 2e5a 2cbb 3f8a 133f 79ae 8a36
000000c0: b58b c7bb 3f1b c935

layers.2.weight f4 [50]
0.7427681 0.37960067 0.9802704 0.8116908 0.9093078 0.7557973 0.7519551 0.9793805
0.80185694 0.4188629 0.54484224 0.8694131 0.6338863 1.0840158 0.61534953 0.7212243
0.64224815 0.89115626 0.8953905 0.8349058 0.7951007 0.9072364 0.908928 1.0118542
0.7460402 0.5198574 0.6884157 1.0857987 0.4458662 0.83997947 0.9344937 0.88036704
0.8085983 0.93155766 0.6629693 0.8026296 0.935789 1.0724063 0.81911564 0.745768
0.7643447 0.21221316 0.5694402 0.7794035 1.032084 0.58078605 0.93212885 0.80668867
0.7044155 0.46196198
00000000: 0d26 3e3f 055b c23e 00f3 7a3f f8ca 4f3f
00000010: 65c8 683f ef7b 413f 2180 403f aeb8 7a3f
00000020: 7f46 4d3f 3375 d63e c87a 0b3f db91 5e3f
00000030: 5f46 223f 08c1 8a3f 8c87 1d3f 28a2 383f
00000040: 606a 243f d122 643f 5038 653f 63bc 553f
00000050: b88b 4b3f a540 683f 81af 683f 7084 813f
00000060: 7efc 3e3f 6015 053f 033c 303f 74fb 8a3f
00000070: 9348 e43e e508 573f fb3a 6f3f bc5f 613f
00000080: 4c00 4f3f 907a 6e3f 5bb8 293f 2279 4d3f
00000090: de8f 6f3f 9c44 893f 90b1 513f a7ea 3e3f
000000a0: 18ac 433f 684e 593e d5c6 113f fd86 473f
000000b0: 541b 843f 65ae 143f ff9f 6e3f 2683 4e3f
000000c0: 9354 343f 4886 ec3e

layers.2.bias f4 [50]
0.1516711 0.15191007 0.14988641 -0.16093272 0.13531974 -0.15539314 0.00027168862 0.067304365
0.02784248 -0.2277205 0.12857047 -0.09039221 0.21646807 0.117123075 0.11337334 0.09526385
0.11655872 -0.06493931 -0.14818479 0.07364249 -0.11187252 -0.041719016 0.115759924 -0.02479576
0.01770583 0.019823216 0.21885547 0.040853422 0.07659989 -0.0045329644 0.12810819 -0.04369177
-0.16974835 -0.16484414 0.03649267 -0.12245432 0.03386036 0.1262678 -0.11478535 0.13287374
-0.0249449 0.16511758 -0.2105564 -0.106965 -0.044601746 0.2749906 -0.18770957 -0.0010386702
0.0532388 -0.2163575
00000000: ab4f 1b3e 508e 1b3e d37b 193e 8ccb 24be
00000010: 4291 0a3e 611f 1fbe 6e71 8e39 dfd6 893d
00000020: ea15 e43c 902f 69be faa7 033e 8d1f b9bd
00000030: cea9 5d3e 39de ef3d 4830 e83d b219 c33d
00000040: 57b6 ee3d e7fe 84bd c1bd 17be e0d1 963d
00000050: 6b1d e5bd 8fe1 2abd 8a13 ed3d 7a20 cbbc
00000060: d10b 913c 4c64 a23c a61b 603e eb55 273d
00000070: 67e0 9c3d 4389 94bb cb2e 033e 24f6 32bd
00000080: 83d2 2dbe e7cc 28be 5779 153d 55c9 fabd
00000090: 29b1 0a3d 594c 013e 9514 ebbd 0e10 083e
000000a0: 3f59 ccbc 9514 293e 199c 57be 7710 dbbd
000000b0: 52b0 36bd 91cb 8c3e f036 40be fd23 88ba
000000c0: ee10 5a3d d28c 5dbe

layers.2.running_mean f4 [50]
0.07170983 -0.0022911027 0.022682603 -0.0010185402 0.10279009 0.016637824 0.78683555 0.07894172
0.006073705 -0.005170203 -0.0064830426 -0.0021717655 0.0050224117 0.0010134914 0.0011226349 0.16776851
0.2368887 0.15877973 -0.0043687173 0.3292959 -0.006717374 0.28475016 0.17921011 0.022496514
0.04220654 -0.0053448435 0.14628494 0.0406694 -0.00038255454 0.18924364 0.20097457 0.7772473
0.16197926 0.1887236 -0.004603769 -0.006847995 0.0020262129 -0.002443489 0.84954613 -0.004208481
0.4069289 -0.0035878285 0.38634503 0.6698942 0.11317043 -0.0017056804 0.30115741 0.11160378
-0.0033373628 0.3809302
00000000: 9adc 923d 5326 16bb ded0 b93c 8a80 85ba
00000010: 9c83 d23d 0c4c 883c 0e6e 493f 32ac a13d
00000020: ee05 c73b ce6a a9bb b46f d4bb 2e54 0ebb
00000030: 0b93 a43b 21d7 843a 6025 933a 82cb 2b3e
00000040: f492 723e 2797 223e 7527 8fbb 7999 a83e
00000050: 6b1d dcbb c6ca 913e db82 373e 9c4a b83c
00000060: c4e0 2c3d cc23 afbb b8cb 153e f594 263d
00000070: 9a91 c8b9 16c9 413e 47cc 4d3e aef9 463f
00000080: e4dd 253e c240 413e 37db 96bb 2565 e0bb
00000090: 36ca 043b f122 20bb db7b 593f 4ce7 89bb
000000a0: fc58 d03e c621 6bbb 04cf c53e 307e 2b3f
000000b0: e6c5 e73d 2391 dfba 4e31 9a3e 8690 e43d
000000c0: a8b7 5abb 4809 c33e

layers.2.running_var f4 [50]
0.022017866 1.8032417e-06 0.0014552854 1.0131033e-05 0.015235005 0.0018600913 0.10386512 0.022229435
0.0012918564 2.4764363e-06 5.1112243e-06 2.255976e-05 0.00015025359 4.3528384e-05 5.1722476e-05 0.015211465
0.009521588 0.034728024 7.8837875e-05 0.05144506 4.650375e-06 0.024852896 0.05104192 0.0018368067
0.007721189 2.6197692e-06 0.007918401 0.003317029 4.601655e-08 0.0036233151 0.090329565 0.08946053
0.01451258 0.015783858 4.5654983e-06 6.647911e-06 0.0010551059 3.551866e-06 0.06928144 1.7714572e-05
0.018978788 1.3711038e-06 0.013472229 0.07066487 0.031763885 1.0667603e-06 0.05433697 0.0021545598
4.080667e-06 0.018939085
00000000: d05e b43c ea06 f235 46bf be3a 75f8 2937
00000010: 3e9c 793c 4fce f33a 3cb7 d43d 811a b63c
00000020: 8253 a93a da30 2636 1581 ab36 b73e bd37
00000030: 648d 1d39 3f92 3638 96f0 5838 8239 793c
00000040: 6f00 1c3c f93e 0e3d c355 a538 0eb8 523d
00000050: 6b0a 9c36 4d98 cb3c 5511 513d 01c1 f03a
00000060: 0702 fd3b 4bcf 2f36 2ebc 013c 8362 593b
00000070: bba3 4533 2475 6d3b b5fe b83d 1537 b73d
00000080: 2cc6 6d3c 264d 813c 5531 9936 1f11 df36
00000090: 7b4b 8a3a 985c 6e36 6de3 8d3d c199 9437
000000a0: 6779 9b3c c506 b835 a0ba 5c3c beb8 903d
000000b0: d91a 023d 9b2d 8f35 7190 5e3d 8433 0d3b
000000c0: aaec 8836 2426 9b3c

layers.3.weight f4 [4, 50]
-0.012682858 0.072333224 -0.15455101 0.0142789325 0.1685706 0.094538234 0.024121907 -0.20498985
0.045753397 -0.15786855 0.016933767 -0.24908257 0.026583143 -0.07240789 -0.19208205 -0.09077472
0.07909723 0.097145945 0.15866806 -0.038207844 0.004218951 0.038205028 -0.06742756 0.19712065
0.0022405353 -0.033419315 0.10795142 0.15692568 -0.26663733 -0.07304731 -0.11805877 0.1333515
-0.015417035 0.0816782 0.10725084 -0.16657038 -0.028271394 -0.10974955 0.14748247 -0.054016713
-0.0919997 -0.0021665348 -0.0479855 -0.12380317 0.17524268 0.14053015 -0.24125654 -0.056714438
0.059961617 -0.042743463 0.05349463 0.0062198015 0.13318554 -0.25779524 -0.12145445 -0.13373554
0.025463896 0.013695825 -0.021692634 -0.12596126 0.06397158 0.26031265 0.21580057 -0.24744564
0.1211819 0.061030563 0.033640105 -0.1883782 -0.13679194 0.14599158 -0.115455344 0.103514425
0.13233824 -0.07043428 0.16624883 -0.049289584 0.119732834 -0.023842758 0.32847458 0.09819678
0.1591455 -0.07709599 -0.11981211 -0.016746433 -0.041797116 -0.11205641 -0.03399782 0.23244923
0.046823923 0.19808903 0.06856069 0.061096575 -0.06767113 -0.070948735 -0.21236315 -0.04252086
-0.03873024 0.096820585 0.0019714683 -0.014159206 -0.040511027 -0.013127767 0.11024293 0.08135508
0.08325807 0.043825697 -0.09163644 0.16630521 -0.03978909 0.0147402 -0.070171826 -0.0008553383
-0.14650051 0.063010655 0.12613963 -0.071364895 0.09592217 0.038157806 -0.00660423 0.068063244
0.16148861 -0.13863142 -0.08125953 -0.16535832 -0.1488272 0.18096584 -0.047815748 -0.33658347
0.057869416 0.027269013 -0.024448264 -0.14265987 -0.17741895 0.13821326 0.04981797 0.10537821
0.13553292 0.026193812 -0.02630434 -0.04506814 0.03747838 0.13049069 -0.10433255 0.09985087
0.07054019 0.24184793 0.13330229 -0.06463075 -0.11285066 -0.09581429 -0.027591186 0.0041788607
0.0066257627 0.112397425 0.0852488 -0.009301179 0.1490303 0.006616684 0.062855445 -0.105257824
-0.04293216 -0.05542731 0.1082671 0.23606469 0.03114863 -0.013850773 -0.05302474 -0.0066730343
0.004086104 -0.113033466 -0.16397075 -0.06424882 -0.030285204 0.017645331 -0.0572436 -0.10666565
-0.02245752 0.10944127 0.059630852 -0.07867213 -0.023113288 0.032442577 0.16072907 -0.20245117
-0.03832365 0.14563149 0.0016909888 -0.0865499 -0.0874436 -0.017511718 -0.008313216 0.04288846
0.15724666 0.100897595 -0.108727604 0.026579395 0.040207107 -0.022721775 -0.016098054 0.000530873
00000000: c3cb 4fbc 7123 943d 9f42 1ebe 2ff2 693c
00000010: c59d 2c3e 439d c13d 4e9b c53c dce8 51be
00000020: ea67 3b3d 4ba8 21be afb8 8a3c 800f 7fbe
00000030: e4c4 d93c 964a 94bd 28b1 44be 19e8 b9bd
00000040: bbfd a13d 74f4 c63d e179 223e d47f 1cbd
00000050: 203f 8a3b e07c 1c3d 7617 8abd ffd9 493e
00000060: f2d5 123b b1e2 08bd a215 dd3d 20b1 203e
00000070: b084 88be d499 95bd ccc8 f1bd 4c8d 083e
00000080: bb97 7cbc e646 a73d 54a6 db3d 6d91 2abe
00000090: 6999 e7bc 5fc4 e0bd a505 173e a140 5dbd
000000a0: 576a bcbd 6cfc 0dbb 728c 44bd 848c fdbd
000000b0: d172 333e 23e7 0f3e f40b 77be 664d 68bd
000000c0: 509a 753d c513 2fbd 2f1d 5b3d 7acf cb3b
000000d0: ca61 083e bdfd 83be 1cbd f8bd f8f1 08be
000000e0: a999 d03c 7464 603c c0b4 b1bc fdfb 00be
000000f0: 8803 833d b347 853e d3fa 5c3e 6462 7dbe
00000100: 372e f83d 2ffb 793d 35ca 093d 37e6 40be
00000110: 3013 0cbe d17e 153e da73 ecbd 5fff d33d
00000120: ad83 073e d93f 90bd 223d 2a3e e0e3 49bd
00000130: 7d36 f53d e351 c3bc d22d a83e 651b c93d
00000140: 0af7 223e 81e4 9dbd 0d60 f5bd d12f 89bc
00000150: 7433 2bbd d57d e5bd 4c41 0bbd 2c07 6e3e
00000160: 71ca 3f3d dad7 4a3e 8c69 8c3d 6740 7a3d
00000170: 2997 8abd 924d 91bd ba75 59be 5a2a 2ebd
00000180: 9aa3 1ebd df49 c63d c033 013b 04fc 67bc
00000190: e4ee 25bd d815 57bc 0cc7 e13d 7e9d a63d
000001a0: 3583 aa3d 9382 333d e3ab bbbd ea4b 2a3e
000001b0: e3f9 22bd e180 713c 3fb6 8fbd c838 60ba
000001c0: 3b04 16be bb0b 813d bf2a 013e c227 92bd
000001d0: d872 c43d 5c4b 1c3d 4c68 d8bb be64 8b3d
000001e0: 455d 253e 65f5 0dbe 656b a6bd b153 29be
000001f0: 2866 18be 1c4f 393e 72da 43bd ab54 acbe
00000200: 7b08 6d3d 4463 df3c ba47 c8bc 6e15 12be
00000210: 50ad 35be c787 0d3e ed0d 4c3d 88d0 d73d
00000220: 24c9 0a3e 6894 d63c 337c d7bc 5f99 38bd
00000230: ee82 193d 5a9f 053e 4eac d5bd 9d7e cc3d
00000240: 6077 903d fca6 773e 6580 083e 205d 84bd
00000250: 3f1e e7bd 483a c4bd e906 e2bc d3ee 883b
00000260: ed1c d93b 9f30 e63d ec96 ae3d f963 18bc
00000270: 669b 183e c5d0 d83b 5bba 803d 6a91 d7bd
00000280: a2d9 2fbd bf07 63bd 24bb dd3d f1ba 713e
00000290: 692b ff3c 5aee 62bc 7830 59bd 78a9 dabb
000002a0: bae4 853b 177e e7bd f3e7 27be e394 83bd
000002b0: ad18 f8bc f18c 903c 4478 6abd 8573 dabd
000002c0: d5f8 b7bc bf22 e03d 7b3f 743d db1e a1bd
000002d0: 1458 bdbc 82e2 043d 2996 243e 5c4f 4fbe
000002e0: 42f9 1cbd 6c20 153e 2ba4 dd3a 1341 b1bd
000002f0: a115 b3bd bc74 8fbc 2834 08bc cfab 2f3d
00000300: 4505 213e 66a3 ce3d 94ac debd 08bd d93c
00000310: 35b0 243d 0423 babc 11e0 83bc 492a 0b3a

layers.3.bias f4 [4]
0.20972994 0.10851212 0.10945326 0.058765195
00000000: 72c3 563e 9a3b de3d 0829 e03d c6b3 703d
