Pb_policy_iteration/cancer_treatment_env/algo_template/pbpi_algo_exp_setup/pbpi/algo_outputs/models/Original_algo_ChemoSimulation_1000_6_10_0.1_pbpi_model.pt (torch, 5367 bytes, 8 tensors)

layers.0.weight f4 [50, 2]
0	0xbe165ed9	-0.14684619
1	0xbcc9b237	-0.024621112
2	0x3d46d377	0.048541512
3	0xbe9d1620	-0.30680943
4	0xbeb2df4a	-0.3493598
5	0xbe3e6351	-0.18592574
6	0x3e331d91	0.17491747
7	0x3d2a3b8c	0.041560695
8	0xbdf8955c	-0.12137863
9	0xbea2bd0e	-0.31784862
10	0xbe41f470	-0.18940902
11	0x3f120358	0.5703635
12	0xbea9030b	-0.33010134
13	0xbb30c726	-0.002697417
14	0xb5775410	-9.2137e-07
15	0xb310004e	-3.352789e-08
16	0xbe0307dc	-0.12795967
17	0x3e90e2ea	0.28298122
18	0x3c07c825	0.008287464
19	0xbe880a5e	-0.2657041
20	0xbe3c863d	-0.18410583
21	0xbd1af9a2	-0.037835725
22	0x3e8d81ef	0.27638194
23	0x3e28feb9	0.16503419
24	0x3ec1cdab	0.37852225
25	0xbe086e39	-0.13323297
26	0x3ed08306	0.40724963
27	0x3eaf7630	0.34269857
28	0xbe8822e4	-0.2658912
29	0xbb0cf64f	-0.0021509116
30	0xbe7e82fd	-0.24854656
31	0xbd5fe35f	-0.054660197
32	0xbe80a597	-0.25126335
33	0xbe6827b9	-0.22671403
34	0xbedf9e59	-0.43675497
35	0x3ea5d8cd	0.32391968
36	0x3d3b76f6	0.045767747
37	0x3e739a03	0.2378922
38	0x3ec1e62d	0.37870923
39	0x3c90a931	0.017658802
40	0x3eb8bebc	0.3608302
41	0xbec7b484	-0.3900491
42	0x3ee5f876	0.44916123
43	0x3e71b756	0.23605093
44	0x3e933521	0.28751472
45	0xbeaff710	-0.3436818
46	0x3e7c1dbc	0.24620718
47	0x3e9a20cb	0.30103144
48	0x3ec58ded	0.38584843
49	0xbeacddbd	-0.33762923
50	0xbdc5c7fc	-0.096572846
51	0xbf0b67da	-0.5445534
52	0xbe5141c7	-0.20435248
53	0xbe3bb458	-0.18330514
54	0x3c441b68	0.011969425
55	0xbe26753b	-0.16255657
56	0x3dac24c4	0.0840545
57	0x3e5520af	0.20813249
58	0xbef920c2	-0.48657805
59	0xbdb6f673	-0.08933725
60	0x3ad62a34	0.0016339482
61	0x3e5c835d	0.21534486
62	0x3eab5386	0.3346216
63	0xbdba44e3	-0.0909517
64	0xb93c5c09	-0.00017963363
65	0xb7fb957a	-2.9991137e-05
66	0x3f0bb525	0.5457328
67	0xbd8051b1	-0.062655814
68	0x3e8729b9	0.2639902
69	0x3c47a5e3	0.012185547
70	0x3eef7c45	0.46774498
71	0xbe488e4f	-0.19585536
72	0xbe7d51a0	-0.24738169
73	0x3ea7ab78	0.32748008
74	0xbeb684fe	-0.3564834
75	0x3e8ad310	0.27114153
76	0x3df8c7db	0.121474944
77	0xbeb8bf8b	-0.36083636
78	0xbe380447	-0.17970382
79	0xbebd50bf	-0.36975667
80	0xbe08e4e3	-0.13368563
81	0xbdafe540	-0.08588648
82	0x3f24c99b	0.64370126
83	0x3dda0a6c	0.10646519
84	0x3e0c6709	0.1371118
85	0xbed02bcf	-0.40658423
86	0xbe2707bd	-0.16311546
87	0x3eb54d41	0.35410503
88	0xbe05c5bc	-0.13063711
89	0x3e8bebe8	0.2732842
90	0xbeb0e24e	-0.34547657
91	0x3ebe9035	0.37219396
92	0xbe43b48a	-0.19111839
93	0x3ecc2659	0.39873007
94	0x3e7f5029	0.24932922
95	0x3c9970c7	0.018730534
96	0xbda9b3ef	-0.08286273
97	0xbe5a5263	-0.2132049
98	0x3ea4114d	0.3204445
99	0x3e56d7db	0.2098078

layers.0.bias f4 [50]
0	0x3d3db693	0.046316694
1	0xbdd38bb0	-0.10329378
2	0xb5b19fbc	-1.3234016e-06
3	0xbd5dfff2	-0.054199167
4	0x3e9f0b1c	0.31063163
5	0xbf113e0c	-0.567353
6	0x3ec2555f	0.37955758
7	0x240cb0f3	3.0507543e-17
8	0x3c13f18c	0.009029757
9	0x36d7db7b	6.43305e-06
10	0x3678c176	3.7067489e-06
11	0xbed8f239	-0.423723
12	0xbd49c250	-0.049257576
13	0x376817a6	1.3833784e-05
14	0xbca37919	-0.019955205
15	0x36e6ce65	6.8785616e-06
16	0x3d4b44ce	0.049626164
17	0xbe6ee919	-0.23331107
18	0xb7d1bd5a	-2.5002915e-05
19	0xb8f6dbd0	-0.00011771137
20	0xbef9d17d	-0.4879264
21	0xb7602bc0	-1.3361627e-05
22	0x3e34987c	0.17636293
23	0xbf0d49aa	-0.5519053
24	0x3d9f850e	0.0778905
25	0x3eeffa53	0.4687067
26	0x373cdf14	1.1257613e-05
27	0x3e8a37ac	0.269956
28	0x369b4f86	4.6286177e-06
29	0x3edef287	0.4354441
30	0xbd732fa4	-0.059371606
31	0xbe87addf	-0.2649984
32	0xb40c7753	-1.3081926e-07
33	0xbd598b7e	-0.053111546
34	0x37101661	8.588279e-06
35	0xbcdef42d	-0.027216041
36	0xbe8b08b1	-0.2715507
37	0xbe08fdbd	-0.13378043
38	0x3edc3526	0.430093
39	0xb7a0287c	-1.9092338e-05
40	0x358c126f	1.0436178e-06
41	0xbec085e1	-0.37602141
42	0xbd54d9c0	-0.051965475
43	0xbec33046	-0.38122767
44	0x3c476542	0.012170138
45	0xbe4181a3	-0.18897109
46	0xbdfdbe1c	-0.12389776
47	0x3809493f	3.273156e-05
48	0x3d2bfbd9	0.041988228
49	0x3802b973	3.116713e-05

layers.2.weight f4 [50]
0	0x3f97a1a8	1.1846209
1	0x3f10f398	0.56621695
2	0x3f063a7e	0.52433
3	0x3e563961	0.20920326
4	0x3f185409	0.5950323
5	0x3f4656a2	0.7747594
6	0x3f1f87df	0.623167
7	0xb19f72de	-4.640568e-09
8	0x3ef1e37b	0.47243866
9	0x3ed8947d	0.42300788
10	0x3e47db70	0.19517303
11	0x3f7eae35	0.9948457
12	0x3f1ed8b2	0.620494
13	0x3eddacfc	0.4329604
14	0x3ed91b8f	0.42403838
15	0x3ec3fe48	0.3827994
16	0x3f28840a	0.65826476
17	0x3f0799d3	0.5296909
18	0x3e98af28	0.29821134
19	0x3f82101a	1.0161164
20	0x3f21afa6	0.63158643
21	0x3f02694a	0.5094191
22	0x3ee425bd	0.44560042
23	0x3f01a29f	0.50638765
24	0x3f069ae6	0.52580106
25	0x3f15f527	0.585772
26	0x3ee0cb5a	0.43905145
27	0x3ec32a3b	0.38118157
28	0x3e4bfa45	0.19919689
29	0x3f84ccfc	1.0375056
30	0x3eb42b12	0.3518911
31	0x3e9cf5ca	0.30656272
32	0xb9473e91	-0.00019001427
33	0x3f8022d1	1.0010625
34	0x3f18237f	0.5942916
35	0x3f21d0b0	0.63209057
36	0x3f44550d	0.7669228
37	0x3f48f0da	0.7849251
38	0x3ee34140	0.4438572
39	0x3f1803c3	0.5938074
40	0x3e0228f4	0.12710935
41	0x3fb00d4c	1.3754058
42	0x3f2a1da6	0.6645149
43	0x3f085412	0.5325328
44	0x3f0b95db	0.54525536
45	0x3efac644	0.4897939
46	0x3ef0ceb9	0.47032717
47	0x3eea100d	0.4571537
48	0x3f4a8222	0.79104817
49	0x3ecb8ec3	0.39757356

layers.2.bias f4 [50]
0	0x3d83e6b3	0.06440487
1	0xbdd666e9	-0.10468847
2	0x3e0bec69	0.13664402
3	0x3dc48dcf	0.0959736
4	0x3ce0dc83	0.027448898
5	0x3e09e03d	0.13464446
6	0x3e05e4c2	0.13075545
7	0x386e61a0	5.6834542e-05
8	0x3ded7d23	0.115961336
9	0x3d28bde5	0.041196723
10	0xbd8b6eda	-0.06808253
11	0xbd0e73be	-0.03477835
12	0x3d943bf0	0.07237995
13	0xbd9ddfef	-0.077087276
14	0xbdfadf8b	-0.12249669
15	0x3e018c87	0.12651263
16	0xbdc85a75	-0.09782878
17	0xbd948108	-0.07251173
18	0xbd5aad48	-0.05338791
19	0x3defcd34	0.11709061
20	0x3d818936	0.06324999
21	0x3d87c812	0.06629957
22	0xbe03ecb8	-0.1288327
23	0x3d869e59	0.06573171
24	0x3deeaad1	0.116536744
25	0xbcd68f8b	-0.026191493
26	0x3c20ca36	0.009813836
27	0x3d036ac1	0.03208423
28	0x3cb1ec70	0.021719187
29	0x3d3f3158	0.046677917
30	0x3daffc4c	0.08593044
31	0xbd98bdb8	-0.07458061
32	0xb9da3085	-0.0004161635
33	0xbdc66f4f	-0.09689199
34	0xbe18073e	-0.14846513
35	0x3c02307b	0.007946129
36	0xbde1c768	-0.11024362
37	0x3e0656d5	0.13119061
38	0x3dcfe9b8	0.10152
39	0xbdf41c24	-0.1191943
40	0x3cbfd884	0.023418672
41	0x3d959fcd	0.0730587
42	0xbc8ae942	-0.01695693
43	0xbd6f625f	-0.058443423
44	0xbdc439c9	-0.09581334
45	0x3dca0a56	0.09865253
46	0xbd836a08	-0.06416708
47	0x3e41d4cd	0.18928833
48	0xbdb1e4a3	-0.08686187
49	0xbdfad61f	-0.122478716

layers.2.running_mean f4 [50]
0	0x3ad1298e	0.0015957819
1	0xbb7c23d6	-0.0038473508
2	0xbb93a6d9	-0.004505974
3	0x3df5b626	0.11997633
4	0x3ca618d4	0.02027551
5	0x3dd71fae	0.10504089
6	0x3e389df7	0.18029009
7	0xb2011409	-7.513344e-09
8	0x3e6762a3	0.2259622
9	0xbb2fcd7f	-0.0026825366
10	0xbae5d0f9	-0.0017533592
11	0x3d23864a	0.03992299
12	0x3e2b6bb9	0.16740312
13	0x3f27d8ad	0.65564996
14	0xbb0f46cc	-0.0021862267
15	0xbb1da762	-0.0024056067
16	0xbb6b9b96	-0.003595089
17	0x3d83015d	0.063967444
18	0x3e8f681b	0.28009114
19	0x3e988a75	0.29793134
20	0xbb13d398	-0.002255654
21	0x3f137e20	0.57614326
22	0x3e1be157	0.15222679
23	0x3cc47809	0.023983018
24	0x3e28e67a	0.1649417
25	0x3d22c98a	0.039742984
26	0xbb5f1ce8	-0.003404433
27	0x3de5d2ed	0.112218715
28	0x3e8df474	0.27725565
29	0x3df3fb77	0.119131975
30	0x3e2ab3b2	0.16670111
31	0x3d82542d	0.063637115
32	0xb5e64aac	-1.7158068e-06
33	0x3e9e2280	0.30885696
34	0x3e548047	0.20752059
35	0x3e58adf0	0.21160102
36	0x3d8bd23d	0.06827209
37	0x3da3aaf8	0.07991594
38	0x3e3e3704	0.18575674
39	0xbba8c004	-0.005149843
40	0xbaf60bb3	-0.0018771797
41	0x3e89cf3a	0.26915914
42	0x3abf1062	0.0014577026
43	0x3d44307e	0.04789781
44	0x3e5be7ca	0.2147514
45	0x3e001e3e	0.12511536
46	0x3e5ced15	0.21574815
47	0x3e5070bb	0.20355503
48	0xbb06ce6f	-0.0020569821
49	0x3ee863bf	0.453886

layers.2.running_var f4 [50]
0	0x385680e7	5.1141626e-05
1	0x3654ffe1	3.1739403e-06
2	0x3663a353	3.3920703e-06
3	0x3c1f0dce	0.009707881
4	0x3b6eeb4c	0.0036456166
5	0x3cd8b2c5	0.026452431
6	0x3caae992	0.020863328
7	0x242305d2	3.534992e-17
8	0x3d075627	0.033041146
9	0x36066305	2.0025193e-06
10	0x3594e544	1.1093584e-06
11	0x3b55cd9b	0.003262377
12	0x3d3c9473	0.04604001
13	0x3d420aa0	0.047373414
14	0x3636e766	2.7254805e-06
15	0x3606322a	1.9996755e-06
16	0x3698c2a4	4.552612e-06
17	0x3c3aeb2c	0.011408608
18	0x3c4ae6fd	0.012384173
19	0x3d5cc4e1	0.053898696
20	0x39a5201d	0.0003149518
21	0x3d674bc6	0.056468748
22	0x3d266dee	0.04063218
23	0x3a702243	0.0009160379
24	0x3d592e9f	0.053022977
25	0x3c189612	0.009313123
26	0x35a2f4be	1.214117e-06
27	0x3be41f50	0.0069617406
28	0x3c08493c	0.008318242
29	0x3c80cc16	0.015722316
30	0x3c3f18d2	0.0116636325
31	0x3c414918	0.011797212
32	0x2bae94ad	1.2404709e-12
33	0x3de7613a	0.11297841
34	0x3cd7637b	0.026292553
35	0x3d96dc49	0.07366235
36	0x3c3834be	0.0112430435
37	0x3c556c68	0.013026334
38	0x3d11c1ba	0.035585143
39	0x3630c852	2.6342645e-06
40	0x3502efc5	4.8777684e-07
41	0x3dd06f02	0.10177423
42	0x39b9b4e7	0.00035420732
43	0x3bf8adf4	0.007589096
44	0x3cfcfef0	0.030883282
45	0x3cd711c9	0.026253598
46	0x3d36c626	0.044622563
47	0x3cbccbc4	0.023046382
48	0x3719eaee	9.1742095e-06
49	0x3ce88354	0.028382935

layers.3.weight f4 [4, 50]
0	0x3c267f5f	0.010162204
1	0x3e4debde	0.20109507
2	0xbe265ab9	-0.16245545
3	0x3e04f85b	0.12985365
4	0xbd71e4d4	-0.059056118
5	0xbda0df62	-0.07855107
6	0xbe57698f	-0.21036361
7	0x38fd9eb7	0.00012093543
8	0x3e1e30a8	0.15448248
9	0x3e437114	0.19086105
10	0xbe2d0c4a	-0.16899219
11	0x3e174931	0.14774014
12	0x3dd51d7a	0.10406013
13	0x3c839acd	0.016065026
14	0xbe28260a	-0.16420761
15	0xbda60f55	-0.08108393
16	0xbccaea4a	-0.02476992
17	0xbcf1faca	-0.02953853
18	0xbd6ec05e	-0.058288924
19	0xbda53724	-0.08067158
20	0x3d2c8d2a	0.042126812
21	0xbbb46d1b	-0.0055061704
22	0xbd702a9c	-0.058634385
23	0x3c6c213a	0.014412219
24	0xbcc7c44c	-0.024385594
25	0x3d995409	0.074867316
26	0xbde7b0aa	-0.11312993
27	0xbdc321e4	-0.095279485
28	0x3d54ba8d	0.05193572
29	0x3cebec68	0.02879925
30	0xbc81ac33	-0.015829181
31	0xbdf12f32	-0.1177658
32	0x3c58eed8	0.013240539
33	0xbe006466	-0.12538299
34	0xbdea1249	-0.11429269
35	0x3a874cd9	0.0010322585
36	0x3d2ef82e	0.04271715
37	0x3e09f0a3	0.13470702
38	0xbd09525e	-0.033525817
39	0xbd1e4eca	-0.038649358
40	0xbbe2c5fe	-0.006920575
41	0xbcfbb645	-0.030726561
42	0x3d463315	0.04838856
43	0x3d9cbb94	0.07652965
44	0xbcf48c4e	-0.029852059
45	0xbe4b4fa1	-0.19854595
46	0xbd957da7	-0.07299357
47	0x3e11ad86	0.1422635
48	0x3cbe5e1f	0.02323824
49	0x3c6c0b94	0.014407057
50	0x3d1b865d	0.037969936
51	0xbcb63bee	-0.022245374
52	0x3d78f5bc	0.060781226
53	0x3cecb5b1	0.028895231
54	0x3d9d09a6	0.07667856
55	0x3e5d74ae	0.21626541
56	0x3e2f93ef	0.17146276
57	0xb6412600	-2.878136e-06
58	0xbd79284a	-0.06082944
59	0x3d02107e	0.03175401
60	0xbd83dcbd	-0.06438587
61	0xbeb14b67	-0.3462784
62	0xbdf23f04	-0.118284255
63	0xbda6490a	-0.081194
64	0xbbae32d6	-0.0053161187
65	0x3e104a8f	0.14090942
66	0xbe98d070	-0.29846525
67	0x3e49f61a	0.19722787
68	0xbce5e224	-0.028061934
69	0xbe3e357f	-0.18575095
70	0x3e3b3e6a	0.18285528
71	0x3d38ef3d	0.04515003
72	0xbc289127	-0.010288513
73	0x3ddb9ca8	0.10723239
74	0x3e0a1297	0.13483654
75	0xbde318a1	-0.11088682
76	0xbd04d82c	-0.03243272
77	0xbcd57289	-0.026055591
78	0x3af6bb8e	0.0018824206
79	0xbe397568	-0.18111193
80	0x3d9991b7	0.07498496
81	0xbd8451cb	-0.06460913
82	0x3c4743e4	0.0121621825
83	0x3e8d7de9	0.27635124
84	0xbe67823e	-0.22608277
85	0xbdbbc309	-0.091680594
86	0xbde8a225	-0.113590516
87	0xbe2cb810	-0.1686709
88	0xbda3319c	-0.079684466
89	0xbe04f6a6	-0.12984714
90	0x3d3a7be4	0.045528308
91	0x3ecc076a	0.39849406
92	0xbe405545	-0.18782528
93	0xbe5d0617	-0.21584354
94	0xbe689b44	-0.22715479
95	0x3da3c9ee	0.079974994
96	0x3df1adaa	0.11800702
97	0x3d0177cc	0.031608388
98	0x3e72f233	0.23725204
99	0xbdeb207a	-0.11480804
100	0x3e9ba55e	0.30399603
101	0xbda370d3	-0.07980504
102	0x3e5b28d0	0.21402287
103	0xbc8a318f	-0.016869335
104	0xbe27c7fd	-0.16384883
105	0xbe53022f	-0.20606302
106	0x3e18f9fe	0.14939114
107	0xb93f9bf1	-0.00018273272
108	0x3df61bb4	0.12017003
109	0x3deedd8d	0.11663351
110	0xbcee1459	-0.029062437
111	0xbd44b086	-0.04801991
112	0xbd41695d	-0.047219623
113	0x3d8443bb	0.06458231
114	0x3ce12185	0.027481804
115	0x3dea8fcf	0.114532106
116	0x3dcd5008	0.100250304
117	0xbd6805e4	-0.056646243
118	0x3ce92f3b	0.028464904
119	0xbdad5c2d	-0.08464847
120	0xbe81e200	-0.25367737
121	0xbd5b191d	-0.053490747
122	0x3d449793	0.047996115
123	0x3c4e1e5d	0.012580481
124	0x3bef7f37	0.0073088664
125	0x3e062f64	0.13104016
126	0x3e3c89c0	0.18411922
127	0x3d0deb71	0.034648363
128	0x3c5010e3	0.012699339
129	0xbe376dd2	-0.17912987
130	0xbc9a9989	-0.01887204
131	0x3d7c6488	0.06161931
132	0x3c5c9367	0.013462878
133	0x3e00590d	0.1253397
134	0xbe2b6d0f	-0.16740821
135	0xbe1a6169	-0.15076222
136	0x3e8399a2	0.2570315
137	0xbdf42acb	-0.119222246
138	0x3dead243	0.114658855
139	0x3e005dbb	0.12535755
140	0x3dc5e194	0.09662166
141	0x3e777439	0.24165429
142	0x3dfbfb10	0.12303746
143	0x3d95e4a7	0.073190026
144	0x3d8e348f	0.069436185
145	0x3cedf311	0.029046567
146	0xbd8e4863	-0.069474004
147	0xbbc44a60	-0.0059903115
148	0xbe4d5a77	-0.20054041
149	0xbc5f39b3	-0.013624596
150	0xbeb26e95	-0.34849992
151	0xbe47060b	-0.19435899
152	0x3dbb4885	0.091446914
153	0x3e2d2382	0.16908076
154	0x3e06bfa1	0.13159038
155	0x3df82256	0.12115924
156	0xba956545	-0.0011397979
157	0xb9760a69	-0.00023464266
158	0x3cb9a7b2	0.022662971
159	0xbdab9c53	-0.08379426
160	0xbdaf31ba	-0.085544065
161	0x3e76ea71	0.2411287
162	0x3e02e329	0.12781967
163	0xbc0fc05e	-0.008773891
164	0xbdea75c4	-0.11448243
165	0x3dfa8b11	0.12233556
166	0x3e50e7c9	0.20400919
167	0xbda89710	-0.08231938
168	0xbd4f30cc	-0.050583646
169	0x3eff2035	0.4982926
170	0x3c578633	0.013154554
171	0x3dbdc099	0.09265251
172	0xbe284092	-0.16430882
173	0xbe09eed7	-0.13470016
174	0x3d48d6c3	0.049032938
175	0xbdb48809	-0.08815009
176	0xbd49f1bc	-0.0493028
177	0x3deba315	0.11505715
178	0xbb80b185	-0.003927412
179	0x3ea7e777	0.3279378
180	0x3d85e4e9	0.06537802
181	0x3c41ce51	0.011828975
182	0x3c5ccec0	0.013477027
183	0xbeaa0934	-0.33210146
184	0x3e02f36e	0.12788174
185	0x3e2b8a7d	0.16752048
186	0xbe887556	-0.2665202
187	0x3e438649	0.19094194
188	0x3d99d790	0.075118184
189	0xbe3986a6	-0.1811777
190	0x3d122309	0.035677943
191	0xbf224b28	-0.6339593
192	0x3cb7f85e	0.022457298
193	0x3ce5136a	0.027963359
194	0xbcb45780	-0.02201438
195	0x3deffb64	0.11717871
196	0xbd1110e6	-0.035416506
197	0x3e8f3838	0.2797258
198	0xbd4fffea	-0.050781168
199	0xbd6500ea	-0.055909075

layers.3.bias f4 [4]
0	0x3e09e201	0.1346512
1	0x3d26d90f	0.040734347
2	0x3e355d20	0.17711306
3	0x3db2b435	0.08725778
