Pb_policy_iteration/cancer_treatment_env/algo_template/pbpi_algo_exp_setup/pbpi/algo_outputs/models/Orig_algo_Chemo_10_0.1_state_tag_g4_pbpi_model.pt (torch, 5367 bytes, 8 tensors)

layers.0.weight f4 [50, 2]
000000 98 76 95 3e 88 e9 c4 be 90 84 2c bf b0 6b a5 3d
       0.29192042 -0.3845942 -0.67389774 0.080771804
000010 a8 a3 0a 3e 36 7d a7 3e b9 27 26 3f 9d a3 00 3f
       0.13538992 0.32712716 0.6490436 0.50249654
000020 3b d7 0a 3f 7f 55 0e 3f 71 bf 06 3f e2 9f f1 3e
       0.54234666 0.55599207 0.52635866 0.47192293
000030 ae 14 d6 3e 6b 8d 10 3f ef 23 2b bf dd 15 98 be
       0.41812652 0.56465787 -0.66851705 -0.2970418
000040 40 ba 08 be 6e 5e de 3e c0 db 61 bd e6 32 c8 3e
       -0.13352299 0.4343142 -0.05514121 0.39101332
000050 00 09 dc 3c 89 d1 14 3f c2 63 e2 3e 01 85 11 bf
       0.02685976 0.58132225 0.44216734 -0.5684357
000060 8f 58 06 bf b8 62 30 bf fe 2e a0 3e ef de 17 3f
       -0.5247888 -0.6890063 0.31285852 0.59324545
000070 c0 67 69 3d 60 da b6 bd d1 69 8a be 45 2b 06 bf
       0.05698371 -0.089283705 -0.27033857 -0.52409774
000080 bc 59 02 bf 8d 50 ab be 69 36 03 bf 78 79 84 bd
       -0.50918174 -0.33459893 -0.512549 -0.06468481
000090 42 54 d6 3e b8 e5 d1 be 05 b1 2c 3f 4a 89 23 bf
       0.4186116 -0.40995574 0.6745761 -0.6388136
0000a0 d7 7d 1c 3f 08 fb 1a bf 04 97 35 3e 90 5c b6 3d
       0.61129516 -0.60539293 0.17733389 0.08904374
0000b0 67 9a 0e bf b8 a5 59 be 16 7e f2 3e 62 3e bf 3e
       -0.5570435 -0.21254623 0.4736182 0.37352282
0000c0 d4 3e 8a be a2 c5 e7 3e df 1f d3 be 10 8b 0b bd
       -0.2700106 0.4526797 -0.41235253 -0.034068167
0000d0 7a 33 de 3e 58 3a c2 be 30 5a 6e 3d f0 18 2d bd
       0.43398649 -0.37935138 0.05819148 -0.04226011
0000e0 b7 a4 2b bf c0 da 3c 3d 4e d6 bc be d0 c3 34 bf
       -0.6704821 0.046107054 -0.36882252 -0.70611286
0000f0 8a 03 0a bf bc 34 8f be f3 06 07 3f 28 b3 e4 3d
       -0.5391165 -0.2796992 0.5274498 0.11166984
000100 30 8d 85 be 8c 4b 10 bf 00 41 2c bc 70 b6 8b 3d
       -0.2608428 -0.56365275 -0.010513544 0.068219066
000110 5e d6 ae 3e c0 da 01 be 10 66 1f 3d 2d d8 0e 3f
       0.34147924 -0.12681103 0.038915694 0.5579861
000120 f9 ef 13 3f f8 fd 5d 3e 24 de 68 3e c0 57 99 3d
       0.57788044 0.21678913 0.2274099 0.0748744
000130 10 44 4d be 2a 63 d8 be 66 7b 8f 3e 08 69 46 3e
       -0.20045495 -0.42263156 0.28023833 0.19376004
000140 96 62 e3 3e 00 26 90 bb 37 6a 0a 3f 98 5b 4e 3e
       0.44411153 -0.004399061 0.5406832 0.20152128
000150 2a b7 f8 3e b4 bd 31 bf 1d 6e 13 3f 00 13 3c 3b
       0.48577243 -0.6943009 0.57589895 0.0028697848
000160 b1 21 31 3f 7e 18 00 bf cf 60 e1 be 81 ae d8 be
       0.69192034 -0.5003737 -0.44019172 -0.42320636
000170 30 9f dc bd 60 60 ce 3d 58 4f 53 3e 89 b3 10 3f
       -0.1077255 0.10076976 0.20635736 0.5652395
000180 00 39 f8 bc 37 11 03 3f e8 75 3f be 2c 3c 25 be
       -0.030300617 0.5119814 -0.18697321 -0.16136235

layers.0.bias f4 [50]
000000 7b b2 17 bf 25 60 c6 be d6 71 14 bf 7c 84 8d be
       -0.59256715 -0.38745227 -0.579862 -0.2764014
000010 6e 1b ae 3e 9a 47 f1 3e f0 3c 8b 3d 54 54 fe be
       0.34005302 0.4712494 0.06798732 -0.49673712
000020 d7 43 0d 3f 06 c6 c3 3e 27 a5 08 3f b8 47 d7 bd
       0.5518164 0.38237017 0.53377 -0.10511726
000030 ce 37 c1 3e f1 49 e2 be 37 b5 00 bf bc 3f e2 be
       0.37737888 -0.44197038 -0.5027651 -0.4418925
000040 d1 fd 16 bf 24 08 60 3e 40 dd 37 3d 86 a5 cc 3e
       -0.58981043 0.21878105 0.044888735 0.39970034
000050 ac 3f 1e bf d0 9e e3 be 09 a2 85 be 3e e4 fe 3e
       -0.61815906 -0.44457102 -0.26100186 0.4978351
000060 c4 e6 67 be b4 e2 8b be ac f4 2b be d6 ae 8e 3e
       -0.22646624 -0.27321398 -0.16792554 0.27867764
000070 e6 51 b0 3e 9c 01 f5 be ca 41 c1 3e 4d 91 14 bf
       0.34437484 -0.4785279 0.37745506 -0.5803421
000080 bd ab 2a 3f cd 51 29 3f 72 0a fd 3e 13 60 1c 3f
       0.666683 0.66140443 0.49422032 0.610841
000090 e6 c5 18 bf 0c 49 e4 be 46 2a a5 3e 32 b5 a4 3e
       -0.5967697 -0.4458698 0.32258815 0.3216949
0000a0 54 92 42 be 70 16 aa bd 26 cd 9e 3e 93 6a 11 bf
       -0.19001132 -0.08305061 0.3101589 -0.56803244
0000b0 a7 db d7 be 98 71 be 3d 64 63 19 bf c0 84 ba 3c
       -0.4215977 0.0929901 -0.59917283 0.022768378
0000c0 46 fc d5 3e d6 3b c3 3e
       0.41794032 0.3813159

layers.2.weight f4 [50]
000000 00 00 80 3f 00 00 80 3f 00 00 80 3f 00 00 80 3f
       1.0 1.0 1.0 1.0
000010 00 00 80 3f 00 00 80 3f 00 00 80 3f 00 00 80 3f
       1.0 1.0 1.0 1.0
000020 00 00 80 3f 00 00 80 3f 00 00 80 3f 00 00 80 3f
       1.0 1.0 1.0 1.0
000030 00 00 80 3f 00 00 80 3f 00 00 80 3f 00 00 80 3f
       1.0 1.0 1.0 1.0
000040 00 00 80 3f 00 00 80 3f 00 00 80 3f 00 00 80 3f
       1.0 1.0 1.0 1.0
000050 00 00 80 3f 00 00 80 3f 00 00 80 3f 00 00 80 3f
       1.0 1.0 1.0 1.0
000060 00 00 80 3f 00 00 80 3f 00 00 80 3f 00 00 80 3f
       1.0 1.0 1.0 1.0
000070 00 00 80 3f 00 00 80 3f 00 00 80 3f 00 00 80 3f
       1.0 1.0 1.0 1.0
000080 00 00 80 3f 00 00 80 3f 00 00 80 3f 00 00 80 3f
       1.0 1.0 1.0 1.0
000090 00 00 80 3f 00 00 80 3f 00 00 80 3f 00 00 80 3f
       1.0 1.0 1.0 1.0
0000a0 00 00 80 3f 00 00 80 3f 00 00 80 3f 00 00 80 3f
       1.0 1.0 1.0 1.0
0000b0 00 00 80 3f 00 00 80 3f 00 00 80 3f 00 00 80 3f
       1.0 1.0 1.0 1.0
0000c0 00 00 80 3f 00 00 80 3f
       1.0 1.0

layers.2.bias f4 [50]
000000 00 00 00 00 00 00 00 00 00 00 00 00 00 00 00 00
       0.0 0.0 0.0 0.0
000010 00 00 00 00 00 00 00 00 00 00 00 00 00 00 00 00
       0.0 0.0 0.0 0.0
000020 00 00 00 00 00 00 00 00 00 00 00 00 00 00 00 00
       0.0 0.0 0.0 0.0
000030 00 00 00 00 00 00 00 00 00 00 00 00 00 00 00 00
       0.0 0.0 0.0 0.0
000040 00 00 00 00 00 00 00 00 00 00 00 00 00 00 00 00
       0.0 0.0 0.0 0.0
000050 00 00 00 00 00 00 00 00 00 00 00 00 00 00 00 00
       0.0 0.0 0.0 0.0
000060 00 00 00 00 00 00 00 00 00 00 00 00 00 00 00 00
       0.0 0.0 0.0 0.0
000070 00 00 00 00 00 00 00 00 00 00 00 00 00 00 00 00
       0.0 0.0 0.0 0.0
000080 00 00 00 00 00 00 00 00 00 00 00 00 00 00 00 00
       0.0 0.0 0.0 0.0
000090 00 00 00 00 00 00 00 00 00 00 00 00 00 00 00 00
       0.0 0.0 0.0 0.0
0000a0 00 00 00 00 00 00 00 00 00 00 00 00 00 00 00 00
       0.0 0.0 0.0 0.0
0000b0 00 00 00 00 00 00 00 00 00 00 00 00 00 00 00 00
       0.0 0.0 0.0 0.0
0000c0 00 00 00 00 00 00 00 00
       0.0 0.0

layers.2.running_mean f4 [50]
000000 e6 ce e4 bb 86 16 2f bc c4 76 01 ba b6 bf 85 3f
       -0.006982672 -0.010686522 -0.0004938657 1.044913
000010 b6 d2 cc 3f 26 ee ce 3f 58 03 99 3f c6 78 83 bc
       1.6001804 1.6166427 1.1954145 -0.0160488
000020 06 7a 65 3f 52 6e 44 3f 7c 92 9d 3f fe 37 23 bb
       0.8963932 0.76730835 1.2310328 -0.00249052
000030 4c 4f 26 bc 5e ec 18 3f 4d d8 b0 bb 38 b2 5d bc
       -0.010150742 0.5973567 -0.005396879 -0.01353126
000040 84 45 7f bc 32 75 91 bb fe 4b a6 3d bc 46 e2 3e
       -0.015580539 -0.0044390196 0.08119963 0.4419459
000050 78 f8 c7 bb 20 05 b6 ba a8 7a 3b bc 87 24 bc 3f
       -0.006102618 -0.0013887025 -0.011442818 1.4698647
000060 10 6d 1b 3d b0 bc 00 bc 88 39 3f ba c6 16 98 3e
       0.037945807 -0.007857487 -0.00072946446 0.29704875
000070 14 37 74 bb da 34 8c bc ca 3a b8 bb 54 fe 1c 3e
       -0.0037264274 -0.017115045 -0.0056222426 0.15331393
000080 3e d7 36 bb ea 3f 3a 3f 97 ae 3d 3f f0 c8 a5 3f
       -0.002789929 0.72753775 0.7409453 1.2951946
000090 11 6f a1 3e d0 a5 81 ba 46 7a 80 bb f8 97 5d 3f
       0.3153005 -0.0009891335 -0.003920826 0.8656001
0000a0 8a 39 a1 3e 6c d0 44 3f 98 8e e6 3d 48 b0 c5 3d
       0.3148921 0.76880527 0.11257666 0.096527636
0000b0 fc 8c 03 bb b2 10 13 bc de 03 c7 bb 14 5f 68 3f
       -0.0020073047 -0.008976148 -0.006073459 0.9077008
0000c0 0a 57 78 3f 76 80 40 b9
       0.9700781 -0.00018358402

layers.2.running_var f4 [50]
000000 5c 82 d0 35 7f 60 f1 35 d8 76 1e 34 d5 4e b7 39
       1.5535147e-06 1.7983983e-06 1.4758132e-07 0.00034963214
000010 ce be dd 38 be 6d 0d 37 1d e6 95 3a 8b 55 c9 34
       0.00010573641 8.429806e-06 0.0011436377 3.7501408e-07
000020 fe c6 38 3c 56 03 e8 3b ef d3 37 3c 1e 6f 68 36
       0.011277912 0.007080476 0.0112199625 3.4635373e-06
000030 70 c7 20 34 54 fd 5a 3b 14 f5 9c 33 26 ec 91 34
       1.4973716e-07 0.0033415155 7.3088955e-08 2.7180175e-07
000040 46 5c 91 33 92 45 23 35 82 d0 5a 3c 1c d0 6c 3d
       6.768873e-08 6.082347e-07 0.013355376 0.057815656
000050 37 c5 a6 36 86 7e af 32 cc a1 b2 34 32 ba 1f 39
       4.9701443e-06 2.0430218e-08 3.3272806e-07 0.00015232785
000060 ff 0b 48 3b 29 07 eb 34 50 b3 7a 36 e8 83 af 39
       0.0030524728 4.377737e-07 3.7357277e-06 0.0003347688
000070 16 27 d8 35 fe 66 01 35 2e 15 3b 34 ea 51 a8 3b
       1.610463e-06 4.820612e-07 1.7423437e-07 0.005136718
000080 ca fb c9 34 84 dc 66 39 df df e8 3b 60 be 21 3c
       3.7622368e-07 0.00022016658 0.0071067656 0.009872049
000090 70 3e 70 3b 38 17 8f 33 17 b7 5a 34 4a 96 23 39
       0.003665831 6.66318e-08 2.036944e-07 0.00015600878
0000a0 52 ee cc 3b f5 2b 54 3b 78 ad d2 3c 00 dc 26 3c
       0.006253996 0.0032374833 0.025717482 0.010184288
0000b0 e8 39 9e 36 14 21 78 30 ce 5d 1c 34 90 4b a6 3b
       4.715508e-06 9.026888e-10 1.4562758e-07 0.0050749257
0000c0 0b 21 2d 3c ea 27 08 30
       0.01056696 4.9533233e-10

layers.3.weight f4 [4, 50]
000000 32 82 e1 3d 06 2c 03 be a0 8d b9 3d 16 8e f8 bd
       0.11011161 -0.12809762 0.09060216 -0.12136476
000010 f8 53 7e 3d 2c b0 41 bd 00 34 d1 b9 76 33 cd 3d
       0.062091798 -0.04728715 -0.0003990233 0.10019581
000020 c0 94 68 bc 7f e1 b9 bd 04 b1 57 3d c0 42 29 bc
       -0.014195621 -0.09076213 0.05265905 -0.010330856
000030 ef 03 04 3e f0 41 7c bc 04 17 35 bd f2 c4 f2 bd
       0.12892126 -0.01539658 -0.044211403 -0.118539706
000040 5c 56 2f 3d e2 11 0e be 24 a1 86 3d d2 24 99 bd
       0.042806968 -0.13874009 0.06573704 -0.07477726
000050 14 ff 77 3d 40 fc db 3c ee 39 ed 3d 10 aa a1 3d
       0.060545996 0.02685368 0.11583315 0.07893765
000060 9c 5f 8c bd a0 c5 52 bc 0b 39 9d bd a1 e7 e5 bd
       -0.068541735 -0.0128645 -0.07676896 -0.1122582
000070 64 ce 68 3d 00 d7 44 3b c8 99 01 be b0 74 d0 bd
       0.056837454 0.0030035377 -0.12656319 -0.101785064
000080 4e 5e 30 bd 90 46 28 3c 1a d5 e4 3d 08 4b 3c bd
       -0.043058686 0.01027073 0.111734584 -0.045969993
000090 a0 8e 93 3d 60 94 cc 3b 50 5a 67 bd 0e f0 db 3d
       0.07204938 0.0062432736 -0.056482613 0.10739146
0000a0 6c 2b 5f bd 62 59 fc 3d 30 4e 79 3c 72 c4 ea 3d
       -0.05448477 0.12321736 0.015216395 0.1146325
0000b0 78 47 8f bc 90 3d 96 3d dc da 14 3d ac b7 af 3d
       -0.017490134 0.07335961 0.036341533 0.085799545
0000c0 20 d0 88 3d 03 f0 06 be b3 7a 08 3e e0 7b b4 3c
       0.06680322 -0.13177495 0.13328056 0.022031724
0000d0 15 2c 07 3e c8 74 4c 3d 16 16 90 3d 24 24 b2 bd
       0.1320041 0.04991606 0.070354626 -0.086982995
0000e0 a0 f6 50 3d b4 48 26 3d 58 16 46 bd 92 d2 be 3d
       0.05101645 0.04059668 -0.048361152 0.09317507
0000f0 46 1f 07 bd 4a db f1 3d c5 64 8f bd e4 dc d1 3d
       -0.03298881 0.11809404 -0.07001642 0.1024721
000100 88 a0 fb bd e0 2c 33 3c f0 ef 82 bc 65 de cd bd
       -0.12286478 0.010935992 -0.015983552 -0.10052184
000110 84 30 8f bd 86 21 fb bd cc 03 7f 3d cf 66 07 3e
       -0.069916755 -0.122622535 0.06225948 0.13222812
000120 96 dd f5 3d 52 76 f3 bd 30 15 c1 bd c2 0b c9 3d
       0.12005155 -0.11887802 -0.09427869 0.09816696
000130 f0 06 a8 bc e3 89 0d 3e 00 0e 16 bd 68 6e d5 3c
       -0.02051112 0.13822131 -0.036634445 0.026053622
000140 28 25 86 bd 84 b9 8d 3d 92 38 bf 3d e0 8b c4 3b
       -0.06550056 0.0692015 0.09336962 0.0059981197
000150 72 96 12 bd 10 6a 80 3c b8 76 30 3d e8 84 be bd
       -0.035788007 0.015675575 0.04308197 -0.093026936
000160 a8 91 36 bd 9a 88 68 bd 1c 8a c7 bc 61 d5 8d bd
       -0.044572502 -0.0567709 -0.024357848 -0.069254644
000170 db 87 ea bd 3e 1f f8 3d dc 8d 1a bd ae 11 b2 3d
       -0.114516936 0.12115334 -0.037732944 0.086947784
000180 da 25 ef 3d 1f a2 08 be 90 c7 25 3d f0 04 db bd
       0.116771415 -0.13343094 0.04047352 -0.10694301
000190 c8 96 1f 3d a3 36 0a 3e 40 29 02 bb b3 5e 05 3e
       0.038962156 0.13497405 -0.0019861013 0.13024406
0001a0 6e d5 d7 bd 46 d5 a2 3d ec 00 7c bd c0 59 f1 bb
       -0.10538755 0.07950835 -0.061524317 -0.0073654354
0001b0 f0 20 87 bc 06 ff 83 3d 71 24 0d be 6a 59 bf bd
       -0.016495198 0.06445126 -0.13783433 -0.09343226
0001c0 3e 45 dd 3d 30 5d cb 3c ec a2 1b 3d e4 bb d6 bd
       0.108042225 0.024824709 0.03799717 -0.10485056
0001d0 90 81 a8 bd 80 72 db bb b8 d8 5b bd b8 ac e1 bc
       -0.08227837 -0.006696999 -0.053673476 -0.027548179
0001e0 84 0e 68 bd c8 ff 3c 3d d0 25 7c bc 7e af dd 3d
       -0.05665447 0.04614237 -0.015389875 0.10824488
0001f0 17 97 81 bd e4 cb ea bd 42 20 02 bd 20 1b 81 bc
       -0.06327646 -0.1146467 -0.031769045 -0.015760005
000200 37 c3 02 be 8a 59 8a 3d 40 70 6f 3d 52 e1 5f bd
       -0.12769781 0.067553595 0.05845666 -0.05465824
000210 30 33 6b 3c 34 bf cb bd b3 ae 09 be 00 94 77 bb
       0.014355466 -0.099485785 -0.13445549 -0.0037777424
000220 fd 99 03 be 32 b0 9f 3d 80 9e 8a 3d 1c 8b f7 bd
       -0.1285171 0.077972785 0.06768513 -0.1208708
000230 06 d2 87 3d a6 55 d1 bd dc c3 26 3d 47 d5 d1 bd
       0.06631856 -0.10221414 0.04071413 -0.102457576
000240 4a a8 39 bd f0 1f 7e 3d a8 80 5a bd d8 83 f0 3c
       -0.04532651 0.062042177 -0.053345352 0.029359743
000250 6e a9 f2 3d 78 37 39 3d 20 a4 a4 bc 0a e1 e4 3d
       0.118487224 0.045218915 -0.020097792 0.11175735
000260 1c 02 c9 bc 3c f3 79 3d 9e 99 1a bd 94 19 70 3d
       -0.024537139 0.061022982 -0.037744157 0.058618143
000270 30 73 7b 3c 3a 7f 0c be 56 25 e7 3d 70 54 42 3c
       0.015347287 -0.13720408 0.11286418 0.011860952
000280 c6 d1 de bd ea 27 4f bd 0c 81 6a 3d a0 8e 52 bc
       -0.10879855 -0.050575174 0.057251975 -0.012851387
000290 6c c2 43 3d a1 53 93 bd 38 5d 0c 3d 21 29 04 be
       0.047792837 -0.07193685 0.034268588 -0.12906314
0002a0 1a 26 75 bd 53 3c 10 3e ee d3 0a be 90 f7 73 bd
       -0.05985079 0.14085512 -0.13557407 -0.059562266
0002b0 a6 a0 ff 3d 37 44 e9 bd 0a 36 f6 3d 9b cd 01 3e
       0.12481813 -0.11389964 0.12022026 0.12676089
0002c0 7c 8c 60 3d e0 97 4b 3d 10 6d 09 3c 98 5b d2 3c
       0.054821476 0.049705386 0.008387819 0.02567844
0002d0 ea 8d e0 3d a9 d2 01 be a8 e4 e9 bd 24 b1 7f bd
       0.10964568 -0.12678017 -0.11420566 -0.062424794
0002e0 14 b6 0f 3d b2 3c f4 3d 97 27 b7 bd 9e 37 b6 bd
       0.035085753 0.11925639 -0.08943098 -0.08897327
0002f0 3e 4f bf bd ec bc c0 bc 64 35 25 3d 8c 04 68 3d
       -0.09341286 -0.023527585 0.04033412 0.05664496
000300 f0 25 44 bd 44 94 3e 3d 42 d5 d1 bd a4 bc ad 3d
       -0.047887743 0.046528116 -0.10245754 0.08483246
000310 15 9b e7 bd 05 07 ed bd 1e 4d ee 3d e0 d4 1f 3c
       -0.113088764 -0.115736045 0.11635803 0.009755343

layers.3.bias f4 [4]
000000 b0 a7 4d bc f0 7e d2 3d ec f6 d7 bd ea 1b 63 bd
       -0.012552187 0.10278118 -0.105451435 -0.055446543
