Pb_policy_iteration/cart_pole_modified_env/modified_algo_analysis/data/output/models/CartPole_30_3_10_0.025_pbpi_model.pt (torch, 2191 bytes, 4 tensors)

layers.0.weight f4 [20, 2]
000000 8c ae 11 bf 3b 6b 4b bc b7 d5 ff be 50 31 0a 3f
       -0.5690696 -0.012415702 -0.4996774 0.53981495
000010 12 e5 98 be be f6 8a 3e c9 32 08 3e ef ad 38 3f
       -0.29862267 0.27141374 0.13300623 0.721404
000020 f3 f2 c5 bb 2b c5 68 3e a2 bc a9 3e 2b f4 41 3f
       -0.0060409247 0.22731464 0.33151728 0.75763196
000030 04 04 e3 be ad 52 b2 be e1 fc 0d bf 24 77 28 bf
       -0.44339 -0.34828702 -0.5546399 -0.65806794
000040 24 4c 0c bf aa 59 87 be 95 86 5f 3d de 88 1e bf
       -0.5480368 -0.26435596 0.054571707 -0.6192759
000050 99 61 f7 3e bf c9 82 3e 1c 50 8a bf 1b b8 8e bf
       0.4831665 0.25544545 -1.0805697 -1.1149935
000060 27 f7 1a 3e a0 91 85 bc 6a 73 07 3f d2 74 ef be
       0.15133344 -0.016304791 0.5291048 -0.46768814
000070 7f 96 c4 be bc ee a6 3e 47 86 21 bb a0 fd 44 bf
       -0.3839607 0.32604015 -0.0024646686 -0.769495
000080 d8 f4 a1 be 08 79 e9 be a0 3e 32 3f e0 0f c9 be
       -0.31632113 -0.45600152 0.6962681 -0.39269924
000090 a8 72 fe 3d 93 74 19 bf 6f f8 40 be 6b 4b bd 3e
       0.12424213 -0.59943503 -0.1884477 0.36971602

layers.0.bias f4 [20]
000000 f3 81 ba be 3a 15 f8 be f4 27 ff 3e 42 05 a6 be
       -0.36427268 -0.48453695 0.4983517 -0.32425886
000010 c4 d8 2b bf 69 1a ef be c2 47 59 bd 59 25 b8 be
       -0.67127633 -0.46699837 -0.05304695 -0.35965994
000020 ec 66 10 3f a5 e9 36 bf 60 99 23 3e 13 ee ee bd
       0.56407046 -0.71450263 0.15976477 -0.11666503
000030 0b 02 82 3e 14 93 4d be bb fd 8e be 70 76 e5 3e
       0.25392184 -0.20075637 -0.27927956 0.44816923
000040 57 25 1d bf 11 4d 31 bf 9d d9 ff be 67 3c f5 be
       -0.613851 -0.6925822 -0.49970713 -0.47897646

layers.2.weight f4 [3, 20]
000000 6f 1d 24 3d 76 e1 4b 3e 2b 65 7e 3e ee 0e 1a be
       0.040067133 0.19910225 0.2484328 -0.15044758
000010 e2 19 8e bd cf 3e 1e be 59 35 c0 3e 73 71 b8 3d
       -0.069385305 -0.15453647 0.375407 0.09006014
000020 48 95 70 3e 0e 3b b6 3d ac 0e 42 3e 5b 51 30 3f
       0.23494446 0.088979825 0.1895091 0.6887414
000030 68 a5 c9 3d 8d e8 1b be 29 80 9b bd 5a 4a 01 bf
       0.09846002 -0.1522543 -0.07592804 -0.50504076
000040 fe 8f b8 3c ba d1 1e be aa 6b 30 3e 14 82 2a 3e
       0.022529598 -0.15509692 0.1722857 0.16651183
000050 09 9b 06 3d 92 25 c7 3c 98 0a 36 bd 66 02 8f 3e
       0.032862697 0.024309907 -0.044443697 0.27931517
000060 2d 0d 51 be 87 54 87 3e 23 7d 3f bd 96 9a 2d bf
       -0.20415182 0.26431677 -0.0467502 -0.67814004
000070 8e 6d 5a 3d 56 70 d2 3d bc 62 00 3d f9 e7 ac 3e
       0.053327136 0.10275333 0.03134416 0.3377073
000080 2d 4c 6d bd 66 6f 81 be d2 90 13 be 3e 63 99 3e
       -0.057933975 -0.25280303 -0.14410713 0.29958528
000090 55 85 5a 3e 34 fb 0d be ef f1 bf bb d4 8a dd 3c
       0.21339925 -0.13865358 -0.005857698 0.027043737
0000a0 b5 31 55 3e 57 59 31 3e fb 5b 85 3e 6a 13 74 be
       0.20819743 0.17319237 0.26046738 -0.23835531
0000b0 4b 2d 36 3e 4b 3f f9 bd 8c 2c 9f be 78 60 14 3e
       0.17790715 -0.12170275 -0.31088674 0.14489925
0000c0 17 b7 65 3e 78 44 45 bd 31 29 bb 3e 11 b2 6c bf
       0.22433124 -0.048161 0.36554864 -0.9245921
0000d0 22 55 8d 3c 91 9a 57 3e 76 b2 3e 3e a0 22 95 3e
       0.017252509 0.21055056 0.18622765 0.2912798
0000e0 74 65 fe 3c 3f 0f 86 3d 22 75 1a 3e 67 01 b2 bd
       0.031054236 0.06545877 0.15083745 -0.08691674

layers.2.bias f4 [3]
000000 2f e5 de bd 8f 72 01 3e 82 4f 9a 3e
       -0.10883557 0.12641357 0.30138785
