Pb_policy_iteration/cart_pole_modified_env/modified_algo_analysis/data/output/models/CartPole_20_3_50_0.05_pbpi_model.pt (torch, 2191 bytes, 4 tensors)

layers.0.weight f4 [20, 2]
-0.03858964 0.02538703 0.2628129 0.6861309 -0.0135000665 -0.0059102965 -0.037373986 0.1658324
1.2273316 1.2175992 0.03202252 0.5128164 -0.05432302 -0.015956586 -0.56766874 0.14867319
-0.004373245 -0.0019065384 -0.3535291 1.0946971 -0.002067739 0.0004918345 0.69118536 0.80708027
0.56325334 -0.4601674 0.7194539 0.88795024 0.9760564 0.7016565 -0.00017889503 -0.000638327
0.1863458 0.73182416 -0.029396018 -0.013236003 -0.2379413 0.51697624 -1.0986903 -0.22857417
00000000: 2c10 1ebd 76f8 cf3c 6a8f 863e 46a6 2f3f
00000010: 622f 5dbc 29ab c1bb 7715 19bd f8cf 293e
00000020: 3419 9d3f 4ada 9b3f 0c2a 033d f047 033f
00000030: d181 5ebd 63b7 82bc bd52 11bf c93d 183e
00000040: 704d 8fbb d0e4 f9ba c401 b5be 091f 8c3f
00000050: e782 07bb 74ee 003a 86f1 303f d09c 4e3f
00000060: 5f31 103f 109b ebbe 212e 383f b550 633f
00000070: d5de 793f c39f 333f c595 3bb9 6655 27ba
00000080: 6fd1 3e3e d458 3b3f ebcf f0bc d2db 58bc
00000090: e2a6 73be 8e58 043f e2a1 8cbf 590f 6abe

layers.0.bias f4 [20]
-0.332946 0.57178044 -0.05073081 -0.17343597 0.03098274 1.011583 -0.31384203 0.40959388
-0.014416614 0.11232277 -0.019053055 0.028004618 0.6325499 -0.46552548 0.030400867 -0.0059967376
0.4493849 -0.1268005 -0.46386346 0.44622457
00000000: e677 aabe 3460 123f 1ccb 4fbd 3399 31be
00000010: 84cf fd3c 8d7b 813f e7af a0be 4ab6 d13e
00000020: a933 6cbc 7b09 e63d 2715 9cbc f169 e53c
00000030: caee 213f 5b59 eebe 3d0b f93c 4880 c4bb
00000040: c715 e63e fed7 01be 837f edbe 8c77 e43e

layers.2.weight f4 [3, 20]
-0.30114192 0.44453037 -0.11857945 -0.08042591 -0.4565507 0.33488414 -0.2582401 -0.005113689
-0.044108756 -0.7011205 -0.0008099688 -0.42407846 0.33936644 1.3334209 -0.27500618 -0.01232361
0.056537163 -0.12981763 -0.26937994 0.080884054 -0.028017886 -0.0072844513 -0.012153458 -0.014040826
0.5131798 -0.04189774 0.053856734 0.08548922 -0.006919195 0.19377097 0.008621311 0.07464623
0.126455 -0.99666935 0.102859594 -0.0060318103 -0.22055921 0.043217182 0.036232337 0.2897267
0.0078116064 0.0061774347 -0.0024280057 -0.0058132983 0.15556268 0.054617696 0.02273762 -0.1437035
0.00044101235 0.30763522 -0.0009667688 0.2778261 0.048664246 -0.76038736 0.30198088 -1.1530688e-05
0.07034676 -0.014248161 -0.0043095006 0.114230216
00000000: 462f 9abe 7c99 e33e c8d9 f2bd 57b6 a4bd
00000010: 03c1 e9be ef75 ab3e 0c38 84be bc90 a7bb
00000020: 62ab 34bd a27c 33bf 1654 54ba d020 d9be
00000030: 70c1 ad3e 89ad aa3f 9ccd 8cbe f7e8 49bc
00000040: 8393 673d eaee 04be 2bec 89be 8aa6 a53d
00000050: c485 e5bc 68b2 eebb 4c1f 47bc 7e0b 66bc
00000060: c05f 033f f79c 2bbd e198 5c3d f914 af3d
00000070: 6aba e2bb e66b 463e 6640 0d3c 1fe0 983d
00000080: 6b7d 013e b925 7fbf 0da8 d23d 7ea6 c5bb
00000090: 46da 61be 8004 313d 5c68 143d 0f57 943e
000000a0: 81f8 ff3b 146c ca3b 2d1f 1fbb 7b7d bebb
000000b0: d34b 1f3e ceb6 5f3d 3f44 ba3c 0327 13be
000000c0: ad37 e739 5d82 9d3e c26e 7dba 393f 8e3e
000000d0: 2954 473d bfa8 42bf 3d9d 9a3e ee73 41b7
000000e0: f611 903d 1e71 69bc b636 8dbb 88f1 e93d

layers.2.bias f4 [3]
0.05969638 -0.025143022 -0.1236769
00000000: 3184 743d bdf8 cdbc 514a fdbd
