Pb_policy_iteration/cart_pole_modified_env/initial_state_analysis/experiment_runs/models/CartPole_40_3_50_0.025_pbpi_model_right_skewed.pt (torch, 2963 bytes, 4 tensors)

layers.0.weight f4 [50, 2]
0	0xbec36dec	-0.381698
1	0xbe3a28b0	-0.18179584
2	0xbe85a0c0	-0.26099205
3	0xbecb58d6	-0.39716214
4	0xbef9f679	-0.48820856
5	0x3e9b7057	0.30359146
6	0xbefec8d9	-0.4976261
7	0xbed11652	-0.40837342
8	0x3e7a40e5	0.24438818
9	0x3e9b2a63	0.30305776
10	0xbf058845	-0.52161056
11	0x3e64817f	0.22315024
12	0x3f0dd14f	0.55397505
13	0x3de31f6e	0.11089979
14	0x3f03c040	0.51465225
15	0xbc9b686d	-0.018970693
16	0xbed6e5f5	-0.41972318
17	0x3d8d3542	0.06894924
18	0x3e06cdec	0.1316449
19	0x3eabd043	0.3355733
20	0xbea798d5	-0.3273379
21	0x3ee653f4	0.44985926
22	0x3e7f24b4	0.24916345
23	0x3e1ec631	0.15505292
24	0x3e274103	0.16333394
25	0x3e2b2309	0.16712584
26	0xbefad3f1	-0.48989823
27	0xbc67655e	-0.014123289
28	0x3ecba792	0.39776284
29	0x3e3ac4a9	0.18239082
30	0xbce9628f	-0.02848938
31	0x3c4a2386	0.012337571
32	0xbde8ca2b	-0.113666855
33	0x3e05c7ea	0.13064542
34	0xbd22c4b2	-0.039738365
35	0xbf04783b	-0.5174596
36	0x3ef920e2	0.486579
37	0xbf010d4a	-0.504109
38	0x3c134ef9	0.0089909965
39	0xbf0fc83b	-0.561649
40	0x3cf14942	0.029453877
41	0xbf022269	-0.50833756
42	0x3e9fc2d3	0.31203327
43	0xbe0ca274	-0.13733846
44	0x3e0c0a78	0.13675869
45	0xbefc89ae	-0.4932379
46	0xbe7d90fa	-0.24762335
47	0xbedb2292	-0.42799813
48	0xbf13a892	-0.5767909
49	0xbf133b39	-0.5751224
50	0xbe75da99	-0.2400917
51	0xbf5179cc	-0.8182647
52	0xbefc31ca	-0.49256736
53	0x3d829058	0.06375188
54	0x3ea9a68f	0.33134887
55	0xbe3b8073	-0.18310718
56	0x3f1c90c0	0.6115837
57	0xbf1842b1	-0.59476763
58	0x3e98876a	0.29790813
59	0xbeba00e5	-0.36328807
60	0x3e7f3e9e	0.2492623
61	0xbf27059e	-0.65242946
62	0xbec6ccb9	-0.38828066
63	0x3e9ba7fb	0.30401596
64	0x3f20fcd7	0.62885803
65	0xbefac51f	-0.48978516
66	0x3ed91323	0.42397413
67	0x3e4b8d91	0.19878222
68	0xbedcc32a	-0.43117648
69	0x3e3a8ff1	0.18218972
70	0xbe201042	-0.15631202
71	0xbe7f8616	-0.24953493
72	0x3e0c9862	0.13730004
73	0x3e0b0542	0.13576224
74	0xbf09bea7	-0.5380654
75	0xbec1a412	-0.37820488
76	0xbf3ee685	-0.74570495
77	0xbf5ad32f	-0.8547849
78	0x3f266261	0.64993864
79	0xbe8c81bd	-0.27442732
80	0xbeea273f	-0.45733067
81	0x3d5726ff	0.052527424
82	0xbea23a8a	-0.31685287
83	0xbe5ab636	-0.2135857
84	0x3f0f2be1	0.5592633
85	0xbd42f21e	-0.047594182
86	0xbf30983d	-0.689823
87	0x3ce879cd	0.028378392
88	0x3ed3801c	0.41308677
89	0xbf629652	-0.8851062
90	0x3efbb957	0.4916484
91	0x3e3270c8	0.17425835
92	0x3de1be34	0.110226065
93	0xbe51ae70	-0.20476699
94	0xbd4f3b47	-0.05059364
95	0xbf2401f7	-0.640655
96	0xbed8e59d	-0.4236268
97	0x3e0c74a1	0.13716365
98	0xbf1264b1	-0.5718489
99	0xbf2eea6f	-0.6832647

layers.0.bias f4 [50]
0	0xbe10dd50	-0.14146924
1	0x3e03a6df	0.12856625
2	0xbf1c6e18	-0.6110549
3	0xbe310c32	-0.17289808
4	0xbf0828d1	-0.5318728
5	0xbd491d56	-0.049100243
6	0xbeaa2869	-0.33233956
7	0x3d3f3959	0.04668555
8	0xbeb66482	-0.35623556
9	0xbeaeea24	-0.3416301
10	0xbeba9bcb	-0.36446986
11	0x3e6578c0	0.22409344
12	0xbe5747cb	-0.2102348
13	0x3ce9de11	0.028548272
14	0x3dbb381b	0.09141561
15	0xbe3d5dde	-0.18492839
16	0xbe549bf2	-0.20762613
17	0x3ecce9c8	0.4002211
18	0xbcc7c5c9	-0.024386303
19	0xbe4f2b6f	-0.20231412
20	0xbf180d69	-0.5939546
21	0x3e6a817e	0.2290096
22	0x3f2c1555	0.6722005
23	0x3e9bd4b0	0.30435705
24	0x3d9631d4	0.07333723
25	0x3e90bd5c	0.2826947
26	0x3ec24d80	0.37949753
27	0x3e860d86	0.26182193
28	0xbeda360d	-0.42619362
29	0x3dedc0cc	0.11609039
30	0xbf0c6113	-0.54835624
31	0xbe769726	-0.24081096
32	0xbf26f7cf	-0.65221876
33	0x3e179858	0.14804208
34	0x3ea175d7	0.31535217
35	0x3da4c76d	0.0804585
36	0x3eb6f013	0.35730037
37	0x3e0c1809	0.13681044
38	0xbebb6c06	-0.36605853
39	0x3ee86ec5	0.4539701
40	0x3e949b0c	0.2902454
41	0xbf27259a	-0.6529175
42	0xbeb3b1b6	-0.3509652
43	0x3efd260e	0.49443096
44	0x3e8d6ce2	0.27622133
45	0xbe5be636	-0.21474537
46	0xbd890542	-0.06690456
47	0x3e419561	0.1890464
48	0x3e730063	0.23730616
49	0x3e68e3ed	0.22743197

layers.2.weight f4 [3, 50]
0	0xbd420d6a	-0.047376074
1	0x3e06e65b	0.13173811
2	0x3d5ab960	0.053399444
3	0xbdb980f3	-0.09057798
4	0x3c5f655b	0.013635005
5	0x3cbd8556	0.023134869
6	0xbd33c940	-0.0438931
7	0xbd34478f	-0.044013556
8	0x3dca0c2f	0.09865605
9	0x3d42d339	0.04756472
10	0x3e18d7f4	0.1492613
11	0xbd6f5ed0	-0.05844003
12	0x3d544491	0.051823203
13	0x3d8cdeda	0.06878443
14	0xbdff5bb4	-0.12468663
15	0x3ce28f59	0.027656244
16	0x3d8e2b9f	0.06941914
17	0xbd7e6d15	-0.062115747
18	0x3d34ea03	0.044168483
19	0xbe716fbd	-0.23577781
20	0xbc56ad5b	-0.013102855
21	0xbd4e0c80	-0.05030489
22	0xbd7eab96	-0.062175356
23	0x3d8a91ea	0.06766112
24	0xbdf6ac59	-0.120445915
25	0x3ea21d95	0.31663194
26	0x3dd6f928	0.104967415
27	0x3d2fa3eb	0.042880934
28	0xbd0fe677	-0.035131898
29	0xbd0d8b9a	-0.034556963
30	0xbd4997e7	-0.04921713
31	0x3bfea4b0	0.007771097
32	0x3ddbc906	0.107317016
33	0xbe14f77e	-0.14547536
34	0x3d080ec6	0.033217214
35	0x3e3082a8	0.17237341
36	0x3d8760e1	0.06610275
37	0x3d6b7fe4	0.057495013
38	0xbf053509	-0.5203405
39	0x3e6b2907	0.2296487
40	0xbdacb7ab	-0.084334694
41	0x3b415e7b	0.0029505778
42	0x3dc2b82d	0.09507785
43	0x3cfccdda	0.030859876
44	0x3e71da51	0.23618437
45	0x3df5660b	0.11982354
46	0xbd37f896	-0.044914804
47	0x3e08967b	0.13338654
48	0x3b428116	0.0029678992
49	0x3e6a778e	0.22897169
50	0xbbc346ae	-0.0059593534
51	0xbdcf4d12	-0.10122122
52	0xbcac77de	-0.02105325
53	0xbdac10f9	-0.08401675
54	0xbdf57755	-0.119856514
55	0xbd9de60a	-0.07709892
56	0xbc94b9c0	-0.018154979
57	0x3dd59af6	0.10429947
58	0x3d84ac04	0.06478122
59	0xbdb5e8cd	-0.08882294
60	0x3c0f5a50	0.0087495595
61	0x3df396e9	0.11894018
62	0xbd3d2fa5	-0.046188015
63	0xbc52893e	-0.012850104
64	0x3d2da72b	0.042395752
65	0xbd9e1f04	-0.077207595
66	0xbe088eed	-0.13335772
67	0x3c199242	0.0093732495
68	0x3de21d49	0.11040742
69	0xbd8500c9	-0.064942904
70	0xbd1b7348	-0.037951738
71	0x3de74e17	0.11294191
72	0xbc3c7698	-0.011502884
73	0x3c1b59d9	0.009481871
74	0xbc2a7e4b	-0.010406087
75	0x3d07a0a0	0.03311217
76	0x3df64e7f	0.12026691
77	0xbc390a2a	-0.011293927
78	0xbd937bb8	-0.07201332
79	0x3c781d1e	0.015143661
80	0xbd9bccf6	-0.076074526
81	0x3d049e0a	0.03237728
82	0x3ddc825a	0.1076705
83	0xbc07a256	-0.00827845
84	0x3e3e759f	0.18599556
85	0xbb7eb40f	-0.0038864648
86	0x3da37a07	0.07982259
87	0xbdc80bb9	-0.09767861
88	0x3d5a7603	0.0533352
89	0xbd1906f1	-0.037360135
90	0x3e0a201b	0.1348881
91	0xbdee9ef3	-0.11651411
92	0xbdf0490e	-0.11732684
93	0x3e086c1e	0.13322493
94	0x3d57e4b7	0.052708354
95	0xbd0f69e8	-0.03501311
96	0x3d923746	0.07139449
97	0x3dca242c	0.098701805
98	0x3cbb273e	0.02284586
99	0xbc770f49	-0.015079328
100	0xbc313aae	-0.010817213
101	0xbc6a1c7b	-0.014289017
102	0x3d80d048	0.062897265
103	0x3e23fb1c	0.1601376
104	0xbc9d0879	-0.01916908
105	0xbe0276b3	-0.12740593
106	0xbb638b47	-0.0034720467
107	0x3e19c66d	0.150171
108	0xbd8c3f95	-0.06848065
109	0xbdcccc82	-0.09999944
110	0xbd503d01	-0.050839428
111	0x3e32bb71	0.17454316
112	0xbba506c9	-0.0050362092
113	0xbd92b1ff	-0.07162856
114	0x3e182628	0.14858305
115	0xbdeff14c	-0.117159456
116	0xbdb169ea	-0.0866278
117	0xbca51a92	-0.020154271
118	0x3db1aefd	0.086759545
119	0x3e4a34c8	0.19746697
120	0xbd6388ea	-0.055550493
121	0x3e0cbbdc	0.13743538
122	0x3e617e4e	0.22020838
123	0xbcd08ee8	-0.025458768
124	0xbdd90e8f	-0.1059848
125	0xbe8e913a	-0.27845174
126	0x3dadf1af	0.08493363
127	0xbcf39abc	-0.029736869
128	0x3da975d7	0.08274429
129	0xbc876bd7	-0.016530914
130	0x3e443958	0.191625
131	0x3c908884	0.01764322
132	0xbd35fd0d	-0.04443078
133	0x3e33649f	0.17518853
134	0x3e510fff	0.20416258
135	0xb891903e	-6.941006e-05
136	0x3e0a5982	0.13510707
137	0xbdc2e8ad	-0.09517036
138	0x3ecf7497	0.40518638
139	0x3d95e2a1	0.07318617
140	0x3da3f773	0.080061816
141	0xbe08fc2f	-0.1337745
142	0x3dda0777	0.10645955
143	0x3d1bac7a	0.038006283
144	0xbea8079e	-0.3281831
145	0xbd438d9c	-0.04774247
146	0x3e0813ca	0.13288799
147	0xbdffb967	-0.124865346
148	0x3cabca69	0.02097054
149	0xbe045fb4	-0.12927133

layers.2.bias f4 [3]
0	0xbc9e9b98	-0.019361302
1	0x3c67ca52	0.014147358
2	0x3e221d78	0.15831554
