Pb_policy_iteration/cart_pole_modified_env/initial_state_analysis/experiment_runs/models/CartPole_40_3_20_0.025_pbpi_model_unbiased.pt (torch, 2963 bytes, 4 tensors)

layers.0.weight f4 [50, 2]
0	0x3e6e195c	0.23251861
1	0xbebcdbcc	-0.36886442
2	0xbe65e498	-0.22450483
3	0x3e75bb99	0.23997344
4	0x3f154bff	0.58319086
5	0x3e39d25d	0.18146653
6	0x3e4bbc6b	0.19896095
7	0xbee5a182	-0.44849783
8	0x3e26ed61	0.1630149
9	0x3e10ccbb	0.14140598
10	0x3ecc7b3b	0.39937767
11	0x3e2fffdb	0.17187445
12	0x3e8e3e45	0.27781883
13	0xbe0e2ee2	-0.13885072
14	0x3f007b40	0.50188065
15	0xbef8ac44	-0.48568928
16	0xbee220cd	-0.4416565
17	0xbf540bd7	-0.82830566
18	0xbd41f715	-0.047354776
19	0x3c291234	0.010319281
20	0x3e72ee9d	0.23723836
21	0x3e518392	0.20460346
22	0xbdd739a8	-0.10509044
23	0xbecdde80	-0.40208817
24	0xbedd1669	-0.4318116
25	0x3f0b2d8c	0.54366374
26	0x3e33ebc5	0.17570408
27	0x3f36f633	0.7146942
28	0xbf213639	-0.6297336
29	0x3ee73275	0.45155683
30	0x3e83f66d	0.25773945
31	0x3f336346	0.70073354
32	0xbf0da53b	-0.55330247
33	0x3e9b49ba	0.30329686
34	0x3e3eafa4	0.18621689
35	0x3efff20e	0.4998936
36	0xbee81c83	-0.45334253
37	0xbf0c4f04	-0.5480807
38	0x3f0ae753	0.5425922
39	0xbf1c265a	-0.6099602
40	0x3f0167d6	0.50549066
41	0xbebd5742	-0.36980635
42	0x3ebba597	0.36649773
43	0x3ebaf42d	0.36514416
44	0x3eb29a94	0.3488356
45	0x3d360398	0.04443702
46	0xbef910da	-0.4864567
47	0xbf0d9a06	-0.55313146
48	0x3eca7a60	0.3954649
49	0x3f0feb1f	0.5621814
50	0x3f278e19	0.654512
51	0xbf1aaff8	-0.60424757
52	0x3d6f27b6	0.05838748
53	0x3f28b75f	0.659048
54	0x3f1a5184	0.6028063
55	0x3f300e4c	0.68771815
56	0x3f0cae2a	0.54953253
57	0xbeb22ee6	-0.34801406
58	0xbe947957	-0.28998825
59	0x3f3b6630	0.732028
60	0x3f14a8bc	0.5806997
61	0x3f257622	0.6463338
62	0xbf1137a7	-0.56725544
63	0xbd48a767	-0.048987772
64	0xbece8088	-0.40332437
65	0xbec74b92	-0.38924843
66	0xbf047f72	-0.51756966
67	0xbe29b3c3	-0.1657248
68	0x3e83aa4b	0.2571586
69	0x3e5f7bb3	0.21824531
70	0x3e8c6775	0.2742268
71	0xbf2f029a	-0.68363345
72	0xbe6c4bfe	-0.23075864
73	0x3ed9db15	0.4254996
74	0xbea65a43	-0.3249074
75	0x3f535da4	0.8256476
76	0x3f2f2e8d	0.68430406
77	0xbefbad0b	-0.4915546
78	0xbea8296c	-0.32844102
79	0xbf728bd0	-0.94744587
80	0x3e9680d3	0.2939516
81	0xbe1b241a	-0.1515049
82	0x3ecbb013	0.3978277
83	0x3e7fada9	0.2496859
84	0xbdff6525	-0.12470464
85	0x3f32e6ac	0.6988323
86	0xbebca625	-0.36845508
87	0x3ee5ce97	0.44884178
88	0x3f5b28d7	0.8560919
89	0x3f055a35	0.5209077
90	0x3e9b6dba	0.30357152
91	0x3d82e74c	0.06391773
92	0xbe0cf17e	-0.13763997
93	0x3eb41880	0.35174942
94	0x3e3886ca	0.18020168
95	0xbec65f0e	-0.38744396
96	0xbe8b9a72	-0.2726627
97	0x3ee9eb51	0.45687345
98	0xbf2dac65	-0.6784118
99	0xbe76ca54	-0.2410062

layers.0.bias f4 [50]
0	0x3d1cc596	0.03827437
1	0xbf0969a6	-0.5367683
2	0xbf149257	-0.58035797
3	0xbf16ab9a	-0.58855593
4	0xbed4803f	-0.41504094
5	0xbec9af33	-0.3939148
6	0xbe846329	-0.25856903
7	0xbd970cb6	-0.07375471
8	0x3d48380a	0.048881568
9	0x3ec2ab49	0.38021305
10	0xbeb1c591	-0.34721044
11	0x3f174e76	0.59104097
12	0xbf3423b9	-0.7036701
13	0xbdaee3c7	-0.08539539
14	0x3efd8e47	0.49522611
15	0xbdc94674	-0.09827891
16	0xbe14983c	-0.14511198
17	0x3d68dbf2	0.05685038
18	0x3ea626a7	0.32451364
19	0xbdc108a1	-0.09425474
20	0xbd9d9f0b	-0.07696351
21	0x3de2733d	0.11057136
22	0xbdb54ccd	-0.08852539
23	0xbea5bc2d	-0.3237013
24	0xbf0f20da	-0.559095
25	0xbec8d2ff	-0.39223477
26	0xbea60a22	-0.32429606
27	0x3e4eb863	0.20187525
28	0xbf20e33b	-0.62846726
29	0x3eb65cf7	0.35617802
30	0x3d7e7aa0	0.062128663
31	0x3e790e29	0.24321808
32	0x3caf002d	0.021362389
33	0xbf2e5bad	-0.68108636
34	0xbed48987	-0.41511175
35	0xbddb1bfb	-0.10698696
36	0xbd3f0033	-0.04663105
37	0x3ed58e91	0.41710332
38	0xbeb14c7e	-0.3462867
39	0xbebbcb48	-0.3667853
40	0xbabb5fd2	-0.0014295524
41	0x3d024bc8	0.031810552
42	0x3db9aa71	0.09065712
43	0xbf2c49c1	-0.6730004
44	0x3d1b2ed7	0.037886467
45	0xbe85a3f1	-0.2610164
46	0xbeabf299	-0.33583525
47	0xbf340032	-0.703128
48	0xbd4b6610	-0.04965788
49	0x3e2330dd	0.15936609

layers.2.weight f4 [3, 50]
0	0x3dfe7eb5	0.12426511
1	0xbd36d444	-0.044636026
2	0xbe00463c	-0.12526792
3	0xbd121eab	-0.03567378
4	0xbd5bb0ce	-0.05363541
5	0xbd5a3597	-0.053273764
6	0x3dd62aca	0.1045738
7	0xbddde612	-0.10834898
8	0x3ee9f882	0.4569741
9	0xbcc21306	-0.023690712
10	0xbe041e9f	-0.12902306
11	0x3e18489f	0.14871453
12	0x3daea16d	0.08526883
13	0x3ead230c	0.338158
14	0x3db6da01	0.089283
15	0x3df449eb	0.11928161
16	0xbcc62459	-0.024187254
17	0x3ca47661	0.020075979
18	0x3de1570a	0.110029295
19	0xbe281299	-0.16413344
20	0x3cd1f591	0.02562979
21	0xbe8cedb6	-0.2752511
22	0xbd89c798	-0.067275226
23	0xbe9e1066	-0.30871886
24	0x3d2b3ed9	0.041807983
25	0xbe1018a8	-0.14071906
26	0xbb1603bf	-0.0022890416
27	0xbec69f6b	-0.387935
28	0x3c09df96	0.008415123
29	0xbda7d17d	-0.081942536
30	0x3dcae168	0.09906274
31	0x3dd2fe9a	0.10302468
32	0x3eb50b91	0.35360387
33	0x3bcba2b5	0.0062144645
34	0xbdfa7d74	-0.122309595
35	0x3dbe95bb	0.093059026
36	0x3d2328c0	0.039833784
37	0xbe4193d9	-0.18904056
38	0xbd41f696	-0.047354303
39	0xbf02f276	-0.51151216
40	0xbdf27621	-0.118389376
41	0xbd689871	-0.056786004
42	0x3dfc3283	0.12314322
43	0xbd33328f	-0.04374939
44	0x3e854441	0.26028636
45	0xbd494a73	-0.049143266
46	0xbe184bfc	-0.14872736
47	0xbccb9b92	-0.024854455
48	0x3d823662	0.06358029
49	0x3e8c6081	0.27417377
50	0x3dfa622d	0.12225757
51	0x3d841b82	0.06450559
52	0x3dd055df	0.101726286
53	0x3d6c47ee	0.057685785
54	0xbd8b5677	-0.06803601
55	0xbcfc8822	-0.030826632
56	0xbdc2136d	-0.094763614
57	0xbd506e15	-0.050886232
58	0xbe773db4	-0.24144632
59	0x3c0ba352	0.008522825
60	0x3aa6a952	0.0012715256
61	0x3ce980c5	0.028503785
62	0xbc3bd83f	-0.011465131
63	0xbd5ecd1c	-0.054394826
64	0xbd6f7267	-0.058458712
65	0x3d241a5f	0.040064212
66	0xbddf090a	-0.10890396
67	0xbdc7f17c	-0.09762856
68	0x3e315ca7	0.173205
69	0xbd2eb7df	-0.042655822
70	0x3e30118c	0.17194194
71	0x3d3b4df9	0.045728657
72	0x3b852a90	0.0040639117
73	0x3e2e7bcc	0.17039412
74	0xbd54825c	-0.051882133
75	0x3dac6395	0.08417431
76	0x3de74570	0.11292541
77	0x3e21f51f	0.15816163
78	0xbd4461e1	-0.047944907
79	0x3e9a8c79	0.30185297
80	0xbeae5183	-0.34046564
81	0x3d66ec90	0.056377947
82	0xbda0aeaf	-0.07845818
83	0xbdfc111a	-0.12307949
84	0xbe06f161	-0.13178016
85	0xbdd2e8a7	-0.10298281
86	0x3c318030	0.010833785
87	0x3eafe5d9	0.34355047
88	0xbd3fa13c	-0.046784624
89	0xbd4b5084	-0.049637333
90	0x3dd3a18c	0.10333547
91	0xbe7ce5a3	-0.24696974
92	0xbe5af51f	-0.21382569
93	0x3de97906	0.114000365
94	0xbed7b85e	-0.42132849
95	0xbd82b754	-0.06382623
96	0x3e2a88e0	0.16653776
97	0x3de966d5	0.11396567
98	0x3c573d3d	0.013137159
99	0x3b2bd6a1	0.0026220458
100	0xbe00de28	-0.12584746
101	0x3d96ec4d	0.073692895
102	0xbdd94ed7	-0.10610741
103	0x3df247e6	0.1183012
104	0x3d88b700	0.066755295
105	0xbc9871b8	-0.018608913
106	0xbdd82d70	-0.105555415
107	0x3d392ea8	0.04521051
108	0xbeb9dc92	-0.36301094
109	0x3cef217c	0.029190771
110	0x3da8b578	0.082377374
111	0x3e239f14	0.15978652
112	0x3ceb00ec	0.028686963
113	0xbe6bb493	-0.23018102
114	0xbe184f87	-0.14874087
115	0xbdcdf5d5	-0.10056654
116	0x3de58d29	0.11208565
117	0x3e2af6fd	0.16695781
118	0xbe3a96de	-0.18221614
119	0x3e0f20ef	0.13977407
120	0x3d746bf8	0.05967328
121	0x3e947e5b	0.29002652
122	0xbd99e1fa	-0.07513805
123	0x3e28ba75	0.16477378
124	0x3d2d1f6e	0.0422663
125	0xbc94e2c5	-0.018174538
126	0xbe7317c4	-0.23739535
127	0x3ec9a957	0.3938701
128	0xbc9abcc4	-0.018888839
129	0x3caf8cf6	0.02142952
130	0x3e30a117	0.17248951
131	0x3ca33b4c	0.019925736
132	0xbd1499e6	-0.03627958
133	0x3aadcaff	0.001325935
134	0x3d7b9708	0.06142333
135	0x3da6275d	0.08112977
136	0xbe43d47d	-0.19124027
137	0xbdbd4fb5	-0.092437185
138	0xbdf5bb7b	-0.1199865
139	0x3e80a68c	0.25127065
140	0x3dc5e928	0.09663612
141	0x3e7135fe	0.23555753
142	0x3d766402	0.06015397
143	0x3d7c8398	0.061648935
144	0x3e43ed5c	0.19133514
145	0x3e0b55c5	0.13606937
146	0xbd152abc	-0.036417708
147	0xbde946d9	-0.11390466
148	0xbe89333d	-0.26796904
149	0xbe455f3e	-0.19274613

layers.2.bias f4 [3]
0	0x3cdd8263	0.027039712
1	0x3ebadfb4	0.36498797
2	0x3e60596c	0.21909112
