Pb_policy_iteration/cart_pole_modified_env/latest_experiment/models/CartPole_20_3_100_0.05_pbpi_model.pt (torch, 2963 bytes, 4 tensors)

layers.0.weight f4 [50, 2]
00000000: 6835 6f3e 6b0a 20bf 27fc 0d3f 38f9 453f
00000010: ec32 00bc 717f 903d 27f5 343f cd26 e6be
00000020: f398 cdbe e0f1 85bd 4afb 0abe 6249 86be
00000030: 82d4 5bbe 1d7d 20bf 01a3 e53e e4d9 ebbe
00000040: ebf3 2fbf fa6c bbbe 3c69 36bf 3e28 97be
00000050: 29d7 393f d698 f5bc 4750 163f adcf b43e
00000060: 3011 05bf 716f 28be f3ec b4bc a613 afbe
00000070: ef39 17bf 97dd 9ebc d298 143e 5201 083e
00000080: 6503 643f 920e 1b3f 6c00 ff3e 02d6 abbd
00000090: 3e6f 333f a927 a73e f9a9 dbbd 4381 663e
000000a0: 4c9d 40be fce3 a9be 6021 e63e fe53 393f
000000b0: 0d8d 06bf 4e30 05bf f322 38bf 1f43 0dbf
000000c0: 7be8 113f 8753 3cbf 7764 6b3e a453 183f
000000d0: 25ad 293f 693b 473e 02ec d8bd c564 31bf
000000e0: 57b1 873e 73eb 27bf 3161 e53d 2008 243f
000000f0: d9ea 313f 1a49 22bf cf8b 033f c30e cdbe
00000100: 37a6 d0be 83d3 e93c ab7b 8cbe cb05 8fbd
00000110: 530b 2c3f 0bed 72be 1df0 0ebf 9f26 1dbf
00000120: 8a01 63bf 8bcb 0fbf 2566 33bf e93f 223f
00000130: 731c 33be b51a 0d3f f296 e53e 374b 2b3e
00000140: 8e22 fdbe 6296 ae3e 5f83 b03e a2e5 1bbf
00000150: cdf3 abbe cf68 9d3c 6edb eab9 7ad7 3bbf
00000160: 7dfc 5f3e c540 e83e 696a 87be e3d2 0ebf
00000170: 2de4 9ebe 954d ebbe b15e 203f c2a5 173f
00000180: 5ea1 9dbc 09b1 be3e 53ec 04bf 9ffb 09bf
0.23360217 -0.62515897 0.5546288 0.773334 -0.007824641 0.070555575 0.7068657 -0.44951478
-0.40155753 -0.065402746 -0.13572422 -0.26227862 -0.21467784 -0.6269091 0.44850925 -0.46064675
-0.68731564 -0.3660658 -0.71254325 -0.2952289 0.72593933 -0.029980104 0.58716244 0.35314694
-0.5197935 -0.16448762 -0.022085642 -0.34194678 -0.59072775 -0.019392772 0.14511421 0.13281754
0.8906768 0.6056911 0.4980501 -0.08390428 0.7009162 0.32647446 -0.10725779 0.22510247
-0.18810004 -0.3318175 0.44947338 0.72393787 -0.52558976 -0.5202683 -0.7192833 -0.55180544
0.5699536 -0.7356495 0.22987543 0.59502625 0.6627982 0.19456257 -0.1059189 -0.6929439
0.26502487 -0.6559364 0.112001784 0.640749 0.69498974 -0.63392794 0.51385206 -0.40050325
-0.40751812 0.02854324 -0.274381 -0.06983527 0.6720478 -0.23723237 -0.55835134 -0.61387056
-0.88674223 -0.56169957 -0.70077735 0.6337877 -0.17491321 0.55118877 0.44841725 0.16727911
-0.49440426 0.34099108 0.34475228 -0.60897267 -0.33584443 0.019215016 -0.00044795446 -0.73375666
0.2187366 0.45361915 -0.26448372 -0.5579054 -0.3103346 -0.45957628 0.6264449 0.592373
-0.019241985 0.37244442 -0.519231 -0.5389957

layers.0.bias f4 [50]
00000000: 6259 17bf ee09 a33e 5deb 68be bf93 e9be
00000010: 0d56 21bf 24a2 913e 79f9 553d ba32 ea3e
00000020: 2f9e f7be 3261 ca3d 77aa 803e 353b 19bf
00000030: f03f a6bd 3cda 7e3d 0573 c6bd 5935 89bc
00000040: d331 85bd 0992 363d e3fd 2cbf 33e6 8fbe
00000050: 7626 debe f183 833e fc35 d93e bd44 fa3e
00000060: 0a06 0c3f 70d1 d7be 92b1 003b da80 c2be
00000070: ffd8 be3e a168 ddbe 637e 1d3e daeb dabe
00000080: 21f3 20bf fe67 903e e380 a43d 6277 6cbe
00000090: 8ecc 5a3d 630b 0dbf 9599 0dbf cdd5 49be
000000a0: 9efc f53e 9439 0c3e cedd 123f d6ce 0b3e
000000b0: 6a6e 173f 2821 86be 77de d33e 4624 0b3f
000000c0: 1747 07bf c890 153e
-0.5912076 0.31843513 -0.22746034 -0.45620534 -0.6302193 0.28444016 0.05223987 0.45741826
-0.48362872 0.0988182 0.25130054 -0.5985597 -0.08117664 0.062219843 -0.09689907 -0.016749071
-0.06503644 0.044572864 -0.675749 -0.28105316 -0.43388718 0.256866 0.42424 0.48880568
0.54696715 -0.42151976 0.001963709 -0.3798893 0.3727493 -0.43243888 0.15380244 -0.42758065
-0.62870985 0.2820434 0.08032396 -0.23092416 0.053417735 -0.550955 -0.5531247 -0.19710465
0.48044294 0.1369384 0.573697 0.1365312 0.59152853 -0.2619717 0.41380665 0.54352224
-0.5284285 0.14606011

layers.2.weight f4 [3, 50]
00000000: d052 cf3d fc9f cfbe c66f 833d e6a3 cabd
00000010: 2d00 dc3d 84b7 6bbc 4b4e aa3d aaf2 a8bd
00000020: 2fb8 2abd 8842 f23e cb77 1cbe 4a25 09b9
00000030: 8e14 31be 9404 a63d ebaf 02be d5b1 c23d
00000040: cd04 023f 5dae eebd b330 f2bd ef2a 663d
00000050: ce8e f5bd 31c4 9dbe 320b d33d 3714 a53d
00000060: 6974 5dbe 47ca bebd fcb7 b03e aca9 e2bd
00000070: 75b1 2fbc 47f2 b23d 7ad7 06be 2149 0a3d
00000080: ec4e c63d ab70 0a3e 858e 58be 262c 06bf
00000090: a7c9 dc3e b125 023e f812 c0bd 4113 863d
000000a0: 6559 913e c889 21bc f9e5 8e3d 7433 3c3e
000000b0: d038 153e 5d9f 4ebe 82ea 9d3d ed11 73bd
000000c0: e873 ffbd 237d f03e 3531 0abe 61d6 943e
000000d0: b8eb eebc a786 0cbb eaa0 a3bb 119e db3d
000000e0: 276c 6ebe 3005 f33d f877 123c c66c 93bd
000000f0: 3b0b a4bd 0910 96bd cf44 9b3d 0788 5bbd
00000100: 3b03 fcbd cd64 33be da88 0ebf 6c7f f0bd
00000110: e98c 0abc 735e b43c 3148 f3bd c254 013e
00000120: 650e fd3c 23b8 953e 9f06 82bc 8ac6 cdbd
00000130: a2d4 cbbe 7daf 0f3e d4ae 093e a12f d23d
00000140: 60fe 48bc 5ebc 9ebd d46b 49bd 028d d53d
00000150: 72c6 ebbd eb89 7e3d 953e 05bf 157f c6bd
00000160: b856 b8bc 1da6 8fbd 5d81 1e3e d928 07bd
00000170: f5c7 2a3e 635e 29be 2539 c03d 322a 653d
00000180: 991d 413e 644a 4dbd 1825 04be 3fbf 843d
00000190: bcfb 9bbd 4be7 853e d0aa e13d 50af 01bd
000001a0: f02a e73d dfa9 313d e8fd 7dbd 6738 683e
000001b0: f235 e33d 2d66 f1be 97f0 8e3e 77f3 943d
000001c0: 6950 373e 9aec 5cbd 0a4f c2bd ce33 24be
000001d0: 7bc3 8b3d 06b0 733e 596b 80bd 9ca4 0fbe
000001e0: 7b2b 98bd d70b b43e 8576 54bd 0b9f 90be
000001f0: 5a2f 693e e7c2 71bd dd17 4e3e f665 34bd
00000200: 5cbe 713e 3ae7 7a3d e102 ba3e 6078 a8bc
00000210: db63 5bbd a68a 28be 2545 0d3e 7af3 9b3e
00000220: 4350 9d3d 9e22 243b 6ba8 acbc 9403 d3bd
00000230: 0b1b debd dc81 3ebd a4db 25bc 38f3 cebd
00000240: 162c 2f3e 8eb8 febc b782 d6bd ac2b 333d
00000250: fcbd 30bd ec04 bdbe
0.10123217 -0.40551746 0.064178035 -0.098945424 0.10742221 -0.014387015 0.083157144 -0.082494095
-0.041679557 0.47316384 -0.15280072 -0.0001307923 -0.17292997 0.08106342 -0.1276242 0.09506575
0.50788575 -0.11654351 -0.11825695 0.05619329 -0.119901285 -0.30813745 0.1030487 0.08060496
-0.21626438 -0.09315925 0.3451537 -0.110675186 -0.010723461 0.08737617 -0.13168135 0.033761147
0.09683022 0.13519542 -0.21148117 -0.52411115 0.431226 0.1270969 -0.09378618 0.06546641
0.28388515 -0.00985951 0.069774576 0.18379003 0.14572453 -0.2017798 0.077107444 -0.059343267
-0.12473279 0.46970472 -0.13495333 0.29069808 -0.029165134 -0.0021442564 -0.0049935477 0.10723508
-0.23283444 0.11866224 0.008939736 -0.07198481 -0.080099545 -0.07327277 0.075814836 -0.053596523
-0.12305304 -0.17518921 -0.5567757 -0.11743054 -0.008456447 0.022017693 -0.11879004 0.12629989
0.030890653 0.29242048 -0.015872298 -0.10047634 -0.39810663 0.14031787 0.13445598 0.10262991
-0.012267679 -0.07750772 -0.0491751 0.10427286 -0.1151246 0.062143248 -0.5204862 -0.09692208
-0.022502288 -0.070141055 0.15479036 -0.03299794 0.1667784 -0.16539912 0.093858995 0.055948444
0.18858947 -0.050119773 -0.12904775 0.0648179 -0.07616374 0.26153025 0.11018908 -0.03166133
0.112874866 0.043374892 -0.062009722 0.22677766 0.110942736 -0.47148266 0.2791793 0.07273
0.17901768 -0.05393658 -0.09487732 -0.16035387 0.06824394 0.23797616 -0.06270475 -0.14027637
-0.07430168 0.35165283 -0.05187084 -0.2824634 0.2277197 -0.059023764 0.2012629 -0.04404255
0.23607773 0.06125567 0.3633032 -0.020565212 -0.053562026 -0.1645914 0.13795908 0.30459195
0.07681324 0.0025045048 -0.021076402 -0.10303417 -0.10845002 -0.046510562 -0.010123167 -0.10104984
0.17106661 -0.031093862 -0.10474151 0.04374282 -0.043149933 -0.36917818

layers.2.bias f4 [3]
00000000: 7364 753d 591a 50bc 837c cbbd
0.05991025 -0.012701594 -0.09935858
