Pb_policy_iteration/cart_pole_modified_env/latest_experiment/models/CartPole_20_3_20_0.025_pbpi_model.pt (torch, 2963 bytes, 4 tensors)

layers.0.weight f4 [50, 2]
000000 8b ea 33 3f 4a 0c d3 3e 3d f8 a4 3e 16 86 0f 3e
       0.7027976 0.41220313 0.3222064 0.14015993
000010 10 99 67 3f 4b 9d f8 3d 80 05 68 3e 5f 8c 22 3f
       0.9046793 0.12139376 0.22658348 0.6349544
000020 1f 77 1b bf d3 8c e4 bc 8e 07 07 3e 11 67 56 be
       -0.6072864 -0.027899181 0.13186476 -0.20937754
000030 05 74 0d bf d6 d6 61 3f 7d c4 10 3f 47 6c 10 be
       -0.55255157 0.8821844 0.5654982 -0.14103805
000040 a5 ce ea be cd ea 41 bf 7e 41 12 3f bf 39 d4 3d
       -0.45860782 -0.757489 0.57131183 0.10362577
000050 14 ec 4c bd 0f 93 f3 be 31 f6 00 bf 49 b8 92 be
       -0.05002983 -0.47573134 -0.5037566 -0.28656223
000060 3e 04 e2 be ac 57 14 3f 1e a2 b9 be 93 af 02 3f
       -0.44143862 0.57946277 -0.36256498 0.51049155
000070 69 97 fc bd 84 93 ea be 12 47 18 3f cf 25 57 bf
       -0.12333567 -0.4581567 0.59483445 -0.84042066
000080 a9 b1 fc be 1c 15 f8 be cf 30 ec be 79 02 48 3e
       -0.49354294 -0.48453605 -0.46130988 0.19532193
000090 54 f9 00 bf bb c4 0f 3d 46 ae 00 be 56 b9 14 bf
       -0.50380445 0.035099726 -0.1256648 -0.580953
0000a0 48 82 75 3e 3a e3 2d 3e c7 31 18 3f 56 95 8d be
       0.2397548 0.16981211 0.59450954 -0.27652997
0000b0 99 a9 13 bf 4e 35 2d 3f 87 88 ad be d5 11 39 3f
       -0.5768066 0.6765946 -0.33893225 0.72292835
0000c0 9b d1 15 3e 0d b3 5e 3e 93 4f 66 3d 8b 5e 0d 3f
       0.1463074 0.2174799 0.05622823 0.55222386
0000d0 da 6a 24 bf ab 52 ce bd c8 c0 21 3f 9d cf ac 3e
       -0.6422554 -0.100743614 0.63184786 0.33752146
0000e0 df df d6 3e c1 cf 2b be 06 3c 0b 3f a2 4d 1e 3c
       0.41967675 -0.1677847 0.54388463 0.009662064
0000f0 28 89 2f 3f 84 c5 16 be a5 d5 1a bf 2b a7 dd be
       0.6856866 -0.14723784 -0.60482246 -0.43291602
000100 a2 86 ae 3e c4 ac 21 bf 1a 7f 6e 3e d2 b2 e5 bb
       0.34087092 -0.63154244 0.23290673 -0.0070098424
000110 ba 9b 61 be ed eb d6 b9 ba d6 54 3e 46 81 02 bf
       -0.22032061 -0.0004099304 0.20785037 -0.50978506
000120 b1 ca c9 be e8 1c 8e be 8d a9 25 3f e6 fd b2 bd
       -0.39412454 -0.2775643 0.6471184 -0.087398335
000130 5f de 3c 3f 8b 25 35 3e c6 25 75 3e e8 c3 e7 3e
       0.7377681 0.17690103 0.2394019 0.45266652
000140 1f c4 c7 be 71 a8 7e 3e 3f 80 1b be 5d 5d 08 bf
       -0.39016816 0.24868943 -0.15185641 -0.5326746
000150 64 03 33 be e3 b1 01 3f 18 15 0d bf 08 bb 35 3d
       -0.17481762 0.5066206 -0.5511031 0.04436782
000160 ca e8 6a 3f 56 b3 42 3f a6 27 ad be fd 68 82 3d
       0.9176146 0.76054895 -0.33819312 0.06367681
000170 a4 4d 6c be 16 9f 66 3e 11 04 b5 be ab f5 9d 3e
       -0.23076493 0.22521624 -0.35354665 0.30851492
000180 ff c2 e4 3e 60 30 05 be 43 85 26 3f df e3 f8 be
       0.4468002 -0.13006735 0.6504709 -0.48611352

layers.0.bias f4 [50]
000000 93 cc f6 be ed a7 06 bf e1 ad ff 3c d8 1b e3 3e
       -0.48202953 -0.52599984 0.031210842 0.4435718
000010 84 d7 81 be fd ce cb be 98 ec 6a be 89 65 b4 3e
       -0.25359738 -0.39806357 -0.22941816 0.35233715
000020 7c 79 6e 3e 53 a7 a5 be 5a 53 f5 be 84 98 d4 3d
       0.2328853 -0.3235422 -0.47915155 0.103806525
000030 df 46 18 bf eb 03 0d bf 3e be d2 be 91 ed de bd
       -0.5948314 -0.55084103 -0.41160768 -0.10885156
000040 48 50 27 3e a7 20 04 bf 41 b8 df be 7c 32 aa be
       0.16339219 -0.51612324 -0.43695262 -0.33241642
000050 6f 53 a8 3e ae fe 48 3e fe 50 98 3e d9 85 94 3e
       0.32876155 0.19628403 0.29749292 0.29008368
000060 c9 ec c0 3d 65 d3 f2 be 33 b9 0c bf c6 98 fa bd
       0.09420163 -0.47426906 -0.5497009 -0.122361705
000070 fc a2 20 3f 64 57 0c 3f 84 3b e7 3e f1 1d f7 3e
       0.62748694 0.5482085 0.45162594 0.4826503
000080 60 5c 12 3f 78 81 23 bf a7 8b 16 bf e2 d4 cc 3e
       0.57172203 -0.6386943 -0.5880684 0.40006167
000090 a9 a8 9f 3d c5 ff 94 be 38 39 76 3e 71 7c 32 bf
       0.07795841 -0.29101387 0.24045265 -0.6972113
0000a0 19 50 5e 3e 6c 08 9e bd 88 5f 0b be 1f 9e 1f bf
       0.21710242 -0.0771645 -0.13610661 -0.6235065
0000b0 91 20 ad 3e 56 8d 33 3e 48 a4 29 3e 69 62 9b bd
       0.3381391 0.17534384 0.16566575 -0.075871296
0000c0 fa 94 c5 3e 18 98 a2 3e
       0.38590223 0.31756663

layers.2.weight f4 [3, 50]
000000 80 7f 8c bd 0f a6 ad bd 39 75 11 bf 9d c1 1c 3c
       -0.06860256 -0.08478939 -0.5681949 0.009567645
000010 0a 58 07 3c ee 33 53 3d 3a 1b eb 3e 8e d9 42 3d
       0.008260736 0.051563196 0.4591921 0.047570758
000020 05 24 db 3e c0 39 8a 3c ed 27 0d be b8 51 78 3e
       0.42800918 0.01687324 -0.13784762 0.24249923
000030 da c5 f5 bd 56 7b 8d 3d db 71 6c be ad d3 01 bf
       -0.12000628 0.0690829 -0.23090307 -0.50713617
000040 61 9a 7c 3e e9 9d b5 3d 11 d0 f5 3d 20 99 4c be
       0.24668266 0.088680096 0.12002576 -0.19980288
000050 69 ea a3 bd 0a 19 ea bd 0c 0d 22 3d 0a b0 fd bd
       -0.080036946 -0.11430557 0.039563224 -0.123870924
000060 07 1b 10 be db b4 8c 3d 96 26 12 be 8c b0 9f 3e
       -0.1407281 0.06870433 -0.14272532 0.31189382
000070 b7 00 3e 3e 7c dc 47 3d 6a 14 95 bd ab e7 8b 3d
       0.1855496 0.048794255 -0.07279284 0.068312965
000080 02 9b bc bd 10 1b 1a bd ce 39 e1 bd 0e 97 9b 3c
       -0.09209253 -0.037623465 -0.109973535 0.018992927
000090 b3 b9 bc 3d 32 25 0b be 92 7e fd bd b8 9c fb 3d
       0.09215107 -0.13588408 -0.12377657 0.12285751
0000a0 05 34 f9 3d 57 19 44 be 95 88 9d 3e d6 c3 aa 3d
       0.12168125 -0.19150291 0.30768266 0.08338134
0000b0 21 fd 1b bf de 02 9a 3d e3 ff 11 3d e8 75 59 3e
       -0.6093312 0.07520078 0.035644423 0.21236384
0000c0 8b af ed 3d 07 fb 42 be 5d 8c aa bc 4d e8 32 bd
       0.11605748 -0.19041072 -0.020818884 -0.04367857
0000d0 11 5d f8 3d 9a 58 90 bd 80 cc 93 bd 5d 72 97 3d
       0.12127126 -0.070481494 -0.0721674 0.0739486
0000e0 21 54 4c be 4f 65 b4 bd 67 4f 95 be 40 67 01 bb
       -0.19953968 -0.088083856 -0.29162142 -0.001974538
0000f0 3e 17 f5 3d eb c1 a3 bd 33 fc ac 3d 69 36 1c 3d
       0.11967324 -0.07995971 0.08446541 0.038137827
000100 59 83 5d 3d 3b f9 46 3e ff eb fb bd e8 66 9f bd
       0.05408034 0.19431011 -0.12300872 -0.077833
000110 d3 67 99 3d 13 cc a1 3c 0c b3 9b bd 80 91 42 bd
       0.07490506 0.01975063 -0.0760251 -0.04750204
000120 53 52 21 bb 8b df 68 3e 3e ef d4 3d d2 73 05 3e
       -0.002461572 0.22741525 0.10397194 0.13032463
000130 2d 55 9c bc 15 ee 42 be 68 88 af 3d 2e 6e 13 bc
       -0.019083584 -0.19036134 0.08570939 -0.008998437
000140 95 6b e6 3d 58 3e 84 3e fd 7a b5 3d 9f f1 39 bd
       0.112509884 0.25828815 0.08861349 -0.045396443
000150 3f 97 c7 bd 30 32 30 3e 57 7f 45 be 56 de b6 bd
       -0.09745645 0.17206645 -0.19286858 -0.08929126
000160 8a ae 01 be 4a fd 52 3d f7 e9 17 3e 90 6e 12 3d
       -0.12664238 0.051511087 0.14835344 0.035749972
000170 92 1a 36 be c0 1f f7 bd e1 8e 1d 3e 94 d4 ba 3d
       -0.17783573 -0.12066603 0.15386535 0.09122577
000180 1a 9a 18 3e 4f fa 42 bd f8 0b a8 bd d0 5a 96 3d
       0.14902535 -0.047601994 -0.08205408 0.0734154
000190 47 d8 51 bd 4b 4d 86 3d 6e e1 a6 3e d6 b6 5e 3e
       -0.05123165 0.06557711 0.32593864 0.21749434
0001a0 c1 0d d8 3d 00 1a aa 3d 6c c4 95 be c5 a2 63 bc
       0.10549498 0.0830574 -0.2925142 -0.013893788
0001b0 d8 40 e8 bd dc 38 03 3e 42 ab cf 3c 41 e2 32 be
       -0.11340493 0.12814659 0.025350217 -0.17469122
0001c0 1e 26 fd bc 69 d2 06 be 54 3a 1a 3d 8f 84 e7 3e
       -0.030901965 -0.13166203 0.037653282 0.45218322
0001d0 30 b5 31 be 64 8d de bc 8b 7b 37 bc 46 3c 5d 3d
       -0.17354274 -0.02716703 -0.0111988885 0.05401256
0001e0 c9 0d d6 bd cb ac 22 3e d2 0c 56 3c 74 21 c7 3c
       -0.10451848 0.15886228 0.01306458 0.024307944
0001f0 92 08 03 3e 3b df 98 3d a4 46 aa bd a0 aa 8b bc
       0.12796238 0.07464453 -0.08314255 -0.017049134
000200 3e d2 72 bc 17 c3 e3 3d 47 93 38 3e bf c3 ba bd
       -0.014820633 0.11121195 0.18024932 -0.09119367
000210 9f 1c 6d bd dd ca fc bd fe 12 cf 3d fd 0c 1c 3e
       -0.057888623 -0.123433806 0.10111044 0.1523933
000220 2b 57 e5 ba 27 ff d6 bd 67 a5 49 3e da 44 05 bd
       -0.0017497292 -0.10497885 0.19692002 -0.032536365
000230 8f 36 95 3c 8a 55 3a bd 30 f6 b0 bd 10 2f 24 3d
       0.018214492 -0.045491733 -0.086407065 0.040083945
000240 96 6c e9 3e f6 40 46 be 48 54 13 3d 49 5a 23 bd
       0.45590657 -0.19360718 0.03596905 -0.039881025
000250 8b 2b b0 bd ea cd 51 3e
       -0.08602055 0.20488706

layers.2.bias f4 [3]
000000 71 41 c3 3e 14 7c d1 3d 10 75 12 be
       0.38135865 0.10228744 -0.14302468
