Pb_policy_iteration/cart_pole_modified_env/latest_experiment/models/CartPole_10_3_20_0.025_pbpi_model.pt (torch, 2963 bytes, 4 tensors)

layers.0.weight f4 [50, 2]
0	0x3d9b0128	0.0756858
1	0x3f17e190	0.59328556
2	0x3e008dd7	0.12554108
3	0xbe9c6e23	-0.30552778
4	0xbf12cd03	-0.57344073
5	0xbf1322bc	-0.57474875
6	0xbf14a358	-0.5806174
7	0x3e0f5243	0.13996224
8	0xbf02d604	-0.5110781
9	0xbf334059	-0.7002006
10	0xbc055b4b	-0.008139442
11	0x3edeace7	0.4349129
12	0xbea448f6	-0.32086915
13	0xbf231be7	-0.6371445
14	0xbe9cea77	-0.30647632
15	0x3f074e85	0.52854186
16	0x3e923d6e	0.28562492
17	0x3f08c1bd	0.5342062
18	0xbeb43d51	-0.3520303
19	0x3f019e66	0.5063232
20	0xbdf25922	-0.11833407
21	0xbf29ce8d	-0.66330796
22	0x3f01adbe	0.50655735
23	0x3e50cfcc	0.20391768
24	0x3e1f9538	0.15584266
25	0xbd11000c	-0.035400435
26	0xbf087ac1	-0.5331231
27	0x3ecd8cf9	0.40146616
28	0x3e548cd1	0.20756842
29	0x3dee6ae0	0.116414785
30	0xbed2cea1	-0.4117327
31	0x3eee2c5f	0.46518227
32	0x3e4832b4	0.19550592
33	0x3e834266	0.25636595
34	0xbf196985	-0.59926635
35	0x3ed28d7a	0.41123563
36	0x3e2780b9	0.16357698
37	0x3edc30f3	0.43006095
38	0x3c0cc84c	0.008592676
39	0x3edff32b	0.4374021
40	0xbd828414	-0.06372848
41	0xbe4cfd9e	-0.20018622
42	0xbee50ee6	-0.4473793
43	0xbf34a95e	-0.70570934
44	0x3ef68348	0.48147035
45	0xbe00330a	-0.1251947
46	0xbe958941	-0.2920628
47	0x3e873a14	0.26411498
48	0xbeceb6a7	-0.40373728
49	0x3ee003c4	0.43752873
50	0xbe51d078	-0.20489681
51	0x3f00d80d	0.5032967
52	0xbed8e47a	-0.42361814
53	0xbd180116	-0.03711041
54	0xbeeec86b	-0.46637282
55	0x3f145953	0.579488
56	0x3e762293	0.24036627
57	0xbf1a0c4f	-0.6017503
58	0xbe7a48e5	-0.2444187
59	0x3f07782a	0.5291773
60	0x3e0b9efb	0.13634865
61	0x3d7f61a7	0.062348988
62	0xbde154ff	-0.1100254
63	0x3f1a2e1e	0.6022662
64	0x3ec85688	0.39128518
65	0x3f1d3bf7	0.61419624
66	0x3f22bee0	0.635725
67	0xbf293dcc	-0.6610992
68	0x3e039468	0.12849581
69	0x3f22ed4a	0.63643324
70	0xbf04713d	-0.5173529
71	0xbf020422	-0.50787556
72	0xbc075593	-0.008260149
73	0x3ee1f507	0.44132254
74	0x3e95b260	0.29237652
75	0xbec72268	-0.38893437
76	0xbf246176	-0.64211214
77	0xbcd3a898	-0.025837228
78	0xbebd80cb	-0.37012324
79	0x3e345f89	0.17614569
80	0x3eff3363	0.49843892
81	0xbe9a1bc4	-0.30099308
82	0x3eb80d25	0.35947528
83	0xbe627004	-0.22113043
84	0xbd0352c2	-0.032061346
85	0x3e22913a	0.15875712
86	0xbeae1eb5	-0.34007803
87	0x3eee2db7	0.46519253
88	0xbe762559	-0.24037685
89	0xbd9ef74e	-0.077620134
90	0x3ef2efea	0.47448665
91	0xbeed28ed	-0.46320286
92	0x3ef3f726	0.47649497
93	0x3edc3c31	0.43014672
94	0xbefa4d2b	-0.48887
95	0x3d0fd9f9	0.035119984
96	0x3ec651ca	0.38734275
97	0x3dbf8b4a	0.09352739
98	0x3c0e3cb0	0.008681461
99	0xbe97edbb	-0.2967356

layers.0.bias f4 [50]
0	0x3ebc4a49	0.36775425
1	0xbec85e1e	-0.39134306
2	0xbecc63f6	-0.39920014
3	0x3f11f027	0.5700707
4	0xbe834d9a	-0.25645143
5	0x3e841807	0.2579958
6	0xbd907679	-0.07053847
7	0x3cb47f51	0.022033365
8	0x3eb9424f	0.36183402
9	0x3ec0b862	0.37640673
10	0x3efca66d	0.49345723
11	0xbef7a450	-0.48367548
12	0xbef95064	-0.48694146
13	0x3efc7bd8	0.49313235
14	0xbeab3142	-0.33436018
15	0x3f1d0164	0.61330247
16	0xbe253962	-0.16135171
17	0xbc8dc2b7	-0.017304761
18	0xbeae0cda	-0.3399418
19	0x3e216bf3	0.15763836
20	0xbf2986d8	-0.6622138
21	0x3d5cf0ee	0.053940706
22	0xbec41f72	-0.3830524
23	0x3efb9bb6	0.49142236
24	0xbef0ee31	-0.47056726
25	0x3eaed850	0.34149408
26	0x3d29dcd8	0.04147038
27	0x3f0e074f	0.554799
28	0xbefc1b9f	-0.49239823
29	0xbec23747	-0.37932798
30	0xbed96861	-0.42462447
31	0x3cc1d45b	0.02366083
32	0x3e47785a	0.19479504
33	0xbe8df03a	-0.2772234
34	0xbf1a0814	-0.60168576
35	0xbf1ecfb1	-0.6203566
36	0x3ee1cf12	0.44103295
37	0xbe21a8b1	-0.15787007
38	0xbdee6f85	-0.116423644
39	0xbf0cc12a	-0.54982245
40	0xbd30cdef	-0.043165144
41	0x3ec6e93a	0.38849813
42	0x3f2b894e	0.67006385
43	0xbf192327	-0.59819263
44	0xbe0385f6	-0.12844071
45	0x3f360070	0.7109442
46	0xbd82c367	-0.06384926
47	0xbda4f480	-0.08054447
48	0x3eb646b8	0.3560083
49	0xbdba66c9	-0.09101636

layers.2.weight f4 [3, 50]
0	0xbd7240c7	-0.059143808
1	0xbdd2a3f2	-0.10285176
2	0xbd96fcf6	-0.07372467
3	0x3dfc5e97	0.12322729
4	0xbd7084a9	-0.058720265
5	0xbd77895d	-0.060433734
6	0xbc8c61d2	-0.017136488
7	0xbe07cc8f	-0.13261627
8	0x3e2bcae7	0.1677662
9	0xbca74a8b	-0.020421287
10	0x3e13518b	0.14386575
11	0xbcb32f98	-0.02187328
12	0xbdc4107e	-0.09573458
13	0xbd4cc798	-0.049995035
14	0xbbcfa799	-0.006337118
15	0x3dc2602d	0.09491
16	0x3ddeeb20	0.1088469
17	0xbd9a3fcd	-0.075317
18	0xbdf17d29	-0.117914505
19	0xbdbfb4cd	-0.09360657
20	0x3d670e6b	0.056410234
21	0x3c377f90	0.011199847
22	0xbe0495a1	-0.12947704
23	0x3d6246b6	0.055243216
24	0x3cb29e6a	0.021804053
25	0x3e1ae2e5	0.15125616
26	0x3d346b22	0.044047482
27	0xbcfb4cdc	-0.030676298
28	0x3e03b5b5	0.12862284
29	0x3db5c7d3	0.08876004
30	0xbd2ea71c	-0.042639837
31	0xbda880f2	-0.08227719
32	0x3d32f533	0.04369087
33	0x3dda71bb	0.106662236
34	0xbd48ef03	-0.049056064
35	0x3d4d140d	0.05006795
36	0x3e135225	0.14386804
37	0x3c009e73	0.007850277
38	0x3d82385d	0.06358407
39	0x3c09f2cb	0.008419703
40	0xbcb46e57	-0.02202527
41	0x3dc79107	0.09744459
42	0x3e33ad06	0.17546472
43	0xbd703349	-0.05864266
44	0x3ca4e062	0.020126525
45	0x3e4d62d1	0.20057227
46	0xbe014930	-0.12625575
47	0x3d3ad5b7	0.04561397
48	0x3ce14063	0.027496522
49	0x3d1fac4e	0.038982682
50	0x3de3dc68	0.111260235
51	0xbddac662	-0.1068237
52	0xbd918cc0	-0.07106924
53	0xbb57d040	-0.0032930523
54	0x3df45b49	0.11931474
55	0xbde55478	-0.11197752
56	0x3c299073	0.010349381
57	0xbd42828b	-0.047487777
58	0x3c07302b	0.00825123
59	0x3daa67b4	0.08320561
60	0xbd878995	-0.066180386
61	0x3d701983	0.05861808
62	0x3e0392cd	0.12848969
63	0xbcd6f82f	-0.02624139
64	0x3cb84330	0.022492975
65	0x3e12ac80	0.14323616
66	0x3d81ea65	0.06343535
67	0x3dbf89d2	0.09352459
68	0xbe113395	-0.14179833
69	0x3d384592	0.044988222
70	0xbd060e79	-0.032728646
71	0x3e56ecff	0.20988844
72	0xbd84ca6b	-0.06483921
73	0x3d9ddd36	0.07708208
74	0x3ded9484	0.11600593
75	0x3cf3b9d5	0.029751698
76	0xbd4508f1	-0.04810423
77	0x3dcb0ed2	0.09914936
78	0xbc99eb36	-0.018788915
79	0xbcaab4d5	-0.02083818
80	0xbdda20b9	-0.106507726
81	0xbd1def78	-0.038558453
82	0x3cc9d20c	0.024636291
83	0x3dc9959e	0.0984299
84	0x3d8085ab	0.06275495
85	0x3cc2ad0c	0.023764156
86	0x3d414990	0.047189295
87	0xbd3b6330	-0.04574889
88	0xbde5df32	-0.11224212
89	0xbcbc52b5	-0.022988657
90	0x3c79f995	0.015257259
91	0x3dab7ebb	0.08373781
92	0x3c9bdb34	0.019025423
93	0xbcc0d194	-0.023537435
94	0x3db7a29c	0.08966562
95	0x3db89ea8	0.09014636
96	0xbd92a555	-0.07160441
97	0x3dd4f8fd	0.10399053
98	0xbdd36653	-0.10322251
99	0xbca8eb76	-0.020620089
100	0x3d8f22b4	0.06989041
101	0xb9b1d162	-0.00033916073
102	0x3d8ad2c0	0.067784786
103	0xbc4d4937	-0.012529663
104	0xbdf324ef	-0.11872279
105	0x3d29f59e	0.041494004
106	0xbd65f6b0	-0.056143463
107	0x3dbf2dfa	0.09334941
108	0xbe2988c7	-0.16556083
109	0xbe111329	-0.14167465
110	0x3d1f6a8e	0.038919978
111	0x3d6c2e51	0.05766136
112	0x3d874016	0.0660402
113	0xbd00758b	-0.031362098
114	0x3d9518a1	0.07280088
115	0x3d9d8fc8	0.0769344
116	0xbd90c602	-0.07069017
117	0x3db21c95	0.08696858
118	0x3db38ca6	0.08767061
119	0x3d8dcf74	0.06924334
120	0xbd928fda	-0.07156344
121	0xbdb70257	-0.08935993
122	0xbe09a080	-0.13440132
123	0x3b7f2a5c	0.003893516
124	0x3da65797	0.08122175
125	0xbdf15cbc	-0.11785266
126	0x3e26096e	0.16214535
127	0xbda86c10	-0.08223736
128	0x3da196c4	0.078900844
129	0x3b8cee5b	0.004300875
130	0xbd9a6902	-0.0753956
131	0x3d6ad385	0.057330627
132	0x3d453611	0.048147265
133	0xbdb3f407	-0.08786779
134	0xbdedd258	-0.116123855
135	0x3dab00c0	0.083497524
136	0x3cc6027b	0.024171105
137	0xbd6df0a5	-0.058090825
138	0xbda33d21	-0.07970644
139	0xbdeca59e	-0.115550265
140	0x3df368f8	0.118852556
141	0x3dd4d302	0.10391809
142	0x3df0945c	0.11747047
143	0x3b9dd73a	0.004816917
144	0x3df8ffc8	0.121581614
145	0x3cca1c04	0.024671562
146	0x3dd7a8f3	0.105302714
147	0x3d8c41e0	0.06848502
148	0x3d378a86	0.04480984
149	0xbe01e5f0	-0.1268537

layers.2.bias f4 [3]
0	0x3d6c6e9c	0.057722673
1	0x3cda9d2f	0.02668628
2	0xbd97ea20	-0.07417703
