Pb_policy_iteration/cart_pole_modified_env/reproduce_FHCP_results/original_algo/models/CartPole_200_3_10_0.025_pbpi_model.pt (torch, 4755 bytes, 4 tensors)

layers.0.weight f4 [125, 2]
00000000: 69ab 7ebd 4f3c 683f 6e90 b5bd 51f9 3a3c
00000010: 56c0 7a3f 7e5d 2bbe 53c2 623e 72bc 31be
00000020: a0b2 753a b546 a13b f186 3f40 7a63 963e
00000030: 2cef 8f3e 9a3d 04be 4f57 2cc0 b5bc ffbe
00000040: ce5d f63f d151 653e be39 803f 946c 75bf
00000050: c4e9 2bbf 44ab dabe 797f 40bd 8a11 2cbc
00000060: d1d9 25bd 3690 54bf 8ad6 11bf f177 96bf
00000070: 855a 32bf 4c89 8cbd 13e4 0fbf 92a9 863e
00000080: ffbd 283a 4e0d e8be 91b7 44be 4ddd a13f
00000090: 73ab 7e3f 3d83 91be 80c8 d03d 028a 58be
000000a0: 5187 593e 2040 b63e e3fd 1ebf fc9c 81bd
000000b0: 2a39 513e e699 b0bd 6299 eb3f 828c 453e
000000c0: d2b1 bf3f e550 5f3e fdcf 57be b590 863d
000000d0: 95fa 01bf 5130 6abd b2a3 e23e 4a9f 2ebe
000000e0: 0a1e 023d a6db 82be 3b33 713e a0a5 33bf
000000f0: 64a7 f43e c641 b2be b718 4f3d 84dd 403f
00000100: 3f58 a9bd a50d 973f 0dbd e03e c5a1 4f3d
00000110: e91f 23be 51af c03e 086e dcbc 5be2 ca3e
00000120: 8a02 24bd 4325 52bf 1462 72bf f4cc 623e
00000130: a1e6 ea3e c5e3 60be 69b3 74bd 739c 533f
00000140: 4732 1abf fd55 19be eed7 2d3e fb42 1d3f
00000150: 3c40 f33d 0ccf f13c e1f9 e9bd 1d77 173d
00000160: a83c d9be b82f d33e afb8 593e 6c9b 89bf
00000170: d781 e93e 9fca ccbe 96b3 113f de7e 01bf
00000180: 4d4f 8bbb 2d30 1b3f c21f 733f cccf babe
00000190: 6ee8 15bf c663 c33e 49dd 6fbf 6505 d93f
000001a0: 4f15 93bf 4f90 32be 43bd 2d3e 08f8 53bf
000001b0: 593b c13e 5fa9 853d 9ef0 f1bf 1fbd 74be
000001c0: 20e6 8cbe 12ff 2b3c 4c99 bf3d 6455 c73d
000001d0: dc54 703e b235 55be eb1b 3cbf dfa8 8c3f
000001e0: dcf0 63bf ac24 123e 2bda 49bf 43d6 5b3e
000001f0: 4ca7 9d3e c66b c53c 54f2 07bf 9044 a3be
00000200: e9fa 9cbf dcf4 fabd f324 afbe 91ab 323f
00000210: 723c 8cbe 5e63 46bf 8f90 83bd 188e 4c3d
00000220: 4a8e 823f e20f 8cbf 522e 1e3f 223d ba3e
00000230: d664 ab3e 76b2 e73c adf3 bebf b58b 74be
00000240: 963d f5be e4ed ee3d 01b2 f53e 3cf2 92be
00000250: fd1f 21be d15b a13e e472 a3be 03b7 f63d
00000260: 3b88 91be bd73 293e 1b78 313f 1b25 f0bd
00000270: d132 423f d25c b3bf bb07 fa3e 970e 7bbf
00000280: 35ed c6be 0f54 8b3e e112 fabf 693a 8bbe
00000290: 148e 1340 2576 753f f021 46bf 28d0 a5bd
000002a0: 1d86 4bbf 52ef b6bd 06fe 43bf 8cdc 9a3f
000002b0: 968b 1e3d 8b47 9a3d e476 4c3b 3276 4dbf
000002c0: 7585 dbbd 4322 a7bf 1158 53bf 3277 a9bd
000002d0: 44db 393e 816e 04be 3219 4dc0 4f84 88bf
000002e0: a4c1 d13f a394 763e 3ce5 bfbe 48cc a73e
000002f0: f102 80bf 9f36 58bf 844b 80be f261 9b3d
00000300: 4004 453f 548b dd3d 05ca 33bf 3372 ad3d
00000310: 22f3 97be 1b05 f23d a0cb f9bf 2b52 91be
00000320: e3f4 5e3e f7e5 3dbf ba95 42bd 7493 b33d
00000330: b629 5dbf a283 3abf bdf4 2fbe 2d09 ec3d
00000340: 5883 4bbf 30d8 423e 0371 de3b 42db 42be
00000350: 0490 5abd db82 1fbe 6235 23be 95b2 58bf
00000360: 4bc0 56c0 5b22 d3be 46e1 eabe 6368 053e
00000370: 86f0 4fbf 6276 0ebf 60ee 0dbf 89e1 823e
00000380: a4e6 723f deed 5fbf 3119 a53c 7fee 1cbe
00000390: c981 f93f 4bd1 993e b63d 82be c901 163f
000003a0: 14d6 b7be 0f2f 883d 5f99 d2bd 89df 1cbe
000003b0: 5412 0b3f b09b 483f 9abb 423e bc4e 073d
000003c0: 4dac 763e 5049 88bd fcc9 dbbd 3a1e 603e
000003d0: 1502 76be c718 5e3f bf1d 833d 4fe3 acbd
000003e0: 3d6a 343e 03a3 3f3c
-0.06217519 0.90717024 -0.088654384 0.011411981 0.9794973 -0.16734883 0.22144441 -0.17357042
0.00093726255 0.004921759 2.9926112 0.2937277 0.2811216 -0.12914124 -2.692829 -0.4994866
1.9247377 0.22394492 1.0017622 -0.958688 -0.67153573 -0.4270879 -0.046996567 -0.0105022285
-0.04049093 -0.8303255 -0.56967986 -1.1755353 -0.6966937 -0.06862125 -0.5620739 0.26301247
0.0006437003 -0.4532265 -0.1921065 1.2645661 0.9948036 -0.2842044 0.10194492 -0.21146396
0.21243025 0.35595798 -0.6210615 -0.063287705 0.20431963 -0.08623104 1.8406184 0.1929188
1.4976141 0.21808203 -0.21075435 0.065705694 -0.5077298 -0.057174984 0.44265515 -0.17052951
0.03176693 -0.25558203 0.23554699 -0.701746 0.4778396 -0.34815806 0.05056068 0.75338006
-0.08268785 1.1801039 0.43894234 0.050691385 -0.15930142 0.37633756 -0.026907936 0.3962582
-0.040041484 -0.82088107 -0.94680905 0.22148496 0.4587908 -0.21961887 -0.05974141 0.826606
-0.6023297 -0.14974208 0.16976902 0.6143033 0.11877486 0.029517673 -0.11424614 0.03697883
-0.4242909 0.41247344 0.21261857 -1.0750556 0.45606872 -0.39998338 0.5691465 -0.5058421
-0.0042513967 0.60620385 0.94970334 -0.3648666 -0.58557785 0.3816206 -0.9369703 1.6954771
-1.1490878 -0.17437862 0.16966729 -0.8280034 0.3774059 0.065264456 -1.8901556 -0.23900269
-0.2751932 0.010497825 0.09355411 0.09733084 0.23469871 -0.20821264 -0.734801 1.0989035
-0.890394 0.14271802 -0.7884852 0.21468453 0.307917 0.024099242 -0.5310414 -0.31888247
-1.2264072 -0.122537345 -0.34207878 0.6979304 -0.27389866 -0.7749537 -0.06424057 0.0499402
1.0199673 -1.0942347 0.6178943 0.36374766 0.3347537 0.028283339 -1.4918114 -0.23881419
-0.4789855 0.11666468 0.4798737 -0.28700435 -0.15734859 0.31515363 -0.31923592 0.120466255
-0.28424248 0.16548057 0.6932389 -0.11725827 0.7585879 -1.4012702 0.48834023 -0.9806914
-0.3885285 0.2721257 -1.9537011 -0.27193 2.3055468 0.958834 -0.77395535 -0.08096343
-0.79501516 -0.089323655 -0.76559484 1.2098556 0.03870734 0.07533177 0.0031198794 -0.80258477
-0.10718814 -1.3057331 -0.82556254 -0.08274688 0.1815005 -0.12932779 -3.2046628 -1.0665377
1.638722 0.24080138 -0.3747958 0.32773042 -1.0000898 -0.84458345 -0.25057614 0.07587041
0.7695961 0.1081759 -0.7023013 0.084690474 -0.29677683 0.1181738 -1.9515266 -0.28383002
0.21773104 -0.74179024 -0.04750607 0.08768359 -0.8639177 -0.72857106 -0.17183204 0.11525188
-0.7949729 0.19027781 0.0067883744 -0.19028953 -0.05336 -0.15577261 -0.15938333 -0.84647495
-3.3554866 -0.4123715 -0.45874995 0.13028102 -0.81226385 -0.5564939 -0.55441856 0.25562695
0.9488318 -0.8747233 0.020153614 -0.15325354 1.9492732 0.3004249 -0.25437707 0.58596474
-0.35905516 0.06649601 -0.102831595 -0.15319647 0.5432484 0.7836256 0.19016877 0.03303407
0.24089165 -0.06654608 -0.10731885 0.2188653 -0.24024232 0.8675656 0.06402158 -0.08441793
0.17618652 0.01169658

layers.0.bias f4 [125]
00000000: 6d08 8ebe f013 d03b 9664 963d 3afc 1ebf
00000010: a27f 8c3b f289 5a3e ba56 30bf 711f d0be
00000020: 2867 193e 90d1 f6bd e014 f7be a940 1f3c
00000030: 4e20 3dbf 99f8 55bf a5cf 123d 4bcd 32bf
00000040: 0e97 21be 6b70 0c3e c5b7 553d 6a96 7a3c
00000050: 1d6a cfbe ad8e 0f3d 9607 543d 42df 093e
00000060: 27b3 3c3e c420 32bf d1cf 0abd d40d 85be
00000070: 6886 fd3c 05f9 08bf bfd5 f4be a218 20bf
00000080: e837 b7be c5bf 013e 94ba f6be 8ab5 f5bd
00000090: e21f 3abf 5276 94bc 1a8a 20bf 1636 7fbe
000000a0: 1b79 93be 2191 07bf 40a1 2c3d e29f 853c
000000b0: bf32 d1be 36ab 37bf 2387 01bf 72ae 053e
000000c0: 915f ffbe 85dc 1f3d beea 1c3e 42a3 5abe
000000d0: f17d bebd ce0c 32bf c578 ea3d 5184 08be
000000e0: 8feb 05bf 3c92 c53d 30e2 5b3d a6b4 04be
000000f0: ed69 bf3c 086b 3fbd 85de a63d ce0c dcbe
00000100: 2cfd 833d 81f6 1e3e bb73 34bf a0cc 0c3d
00000110: f5f2 0cbe 59c5 c9be 8769 c43d 7840 00be
00000120: 24a8 c9be b2db e4be ede5 093e b06a 663d
00000130: 2a53 8b3d a539 623d 80f8 06bf 24b6 903d
00000140: 9573 e03d a88f 15be def4 0abf 920f 283d
00000150: 5a1e 5abd 397a 15be 4c8f 8e3d a72a 34bf
00000160: 5f2e ebbe c4d4 303d 4f74 2f3d 7840 33bf
00000170: 782a 4e3e 21b8 093e bd4e dcbd fa7c 033d
00000180: f083 883d cfd4 4f3d a011 ccbe 8c79 1cbe
00000190: 2a3f 20bf e63d 203d eecf 47bf 4fea 3e3d
000001a0: d90d 913d ea3e 5b3c 70fb 433c b705 9ebe
000001b0: 9fa6 6ebe 9c91 6fbe f936 1ebf e2ef d1be
000001c0: e0ae b53d be70 ae3c ee7d 793e aa6c 60be
000001d0: 739a eebe d9fc f5be 8b90 edbd 2c02 2d3d
000001e0: c417 e83c db82 06bf ac7b eebd 28f2 febe
000001f0: 84d6 453d
-0.27740803 0.006350033 0.07343404 -0.6210362 0.004287676 0.21341684 -0.68882334 -0.40648988
0.14980757 -0.120516896 -0.48258114 0.009720006 -0.7387742 -0.83582455 0.035842557 -0.698445
-0.15780279 0.13714759 0.05217721 0.015294651 -0.40510646 0.035048176 0.051765047 0.13464072
0.18427716 -0.69581246 -0.033889595 -0.25987113 0.030947879 -0.53504974 -0.47819325 -0.62537587
-0.3578484 0.1267081 -0.48189223 -0.119975165 -0.727049 -0.018122826 -0.62710726 -0.24922976
-0.28803334 -0.52955824 0.042145967 0.01631159 -0.4085903 -0.7174562 -0.5059683 0.13054827
-0.498776 0.039028663 0.15323922 -0.2135134 -0.09301365 -0.6955079 0.11448816 -0.13331725
-0.5231256 0.096470326 0.053682506 -0.12959537 0.023365939 -0.046732932 0.08147911 -0.4297852
0.06444773 0.15523721 -0.7048909 0.034374833 -0.13764556 -0.39408377 0.0959044 -0.12524593
-0.39386094 -0.44698864 0.13466616 0.05625409 0.06802972 0.055230755 -0.5272293 0.070659906
0.109595455 -0.14605582 -0.5427989 0.041030474 -0.0532516 -0.14597405 0.069609255 -0.7037758
-0.45933816 0.04317166 0.04283553 -0.70020247 0.20133388 0.13449146 -0.10757206 0.03210161
0.0666579 0.05074006 -0.39857197 -0.15280741 -0.6259638 0.03912153 -0.7805165 0.046610173
0.07082719 0.013381699 0.011961803 -0.30863735 -0.23305748 -0.2339539 -0.6180263 -0.4100333
0.088712454 0.021293994 0.24364445 -0.21916452 -0.4660221 -0.4804447 -0.11599835 0.0422384
0.028331645 -0.5254342 -0.11644682 -0.49794126 0.04830028

layers.2.weight f4 [3, 125]
00000000: f28c fa3d b57e d93d 4bfa f2be 7a6d 32bd
00000010: 830a 60bd 31e2 e53e dba4 b13d 9fe6 37bf
00000020: a1ea dc3e 8172 48be 28c3 d1be f4f3 ba3d
00000030: f982 f1be a1c4 ad3d 4def 1b3a 94b6 89bd
00000040: 187c 0d3e a50d b7be d0eb cdbe 0905 aa3c
00000050: e91e 7ebc aab1 68bd 6bf8 703c 5abf b83e
00000060: ac6e c5be 8efe a03c db49 4b3d ad88 2f3d
00000070: 684d 083e 071c 5dbe cc7a 683b f2de d73c
00000080: 5e27 683e 2229 63bd c272 82bd 7697 b33c
00000090: b821 ddbe d820 b83e 1bca 81bd b606 603e
000000a0: 9b7c c0bd 947f 943d d260 cabb 1afa 19bc
000000b0: 05cd 68bd a0c0 243f 1f04 12bc 333e 9b3b
000000c0: ba95 1f3d 5df8 a3be 659e 663d ac8d f5bd
000000d0: c7ff 813e 1be6 b8be a9e6 56bd b5aa 533e
000000e0: 8089 b03d a05a cebb a6f5 8cbc df67 90be
000000f0: f393 12bd 66a6 d3be 525c f33c 3a0e babe
00000100: d619 9dbd 53b9 203e dc06 83be e119 03bd
00000110: 3bec 99be 7d83 f0bc f7f2 0bbd 3c98 d63e
00000120: 7584 5bbd 452e 53bd 55db adbd 11ac f8bd
00000130: 2503 b43c 02fe 73be e82b e7bd 2c8b e83d
00000140: af53 c33d 3117 b93e 3eca b2be 3c80 593c
00000150: 6eae 523d 0697 0abe bade 63bd 41ca e0be
00000160: 0117 f53e ff05 18bd ac6a 023c ffd6 9cbe
00000170: 1a98 cbbe c99d 973c 3a7a c33e 83d8 55bd
00000180: 044a 433e 2a13 9d3d d9ed b23d 4a24 c03e
00000190: 5c6e cabe 40f0 463d 4f58 08bf b12e 233d
000001a0: 5d00 07be 38ad 6c3d afbc 293d 74bc c53e
000001b0: 4734 cc3e 995f a3bd 8635 cabe a348 a5bd
000001c0: 1d6f 7f3c c709 e93d aacb c7be 6f0d ef3d
000001d0: 7914 9d3d 58a1 943a 8265 0b3f ae81 173e
000001e0: 786c b43d f3cf 0d3c 80a6 c23c 1d0d a7bd
000001f0: 2e9b 363c 5532 bebe cdbf 923d da1b 3e3d
00000200: caaf 823d 39c3 34bd 58a8 f83e f79b 77bd
00000210: fc1d 90bf 7f21 893e a758 b4be f17c 9f3e
00000220: ad15 a03d 6693 fd3e bfa7 60bf 012f 56be
00000230: c75c 38bc fbf1 0a3e d71d b8be e401 6b3e
00000240: c198 b93d 98ab 9abc 6836 3fbe 9ff9 a03d
00000250: 06e2 a23e d97b b9bd 756a a93d 1408 4c3e
00000260: b2a5 1ebd 5766 cb3d 299c ad3e d7ae 133c
00000270: ecf5 973e a75f 0bbf 4c74 723d 9658 a43d
00000280: 50cb 81be 0b28 013f abf4 a7be 2898 f03c
00000290: df43 f4be 1f32 5a3e 07d5 933e 1a31 5b3d
000002a0: a10a b63c 6d7c 61bc 3693 26bf 3eac 763d
000002b0: aabc a33e cb8f 673e 6c22 6a3e b580 b7bd
000002c0: df28 403f 2ddc 9d3e 5f4f 003f 0518 053e
000002d0: 5f1d 1f3f f660 6f3d be8d 063e 7c20 e33d
000002e0: b33a fe3e 9ab2 ab3d d50e 833e 6028 2e3d
000002f0: e64f 9f3e 9917 d1be 8838 8fbe 2e4c fa3e
00000300: 47fa d33c 618e babe 68fd 703e 99ba f33c
00000310: 51f2 ab3e 1002 543d bc9e 913d fd87 a6bd
00000320: 2402 933d 297c 063d 6108 8d3d 4210 4b3f
00000330: 9020 e93e 2e64 5d3a f125 2c3f 7d4b 8dbf
00000340: 34a8 2dbe 0acc 8f3e dc95 253f c68e 203d
00000350: a9fe 0a3f 4296 843e 088e 8fbe bffb ad3d
00000360: 2e05 e4bf 8aab d4bd c35d b5bc d458 26bf
00000370: c99d 813d 7db4 023d e76a 51be 3f94 023d
00000380: 0f6d 153f 12e7 f03e 51df d23c aa58 133f
00000390: de24 cd3c f7ac a4bd 3312 1a3b d4e4 7e3c
000003a0: e800 2d3e 5c35 983f b274 a5bd cd38 f23e
000003b0: 9b52 18bd 6572 9b3e 9b7c b43d 9b63 1cbe
000003c0: 8cbe b1bd 0e06 cd3c f626 6a3d 7bd0 09be
000003d0: 4540 e43c 4244 383d 4ae7 633c e543 a23e
000003e0: da7f 16bd 2107 df3c edbe 963e 9719 e03d
000003f0: d05d 8a3e a51d 343d 7fae 2abd fbac 82bf
0.122339144 0.106198706 -0.47456583 -0.043561436 -0.054697525 0.44899133 0.08674022 -0.71836275
0.43147758 -0.1957493 -0.40969205 0.091285616 -0.47170237 0.084847696 0.00059484394 -0.06724277
0.1381687 -0.35752597 -0.40218973 0.020754354 -0.015510299 -0.05681006 0.014707665 0.3608349
-0.38560998 0.019652631 0.04963098 0.042854954 0.13310778 -0.21592723 0.0035473583 0.026351426
0.22671267 -0.05545915 -0.063695446 0.021922808 -0.43189788 0.35962558 -0.06337377 0.2187756
-0.093987666 0.07250896 -0.0061760927 -0.009398008 -0.056836147 0.6435642 -0.008912115 0.0047376393
0.03896115 -0.32025424 0.0563034 -0.119899124 0.25390455 -0.36113057 -0.05246607 0.20670588
0.08619976 -0.0062974244 -0.017206978 -0.28204247 -0.035785627 -0.4133789 0.029707108 -0.3633898
-0.076709434 0.15695696 -0.2559117 -0.032007102 -0.30063042 -0.029359573 -0.034167256 0.4191302
-0.053593118 -0.051557798 -0.084891 -0.12142194 0.021974156 -0.23827365 -0.11287671 0.1135467
0.09537446 0.36150506 -0.34919924 0.013275202 0.05143588 -0.13534173 -0.05563233 -0.43904307
0.47869113 -0.037115093 0.007960003 -0.3063278 -0.39764482 0.018507855 0.3817919 -0.052208435
0.19071203 0.07669671 0.08736772 0.37527686 -0.39537323 0.048568964 -0.5325975 0.03983945
-0.13183732 0.05778238 0.04143971 0.3862034 0.39883634 -0.07977218 -0.3949396 -0.08070495
0.015590456 0.11378818 -0.3902257 0.11672484 0.076699205 0.0011339588 0.54451764 0.14795563
0.08809751 0.008655536 0.023761034 -0.08156798 0.011145396 -0.37147775 0.07165489 0.04641328
0.06381185 -0.04413149 0.48565936 -0.060451474 -1.125915 0.26783368 -0.35223886 0.3115001
0.07816634 0.4952652 -0.8775596 -0.20916368 -0.011252589 0.1356887 -0.35960266 0.2294994
0.090623386 -0.01888065 -0.18673098 0.078601114 0.31813067 -0.09056825 0.08272258 0.19924957
-0.038732238 0.09931629 0.33908203 0.009013853 0.2967981 -0.5444283 0.05919294 0.08024709
-0.25350428 0.50451726 -0.32803854 0.029369429 -0.47708032 0.21308182 0.28873464 0.053513624
0.022221865 -0.013762576 -0.65068376 0.060222857 0.31979877 0.22613446 0.22864693 -0.08960096
0.75062364 0.30832043 0.5012111 0.12997444 0.6215419 0.05844208 0.13140008 0.1109018
0.4965416 0.08383675 0.25597253 0.042518973 0.31115645 -0.40838316 -0.27972817 0.48886245
0.025876177 -0.3643675 0.23534167 0.029752063 0.3358331 0.05175978 0.07110354 -0.081314065
0.07178143 0.032833252 0.06886364 0.7932168 0.45532656 0.0008445409 0.67245394 -1.1038662
-0.16958696 0.28085357 0.6468179 0.03919866 0.5429483 0.25895888 -0.2803805 0.084952824
-1.7814081 -0.10384281 -0.022139436 -0.6497929 0.06328923 0.03191041 -0.20450936 0.03187966
0.58369535 0.47051293 0.025741251 0.57557166 0.025041994 -0.08040803 0.0023509383 0.015557487
0.16894877 1.1891284 -0.080788985 0.4730896 -0.037188154 0.30360714 0.08812829 -0.15272371
-0.08678922 0.025027301 0.057166062 -0.13458435 0.027862677 0.04498697 0.013910124 0.31692424
-0.036743023 0.027225079 0.2944254 0.10942381 0.27024698 0.043973584 -0.04167032 -1.020904

layers.2.bias f4 [3]
00000000: 4db3 1b3e 0c6d a03d 4eee ee3e
0.15205117 0.07833299 0.46666187
