Pb_policy_iteration/cart_pole_modified_env/reproduce_FHCP_results/original_algo/models/CartPole_10_3_100_0.05_pbpi_model.pt (torch, 2963 bytes, 4 tensors)

layers.0.weight f4 [50, 2]
0	0x3dfe994b	0.12431582
1	0xbeafd798	-0.34344172
2	0x3bb81822	0.005618111
3	0xbed92896	-0.42413777
4	0xbf28357c	-0.6570661
5	0x3e8ffa43	0.28120622
6	0xbf004615	-0.50106937
7	0xbf004b5f	-0.5011501
8	0x3ef0d0c5	0.4703428
9	0x3e808da7	0.25108072
10	0x3e8e5b6a	0.27804118
11	0xbe90212e	-0.28150314
12	0xbd729b8d	-0.059230376
13	0xbe20fbbf	-0.15721034
14	0x3f314b00	0.69255066
15	0x3eef8720	0.4678278
16	0x3dc12d29	0.09432442
17	0x3ebf6b00	0.37386322
18	0x3f2eebef	0.68328756
19	0xbc40f7e4	-0.011777852
20	0x3df6c6ef	0.12049662
21	0x3e955ce8	0.29172444
22	0xbdb8b3f9	-0.09018702
23	0xbd5a3720	-0.053275228
24	0x3f318e7b	0.6935803
25	0x3e0a0ae3	0.13480715
26	0xbd82d3db	-0.063880645
27	0xbf00fe50	-0.5038805
28	0x3f26ae82	0.6511003
29	0x3ede3712	0.4340139
30	0xbeb25541	-0.3483067
31	0x3cf0d4ba	0.02939831
32	0x3e681de4	0.22667652
33	0xbdf683ae	-0.12036835
34	0xbda143ac	-0.078742355
35	0x3ea05b85	0.31319824
36	0x3cccca97	0.024998946
37	0xbc06a606	-0.008218294
38	0xbf2f526c	-0.6848514
39	0x3eb012c8	0.3438933
40	0xbe89b90c	-0.26898992
41	0x3f1bcdaa	0.60860693
42	0x3e1b27e6	0.15151939
43	0xbec6ddec	-0.38841188
44	0x3e7716bc	0.24129766
45	0xbc07a5b5	-0.008279254
46	0x3f52740f	0.8220834
47	0x3c806371	0.015672417
48	0xbf1bc535	-0.6084779
49	0x3edea866	0.43487853
50	0xbe98210b	-0.2971271
51	0x3e577a35	0.21042712
52	0x3e2b0a7a	0.16703215
53	0x3ef4d37a	0.47817594
54	0xbe5bb4f0	-0.21455741
55	0xbdff6eb9	-0.124722905
56	0x3ebb9958	0.3664043
57	0xbe88ddd9	-0.26731756
58	0x3d80d1d8	0.062900245
59	0x3ed3efde	0.41393942
60	0x3f4252c1	0.7590752
61	0xbd6a9a18	-0.05727586
62	0xbf43a2d3	-0.76420325
63	0x3efb1f41	0.49047282
64	0x3ee3700f	0.4442143
65	0x3f1f015c	0.6211145
66	0x3f23bae8	0.6395707
67	0xbe1514db	-0.14558737
68	0x3d00b806	0.0314255
69	0x3f2ae17c	0.6675031
70	0x3eba977c	0.36443698
71	0x3ee389af	0.44440982
72	0xbf3064ee	-0.68904006
73	0x3e94d779	0.29070643
74	0xbf35a303	-0.7095186
75	0x3ed3c3f7	0.41360447
76	0xbed60215	-0.41798463
77	0x3ef7abdf	0.48373315
78	0x3f0941bf	0.53615946
79	0x3ca3c019	0.01998906
80	0xbd230c8b	-0.039806884
81	0xbc9147be	-0.017734405
82	0x3efdbd7e	0.49558634
83	0x3f152d9f	0.5827274
84	0x3f23f26a	0.6404177
85	0x3eb60661	0.35551742
86	0x3d3dd4a3	0.046345364
87	0xbebb7074	-0.36609232
88	0xbe6841c4	-0.22681338
89	0xbebf9424	-0.3741771
90	0x3c812d66	0.015768718
91	0xbdfd482a	-0.1236728
92	0xbf2d8137	-0.6777529
93	0xbf23c030	-0.6396513
94	0xbe602856	-0.21890387
95	0x3f07e6ab	0.53086346
96	0xbddf0f2b	-0.10891565
97	0x3ebdbb26	0.37056845
98	0x3e695894	0.22787696
99	0x3e8b79fc	0.27241504

layers.0.bias f4 [50]
0	0x3edd0d70	0.43174314
1	0xbed12a58	-0.40852618
2	0xbeaded02	-0.33969885
3	0xbf0b3052	-0.54370606
4	0x3ebf468d	0.37358513
5	0x3d642d97	0.05570754
6	0xbdd46b5e	-0.10372041
7	0xbf1c58d3	-0.61073035
8	0xbeddec0c	-0.43344152
9	0xbf183c95	-0.5946744
10	0xbeef12f6	-0.46694154
11	0x3d83337d	0.06406305
12	0x3f04293f	0.51625437
13	0xbf150d42	-0.58223355
14	0xbf289658	-0.65854406
15	0xbf2c3f47	-0.67284054
16	0xbd7d3d01	-0.061825756
17	0x3e797a7e	0.24363133
18	0x3f21e9a3	0.63247126
19	0x3ede02ce	0.43361515
20	0xbc13e985	-0.009027843
21	0x3d38bddf	0.04510295
22	0x3f0e19ea	0.5550829
23	0x3dd86247	0.1056562
24	0xbee5b77a	-0.44866544
25	0x3e3ef5da	0.18648472
26	0xbf2a45fa	-0.66513026
27	0x3e46ece9	0.19426312
28	0x3e64ed03	0.22356038
29	0xbf2151dd	-0.6301554
30	0x3df7df0f	0.12103092
31	0x3f124803	0.5714113
32	0x3de3300a	0.11093147
33	0x3ef93b28	0.48677945
34	0xbe463fb0	-0.19360232
35	0xbd4a502b	-0.04939286
36	0xbecbfbff	-0.39840695
37	0x3f0bbbd2	0.54583466
38	0xbecf1441	-0.4044514
39	0x3e189a0c	0.14902514
40	0x3f0aef6a	0.54271567
41	0xbe1aff89	-0.15136541
42	0x3ea0e9fc	0.31428516
43	0x3f07ed09	0.5309606
44	0x3e9676a9	0.29387406
45	0xbd0eba96	-0.03484591
46	0xbef99525	-0.487466
47	0x3f1686ab	0.58799237
48	0x3f10b394	0.56524014
49	0xbe9de384	-0.30837643

layers.2.weight f4 [3, 50]
0	0x3df94a38	0.12172359
1	0xbdea45cc	-0.11439094
2	0x3e0fbb7c	0.14036363
3	0xbc71dae9	-0.014761665
4	0xbe4629ea	-0.19351926
5	0x3e057b7e	0.1303539
6	0x3da18c00	0.07888031
7	0x3d3a3ae6	0.045466326
8	0x3dc65b98	0.09685439
9	0xbd9bf830	-0.076156974
10	0xbd608723	-0.054816376
11	0xbd44b99b	-0.04802857
12	0xbe5d2a2f	-0.21598123
13	0xbd9bbfa4	-0.07604912
14	0xbe00da3b	-0.12583248
15	0x3d9f2232	0.07770194
16	0xbd2e4050	-0.042541802
17	0x3d3d6612	0.04623992
18	0x3df57307	0.1198483
19	0x3eb9ef64	0.36315453
20	0xbe00bf81	-0.12573053
21	0xbb9fa757	-0.0048722434
22	0xbdaf4601	-0.08558274
23	0xbe926bbd	-0.28597823
24	0x3cc403cb	0.02392759
25	0x3dd408b9	0.10353226
26	0x3da0b3f5	0.07846824
27	0x3e280939	0.16409768
28	0xbde9e94d	-0.11421452
29	0x3dd2e6b3	0.10297909
30	0xbeb4a6fe	-0.35283655
31	0x3e959af0	0.2921977
32	0xbed2961b	-0.41130146
33	0xbd9f0075	-0.07763759
34	0xbdf930dc	-0.12167522
35	0xbe2c16f0	-0.16805625
36	0x3c4531b8	0.01203578
37	0x3ecc884f	0.39947745
38	0x3de6747e	0.11252688
39	0xbe913d8c	-0.2836727
40	0x3d365869	0.04451791
41	0xbea75d65	-0.32688442
42	0xbea3c19f	-0.3198366
43	0x3e2a0cb6	0.16606411
44	0x3e6e6857	0.2328199
45	0xbde029ae	-0.1094545
46	0xbcfb8770	-0.03070423
47	0x3d497b6f	0.04918998
48	0x3b2b2042	0.0026111756
49	0x3db877d7	0.09007233
50	0xbd462dd1	-0.048383538
51	0x3db1970a	0.086713865
52	0x3e0d7ce7	0.13817178
53	0x3d781478	0.060566396
54	0x3d6bcbcd	0.057567406
55	0x3d5c86ac	0.05383937
56	0x3d421950	0.04738742
57	0xbbbb56b1	-0.0057171215
58	0xbdce082b	-0.10060152
59	0xbd901eea	-0.070371464
60	0x3d34fa57	0.044184055
61	0xbd2347ce	-0.0398634
62	0x3e25b5d6	0.16182646
63	0xbd5f35a7	-0.054494526
64	0xbe07044d	-0.13185234
65	0x3dc0187f	0.09379672
66	0xbe0e9480	-0.13923836
67	0xbd37ab5a	-0.044841148
68	0x3dc73c21	0.097282656
69	0x3b84d026	0.0040531335
70	0x3e04b9df	0.12961529
71	0x3ddfd220	0.1092875
72	0x3db994dd	0.090615965
73	0x3e895405	0.26821914
74	0x3cb0a6e5	0.021563957
75	0xbd4b549a	-0.04964123
76	0x3e047811	0.12936427
77	0x3db12ded	0.08651338
78	0x3d6ac3c0	0.057315588
79	0xbe043638	-0.12911308
80	0x3e73075e	0.23733279
81	0xbe368498	-0.17824018
82	0x3e4238bb	0.18966953
83	0x3d6ae43c	0.057346568
84	0x3d9a74df	0.07541823
85	0x3c208586	0.0097974595
86	0x3e07b758	0.13253534
87	0xbd9261d9	-0.07147569
88	0xbdc32957	-0.09529369
89	0x3dc4301a	0.09579487
90	0x3df6b297	0.12045782
91	0x3dc6fa9c	0.09715769
92	0x3db38364	0.08765295
93	0xbd3ee56d	-0.046605516
94	0xbe03e493	-0.12880163
95	0xbdaa28c4	-0.08308557
96	0xbd9f3c3a	-0.07775159
97	0x3e2a3f55	0.16625722
98	0x3ce50765	0.027957628
99	0x3d26a2e4	0.04068269
100	0x3d9e984f	0.07743894
101	0xbd3ec974	-0.04657884
102	0x3d8875a4	0.06663063
103	0xbdecfd1e	-0.11571716
104	0x3e73319f	0.23749398
105	0xbd06c26c	-0.03290026
106	0xbdc12097	-0.09430044
107	0x3dd1ffaf	0.10253846
108	0xbe0841e1	-0.13306381
109	0xba9f1cf1	-0.0012139363
110	0xbe0d8073	-0.1381853
111	0xbd3afd54	-0.04565175
112	0x3dc121b7	0.09430259
113	0xbddc864b	-0.10767802
114	0xbdc8f561	-0.09812427
115	0x3d7fcbc6	0.062450193
116	0xbdf88b44	-0.12135938
117	0x3c094054	0.008377153
118	0xbcdcf9f9	-0.026974665
119	0xbe0af259	-0.13569011
120	0x3da36b07	0.07979398
121	0x3d82f678	0.063946664
122	0xbd3eccf1	-0.046582166
123	0x3e900f49	0.28136662
124	0xbd6e1c5d	-0.058132518
125	0xbde821ac	-0.113345474
126	0xbd74dea6	-0.059782647
127	0xbe24e9cb	-0.1610481
128	0xbcd15a43	-0.025555735
129	0x3e03f2b7	0.12885557
130	0x3dbb9fcd	0.09161339
131	0xbdba7f25	-0.09106282
132	0x3e0558c7	0.13022147
133	0x3e837bd7	0.2568042
134	0x3dee24ca	0.11628111
135	0x3e33eaa2	0.17569974
136	0xbe084979	-0.13309278
137	0xbe48dd7f	-0.19615744
138	0xbdc00dad	-0.093776084
139	0x3e4e68e9	0.20157208
140	0x3c8a7980	0.016903639
141	0x3dc2e9dd	0.09517262
142	0x3e22e298	0.15906751
143	0x3d27f5dd	0.041005958
144	0xbd994457	-0.07483738
145	0xbd018217	-0.031618204
146	0x3df9f6fe	0.12205313
147	0xbc953a4b	-0.018216273
148	0xbde4ff10	-0.11181462
149	0xbdc8b7e9	-0.09800703

layers.2.bias f4 [3]
0	0x3e814e74	0.25255167
1	0x3d950d57	0.07277935
2	0xbde2d594	-0.11075893
