Pb_policy_iteration/cart_pole_modified_env/reproduce_FHCP_results/original_algo/models/CartPole_50_3_50_0.05_pbpi_model.pt (torch, 4115 bytes, 4 tensors)

layers.0.weight f4 [100, 2]
000000 8a 5e 48 bf 58 83 81 3e f3 73 e0 be 9c b9 1e bf
       -0.78269255 0.2529552 -0.43838462 -0.6200197
000010 c0 12 b3 3e d1 fb 62 be 8e 79 45 be 59 4e c5 3d
       0.34975243 -0.22166373 -0.1928465 0.09634084
000020 be 6d 21 3f 11 66 1c be 5a fc 4b be 2e 93 85 be
       0.6305808 -0.1527331 -0.19920483 -0.26088852
000030 18 39 1f 3f b1 83 d1 3d d7 a7 4c 3e 92 d6 0f 3f
       0.62196493 0.10230196 0.19985901 0.56186783
000040 f7 e9 71 3d d0 af e0 3e 05 94 84 3f 4b b7 f7 3e
       0.059061017 0.43884134 1.0357672 0.4838203
000050 bb 68 ed 3d d0 aa c7 be 0b 37 0a be 08 4f d8 bd
       0.115922414 -0.38997507 -0.1349756 -0.10561949
000060 d1 a8 0e bf 42 57 15 bf 6f 90 cc 3e d6 9a 7f 3f
       -0.55726343 -0.5833627 0.39953944 0.99845636
000070 59 9f dc 3e b2 b0 f8 be 0e 43 30 bf 13 48 83 3e
       0.43090323 -0.48572308 -0.6885232 0.25640926
000080 b6 18 aa be 3b 19 7c bf 47 5d 23 3f 50 9e 0c 3f
       -0.33221978 -0.98476 0.63814205 0.54929066
000090 53 7e a1 3e 3d 1a 91 be 84 d9 11 bf b9 ad 13 be
       0.3154169 -0.2834033 -0.5697253 -0.14421739
0000a0 ec 0f 47 3e 21 3f 79 3f 9e cd 2f be 18 36 fc 3e
       0.19439667 0.9736195 -0.1716828 0.4926002
0000b0 c0 61 a5 be 44 e1 0b 3e b9 00 2d 3e 71 c3 c6 be
       -0.3230114 0.13660151 0.16894807 -0.38820985
0000c0 41 84 93 bf 94 24 e4 be 4d 3e 27 3f 2e 9b 13 3f
       -1.1524736 -0.44559157 0.6532944 0.5765866
0000d0 98 9d 02 3f 40 72 1f be 44 a5 26 bf 99 63 ef 3e
       0.5102172 -0.15570927 -0.65095925 0.46755674
0000e0 79 a4 0d 3d 45 fb f0 3c ea 0e 25 bf 87 f4 15 bd
       0.03458068 0.02941669 -0.6447588 -0.036610153
0000f0 14 b8 2c 3f 5c eb 86 be 6d 4f 27 bf 38 8c c6 bd
       0.6746838 -0.2635144 -0.6535557 -0.09694713
000100 2c 9a b4 bd 31 0e 0e bf 65 5c 2f 3f e6 b6 bb bd
       -0.088184685 -0.55490404 0.6850036 -0.091657445
000110 f3 22 18 be 26 b3 84 be ae 73 34 be 51 8d 65 bf
       -0.14857082 -0.2591793 -0.17622253 -0.89668757
000120 d6 f5 23 bf fe 01 81 be 55 f6 cf be 0d ad 76 bf
       -0.6404699 -0.25196832 -0.40617624 -0.96357805
000130 51 e2 b9 be 6c ad dd 3e 33 b8 7f 3e e6 4a 91 3d
       -0.36305478 0.43296373 0.2497261 0.07094364
000140 90 44 fe bd 11 c7 c2 3e 04 02 44 be e2 d9 e6 be
       -0.12415421 0.380425 -0.19141394 -0.45088106
000150 0a ee 2f 3e 88 4b a3 bc 2f d0 92 be 6e 48 82 3e
       0.17180648 -0.019933477 -0.28674456 0.25445884
000160 86 df 3a be 30 00 17 bf 95 50 20 3f 46 ac 7b be
       -0.1824933 -0.5898466 0.6262296 -0.24577436
000170 5c 48 1a be 72 60 44 3e 2d c0 ee be d9 c5 1e be
       -0.15066665 0.19177416 -0.46630993 -0.1550516
000180 0e 78 95 bf fc de 65 bd dd 1e 19 3f 86 4a 49 3e
       -1.1677263 -0.056120858 0.5981272 0.19657335
000190 38 da 9c be ca eb 07 bf 6e 65 f0 be 4f d0 20 be
       -0.30635238 -0.5309416 -0.46952385 -0.15704463
0001a0 c6 25 d8 bd dc 1c 19 3e de 3d 09 bf 25 76 0a 3e
       -0.1055408 0.14952415 -0.53610027 0.13521631
0001b0 9f 1b 99 be 14 53 ae be 54 3b 1d 3f d9 49 f6 be
       -0.29903886 -0.3404776 0.6141865 -0.48103216
0001c0 8e 3a 75 3e 56 00 7a 3e 48 94 b8 be b1 45 6b be
       0.23948118 0.2441419 -0.3605063 -0.22975804
0001d0 3c 18 23 bf 81 ab 48 bf 74 c9 ff 3d 7e a8 bd be
       -0.63708854 -0.78386694 0.12489596 -0.37042612
0001e0 50 ee 9a bf 70 8d 38 bf 64 d4 12 3e 5e 6e fd be
       -1.2103977 -0.72090816 0.14338833 -0.49498266
0001f0 99 ef 32 bf dd b1 32 bf a1 ec 89 3e e6 47 c3 be
       -0.69896847 -0.6980265 0.26938346 -0.38140792
000200 8f 46 09 3f 6b ac 10 3e 73 1e a4 bf f0 44 01 bf
       0.5362329 0.14128272 -1.2821792 -0.50495815
000210 0c a5 63 be 74 fe 55 be 99 ed 2b bd ad 97 39 3e
       -0.22230929 -0.20897847 -0.041974638 0.18124266
000220 0a 5c 6e be 6f 13 07 bf 0f cc 1f bf e3 df 25 bf
       -0.23277298 -0.5276403 -0.62420744 -0.6479475
000230 5e 71 44 be ef ec b2 3e 8d af 31 bf 37 45 32 bf
       -0.19183871 0.3494639 -0.69408494 -0.69636863
000240 5b b9 0c 3f 2c ac b3 3e f0 61 fb be 87 3f 43 3f
       0.5497033 0.35092294 -0.49098158 0.7626881
000250 4e 9c 2f 3f 47 ad b2 bd 09 c8 4d 3d c5 d4 c4 3e
       0.6859788 -0.08724456 0.050239597 0.3844358
000260 eb 3d 30 3f ac a2 8e bc 64 73 26 3e 82 35 b9 be
       0.6884448 -0.017411552 0.16254956 -0.36173636
000270 f0 96 31 bf 75 83 97 3e f8 ed 07 bf a7 9e 22 bf
       -0.6937094 0.2959248 -0.53097486 -0.63523334
000280 e5 80 94 be 42 5b e8 bd b2 28 82 be ca 65 04 3e
       -0.2900459 -0.11345531 -0.25421673 0.12929454
000290 1b 1f 48 be 10 a8 c1 be 10 4b 14 3f 18 8f b2 3c
       -0.19543116 -0.37823534 0.57927036 0.021796748
0002a0 be 43 23 bf e8 ff 53 3e d2 6d b9 be 01 1e 19 3f
       -0.6377524 0.20703089 -0.362166 0.5981141
0002b0 ac 52 a3 be 92 54 e9 bd 97 8e d6 3e 38 8f f1 be
       -0.3189901 -0.11393084 0.41905662 -0.4717958
0002c0 25 69 df be 36 c4 1f be 8f 58 0e 3f f8 f3 8d 3e
       -0.43634906 -0.15602192 0.5560388 0.27725196
0002d0 2a 79 f8 3e 7e 22 d0 3e 1c 28 e6 be 41 3b b4 be
       0.4852994 0.40651315 -0.44952476 -0.35201457
0002e0 3a fc ed 3c f4 9f 5c bf f4 31 1f 3f e8 87 46 3d
       0.029050935 -0.8618157 0.621856 0.048469454
0002f0 f5 2c 19 bf bd 0e 70 be 2d d5 85 bd b5 cb a4 3e
       -0.59834224 -0.23443122 -0.06534801 0.32186666
000300 24 c1 4d bf e5 a1 54 3f 20 f9 08 be b6 d3 31 3f
       -0.80372834 0.8305953 -0.13376284 0.6946367
000310 2c 4e 10 3f 94 f0 d0 3e ec 50 af be 58 3f 90 3e
       0.5636928 0.40808547 -0.34241426 0.28173327

layers.0.bias f4 [100]
000000 70 97 8a 3d 61 44 f1 3e 2f 0b 1c bf d7 af 4d 3e
       0.06767166 0.4712248 -0.60954565 0.20086609
000010 c9 5c 33 bf 91 5b 4b 3e b8 08 b5 3c ce 84 11 bf
       -0.70063454 0.19859149 0.022098884 -0.5684327
000020 ab dc fd 3d 87 21 f4 bc af a9 e9 be ba 16 11 3e
       0.12395605 -0.029801143 -0.4563727 0.14168826
000030 e3 00 5d be 9d 00 a4 be ea 77 bd be 69 0c 47 3e
       -0.2158237 -0.32031718 -0.3700555 0.19438328
000040 31 b5 e6 3e d5 c7 83 bd 2a c0 81 3e 2a 14 c1 be
       0.45060113 -0.06434599 0.25341922 -0.37710696
000050 fb 2d e6 be 49 17 38 3e 79 84 bb be 90 34 7c be
       -0.44956955 0.17977633 -0.36624506 -0.24629426
000060 ee a6 71 3d 57 db 1c bf a5 25 25 3e 84 31 1b bf
       0.058997087 -0.61272186 0.16127641 -0.6062243
000070 74 7d 15 3e fe 1f 16 3e 2b 88 17 3e a3 de 67 3e
       0.14598638 0.14660642 0.14798038 0.22643523
000080 88 99 c9 be 0f 34 23 3e 98 ca 47 3e dd 08 d2 3e
       -0.39374948 0.15937828 0.19510877 0.41022387
000090 6a 94 d1 be af 73 9a 3e fd 58 4d 3e b9 cd b2 3d
       -0.40933543 0.30166385 0.20053478 0.08730645
0000a0 59 e4 e5 be ad f2 84 bd 90 d3 16 bf f3 7a 45 3e
       -0.44900778 -0.06491599 -0.5891657 0.19285183
0000b0 d3 4e 30 bf 63 44 88 3e 76 7a 2b bf 82 f6 08 bf
       -0.68870276 0.26614675 -0.66983736 -0.5350114
0000c0 33 09 6a bb a0 cb 68 3d 53 0e 13 bf 2d cb 17 3e
       -0.003571105 0.056834817 -0.5744373 0.14823599
0000d0 6a 97 2a 3e 5d 7b 0b bf 24 4a a9 3e 54 01 1c bf
       0.16659322 -0.5448511 0.33064377 -0.60939527
0000e0 11 b2 9b be 88 e2 f7 bd d9 78 06 be f5 6e 08 be
       -0.3040929 -0.12103754 -0.13132037 -0.13323577
0000f0 3a 89 98 3e a6 44 fe be 17 48 ae 3e 2d 91 9f be
       0.29792196 -0.4966175 0.34039375 -0.31165448
000100 18 69 22 bf 72 f5 84 3d 64 39 20 bf 0c 86 e6 3d
       -0.6344161 0.064921275 -0.6258757 0.11256036
000110 ca a7 c7 3e 32 93 a1 3e cf 1d 2a bf 9b 1c 6e 3e
       0.389952 0.31557614 -0.66451734 0.232531
000120 be a8 fd 3d c7 b0 64 be 5d 57 1c 3e a5 b9 e1 3d
       0.12385701 -0.2233306 0.15267701 0.11021737
000130 b9 f9 c6 be 14 44 7b 3e 51 a2 0a 3e df 72 0f 3d
       -0.38862398 0.24537688 0.13538481 0.03502166
000140 b5 4d 13 3e fd 7a a0 3d 96 41 f8 3d a0 d5 0e 3e
       0.14385112 0.07835958 0.121218845 0.13948679
000150 d1 16 2e bf cc f7 04 bf 8b 43 87 be b5 f9 f4 be
       -0.68003565 -0.5194061 -0.2641872 -0.4784676
000160 90 e9 90 3e 69 22 e1 3d 74 de 48 bd 62 3a bc be
       0.28303194 0.10992891 -0.049040273 -0.36763293
000170 b3 b5 84 3e cd 55 15 3e 0f e8 98 3e e1 8b e0 3d
       0.25919876 0.14583512 0.29864547 0.1096418
000180 fd fb 23 3e 55 cb 70 3e b8 0c 15 3e 4e a4 27 3e
       0.16014095 0.23515065 0.14555633 0.16371271

layers.2.weight f4 [3, 100]
000000 fc 07 28 3e 2c 9e 34 ba 42 b8 c3 bb 0c a3 57 3d
       0.16409296 -0.00068900245 -0.005972893 0.052645728
000010 ec 98 46 bd cc 18 37 bd db d8 92 3e 77 a7 b8 bd
       -0.04848568 -0.044701383 0.28681073 -0.090163164
000020 f4 28 8d be 57 61 16 bf 2b af 38 3d 82 11 88 3c
       -0.27570307 -0.5874228 0.04508893 0.01660991
000030 b8 d4 3d 3d 05 0a c4 3e 57 23 56 bd c7 75 2c bd
       0.046345443 0.38288894 -0.052279796 -0.04210451
000040 25 00 0f 3e c0 2f 64 be 84 a4 29 3d 59 3a 5b bc
       0.13964899 -0.2228384 0.04141666 -0.01338061
000050 c4 36 f9 3d 4f 9c 81 be ef 16 a5 3c 30 1e 6d 3c
       0.12168649 -0.25314566 0.020152537 0.014472529
000060 31 c2 3c bf ea 4d 15 bd b5 00 78 3d 0f db a4 bd
       -0.7373381 -0.036451258 0.06054755 -0.080495946
000070 1d 1a 8b 3c 61 22 31 bd cd 41 23 bc 1f ae 6d 3d
       0.016980225 -0.043245677 -0.009964419 0.058027383
000080 bc 33 82 3d d4 e4 04 3d ce 7e af 3d 39 cf 1d 3e
       0.06357524 0.03244479 0.08569108 0.1541108
000090 e1 68 83 bc 33 ed ba 3e 51 33 3e bd 64 15 7b bd
       -0.016041221 0.36509094 -0.046435658 -0.061299697
0000a0 6f 77 89 3d ac 34 00 be 6f 2b 15 bd 10 eb 5f bd
       0.06712233 -0.12520093 -0.036418375 -0.054667532
0000b0 43 de 4f bd f8 2a e9 3d ec 3e 9c bc 6c 93 c4 3b
       -0.050749075 0.11385149 -0.019072972 0.0059990194
0000c0 e3 b4 02 3f d0 ba 6f 3e e0 83 d9 bb 47 b7 6f bd
       0.5105726 0.23411107 -0.006638035 -0.058524396
0000d0 1b 53 0d bc 04 18 b3 3d 77 8b b3 bd 13 a4 7a 3d
       -0.008625771 0.08744815 -0.08766835 0.06119163
0000e0 d1 91 5e bc b7 a3 be 3c 39 15 e8 be 42 ab 1b be
       -0.01358457 0.023271425 -0.45328692 -0.15202048
0000f0 c1 ab 20 3f a6 2e 14 3d 9c 43 82 3d 64 b9 a3 bd
       0.62762076 0.0361773 0.06360552 -0.07994345
000100 e8 55 96 3d 83 2a 3a bf 61 3e ab 3d 77 d8 fb 3c
       0.07340604 -0.7272112 0.08361507 0.030742867
000110 95 07 74 3c 65 1b da 3d f4 38 75 bd 44 cb 00 3f
       0.014894386 0.10649756 -0.059868768 0.5031016
000120 d3 1e cd 3d 17 73 6a be 80 6d f0 bc 09 5d 8b bd
       0.10015645 -0.22895466 -0.029349089 -0.068048544
000130 04 ec 8a bc 81 df 77 3d 97 fc e5 3e c8 69 69 be
       -0.016958244 0.060515884 0.44919273 -0.22794259
000140 a7 92 a3 bd 92 b0 95 3d 4f 61 ba 3d 2c 63 6c bc
       -0.07986956 0.07309069 0.091005914 -0.014427941
000150 33 38 b7 bd 20 70 b2 bd 55 06 33 bd 58 70 c6 bd
       -0.08946266 -0.087127924 -0.04370721 -0.096893966
000160 91 6d a4 bc ca 6c 52 3d 86 2e 42 be f5 6a 14 bc
       -0.020071777 0.05137328 -0.1896306 -0.009058704
000170 7c 30 aa bd 29 cb fd 3c b3 99 80 bd 4a dc c0 bc
       -0.08310029 0.030980663 -0.06279316 -0.023542542
000180 c4 a3 47 3f 4b d0 bf be ea 08 39 3e f5 6e 19 3c
       0.7798426 -0.37463602 0.18069807 0.009364833
000190 f1 8b a7 be fb bd 13 be c5 97 7b bc 1c 01 c2 3d
       -0.32723954 -0.1442794 -0.015356009 0.09472868
0001a0 eb d2 4d bd a7 b2 98 bd 81 4f 81 be fa 32 ac 3d
       -0.050249975 -0.0745595 -0.2525597 0.084081605
0001b0 f3 90 56 3e f5 52 5d 3e be 3b 9c bd a9 17 e6 3d
       0.20953731 0.21613677 -0.076285824 0.112349816
0001c0 38 88 5b be c9 1a 1c bf 28 f1 3b bd a0 b8 59 3e
       -0.21438682 -0.6097837 -0.04588428 0.21261835
0001d0 71 f5 00 3f 49 f3 12 3d aa 7f 44 3c 8d a9 da bc
       0.50374514 0.035876546 0.011993328 -0.026692176
0001e0 0a 50 ff 3e 9d 6e 7d 3e b5 19 91 3d f2 39 35 3c
       0.49865752 0.24749227 0.07084981 0.0110611785
0001f0 93 6c 3c 3e 2a 8c 5e bd 90 e3 b6 3c 31 a2 83 bd
       0.18400793 -0.05433289 0.022325307 -0.0642742
000200 09 a2 c3 3c 85 8a 84 3d 21 90 db bd 10 67 f1 3d
       0.023880975 0.06471733 -0.1072085 0.11787236
000210 3d c5 93 bd 24 d6 bf bc 6b 8c 43 3c ad 77 ad 3e
       -0.072153546 -0.02341754 0.011935334 0.33880368
000220 83 28 30 3d b6 32 35 bf b1 cc 78 3e e6 7d 71 3c
       0.043007385 -0.70780504 0.24296834 0.014739489
000230 1d 57 da 3c 43 16 96 bd e8 ba 6d 3d b9 48 1b 3e
       0.026652867 -0.07328465 0.058039576 0.1516446
000240 dd b6 16 3d a7 ff 39 3d 6a e8 3f 3c b1 d3 bb bd
       0.036795486 0.045409825 0.011713127 -0.09171236
000250 fa a7 34 bf ea c3 4a bd e0 89 f6 3b 5a 92 84 bd
       -0.7056881 -0.049503244 0.00752376 -0.06473227
000260 7f 6b ab 3d 34 75 85 3b 1d 22 bf 3d 1f fa c7 bd
       0.08370113 0.0040728096 0.093326785 -0.09764504
000270 0e 29 aa bd 75 77 46 3c 31 16 b0 3e 0a 14 da 3d
       -0.08308612 0.012113442 0.3439193 0.106483534
000280 06 a2 c3 3d d3 d3 5f bc e6 6a 94 3e 30 42 d0 bd
       0.09552388 -0.013661343 0.28987807 -0.10168874
000290 d3 c3 71 3d ba 9f 85 3d 91 ca 02 bd 98 28 6e 3c
       0.059024643 0.06524606 -0.031931464 0.0145360455
0002a0 6f dd d0 bc af c8 bb 3e ac 51 c3 3d db 04 02 bf
       -0.025496213 0.36676547 0.09537062 -0.5078866
0002b0 b5 5f 0d be e3 03 7c be d6 62 0a 3d 0b e6 7f 3e
       -0.1380604 -0.24610858 0.033785664 0.24990098
0002c0 1e 26 20 bd bf a6 b2 3b 8e 55 6d be e4 8c d8 3c
       -0.03909885 0.0054520066 -0.23177168 0.02643437
0002d0 5c 8e 72 3d e9 7f c9 3d 98 b3 a2 be 9b be 6a bd
       0.059217796 0.0983885 -0.31777644 -0.05731068
0002e0 c4 03 b7 bd 6b 57 4a bd db 47 ee 3c 0d 4e 18 bd
       -0.08936265 -0.049399775 0.029086998 -0.03718381
0002f0 92 a3 7d 3d 5d 31 e8 3c 69 4d 3a 3c f8 53 95 bc
       0.06192357 0.02834385 0.011370995 -0.018228516
000300 fe a6 d7 be 82 51 6f bd d3 09 01 3e 93 50 4d 3e
       -0.42119592 -0.05842734 0.12601404 0.20050268
000310 c4 c4 f7 be d6 3a 9f 3e 89 57 ed bd 03 69 be 3d
       -0.48392308 0.31099576 -0.11588962 0.09297373
000320 43 3f 03 3e f9 07 ed 3d c2 04 b4 bd c1 7b 91 3d
       0.12817101 0.11573786 -0.0878997 0.07103682
000330 49 f2 a2 3d ef 75 07 3d b4 5d d3 3b 4a 12 bb 3c
       0.079563685 0.033071455 0.0064503793 0.02283587
000340 dc e2 d0 3c 68 b5 c4 3e b9 13 cb bd e4 fb f7 3d
       0.0254988 0.38419652 -0.09915871 0.12108591
000350 f3 7d 5d ba 9a a2 78 3e 81 7b a1 bd 6f f3 04 3b
       -0.0008449249 0.24280778 -0.078848846 0.00202867
000360 45 85 0c bf 09 0a 68 3e 79 cb fc 3d a0 13 08 bd
       -0.54890853 0.22660078 0.12343497 -0.03322184
000370 eb 41 2d bf f3 04 03 3d f2 70 10 3d bb dc 79 bc
       -0.6767871 0.03198714 0.035263963 -0.01525038
000380 3d 6b 12 3f 00 e0 7d bd 8e 7f a1 3d 47 07 7d 3d
       0.5719488 -0.0619812 0.07885657 0.06177452
000390 59 95 59 bc f1 fb f4 bc cb 7a 39 3d e4 cf 98 3d
       -0.013280236 -0.029905291 0.04528312 0.07461527
0003a0 39 ab 39 bd 98 92 34 3d 54 1c ca 3d 65 ab 14 bf
       -0.045329306 0.044085115 0.098686844 -0.5807403
0003b0 8f c8 c5 bd 4b 7a 97 3e b4 07 7f 3d 71 fb eb 3c
       -0.09657394 0.2958549 0.062263206 0.02880642
0003c0 04 c1 52 3d 63 38 f1 3c cb 4f 9e bd 0a cd cf 3c
       0.051453605 0.029445833 -0.07730063 0.025366325
0003d0 4e 27 90 bd 21 7c 49 3e 0e f1 80 3c 53 ba 73 bd
       -0.07038747 0.19676258 0.015739944 -0.059503864
0003e0 28 02 32 3e 64 ff 6d 3d 9c bc 3e 3c 96 fb 09 bd
       0.17383635 0.058104888 0.011641648 -0.033687197
0003f0 27 f6 cd bc 25 26 e0 3c df 66 c6 3d 2b 36 97 3d
       -0.025141789 0.027361939 0.0968759 0.073833786

layers.2.bias f4 [3]
000000 f9 93 b0 bd 17 b7 2e 3e e2 8d 15 3e
       -0.086219735 0.1706203 0.14604905
