Pb_policy_iteration/cart_pole_modified_env/reproduce_FHCP_results/original_algo/models/CartPole_100_3_100_0.025_pbpi_model.pt (torch, 4115 bytes, 4 tensors)

layers.0.weight f4 [100, 2]
0	0xbe15f294	-0.14643317
1	0x3eaee9bd	0.34162703
2	0x3e008a24	0.12552696
3	0x3eb53cfe	0.35398096
4	0x3fc3438c	1.5254989
5	0x3f0bbb7f	0.5458297
6	0x3fed591f	1.8542823
7	0x3ecb0238	0.3965013
8	0xbf2413eb	-0.6409289
9	0xbe3ba93f	-0.18326281
10	0xbed6161f	-0.41813752
11	0x3e30610b	0.17224519
12	0x3f29c8d6	0.66322076
13	0xbc1dfc6d	-0.0096427025
14	0xbfe82298	-1.8135557
15	0xbeb99d88	-0.36253
16	0x3ecf5678	0.40495658
17	0xbe295fd1	-0.16540457
18	0x3f96f9ef	1.1795024
19	0x3f174400	0.59088135
20	0x3bc3bef9	0.0059736934
21	0xbd90bed4	-0.070676476
22	0xbf7605c3	-0.9610254
23	0xbee254b7	-0.44205257
24	0xbf2a2b32	-0.6647216
25	0x3ec133f5	0.37734953
26	0xbfaac3c7	-1.3340997
27	0xbedacd3a	-0.427347
28	0xbe8edf80	-0.27904892
29	0x3e82d290	0.2555127
30	0xbeaef5aa	-0.34171802
31	0xbacfcbcc	-0.0015853583
32	0xbebc9300	-0.36830902
33	0x3db3cba0	0.08779073
34	0x3d9054e9	0.07047445
35	0x3f3e08c2	0.74232113
36	0x3ee4b28f	0.4466748
37	0xbe582227	-0.21106778
38	0xbb86322c	-0.0040953364
39	0xbef171ae	-0.47157043
40	0x3e89505f	0.2681913
41	0xbf0eef4a	-0.55833876
42	0x3e6faced	0.2340581
43	0xbdb7a87a	-0.08967681
44	0xbf2be323	-0.6714346
45	0xbe1d45f5	-0.15358718
46	0x3f0cdc58	0.5502372
47	0x3c5505a4	0.013001833
48	0x3ebbd679	0.36687067
49	0xbf30ce98	-0.6906524
50	0x3f4b1a1d	0.7933672
51	0x3eedef37	0.4647157
52	0xbcca8c4a	-0.024725098
53	0x3c96397c	0.018337958
54	0xbc9c89e4	-0.01910872
55	0x3eb5f038	0.35534835
56	0xbe4b60d6	-0.19861159
57	0x3f018777	0.5059733
58	0x3ef5bf9b	0.47997746
59	0xbe82898f	-0.25495574
60	0xbf116c3c	-0.5680578
61	0xbf3ae0b1	-0.729991
62	0x3f32dcae	0.6986798
63	0xbe92b22b	-0.28651556
64	0x3ff11dc9	1.8837215
65	0x3ea1d8e5	0.3161079
66	0x3e8ce462	0.27517992
67	0xbed7487e	-0.42047495
68	0xbe050809	-0.12991346
69	0x3f0434b9	0.5164295
70	0xbf15764b	-0.58383626
71	0x3da272cb	0.07932051
72	0xbe83b358	-0.25722766
73	0x3d088183	0.033326637
74	0xbf32f7ac	-0.6990917
75	0x3ee78033	0.45214996
76	0xbeeab089	-0.4583781
77	0x3ea90709	0.3301318
78	0x3f16aec4	0.5886042
79	0xbeec24c6	-0.46121806
80	0xbc763c27	-0.01502899
81	0x3f270999	0.6524902
82	0x390527b6	0.00012698662
83	0xbe483c05	-0.19554146
84	0x3d4c2eb0	0.049849212
85	0x3f0c9816	0.54919565
86	0x3e484e8e	0.19561216
87	0xbe3f9f6b	-0.18713157
88	0x3eca8046	0.3955099
89	0x3ee44f5c	0.44591796
90	0x3f17935d	0.59209234
91	0xbebfbc74	-0.37448466
92	0x3e9437e3	0.28948888
93	0xbeba5091	-0.36389592
94	0xbf06aee7	-0.5261063
95	0x3e6f30a7	0.23358403
96	0x3f26e742	0.6519662
97	0x3e5c519c	0.21515507
98	0x3e0c14b2	0.1367977
99	0x3e8e96d6	0.27849454
100	0xbf0ff6c5	-0.56235915
101	0xbf0a0e44	-0.5392802
102	0xbf1b5773	-0.6068031
103	0x3ea6cad0	0.3257661
104	0x3f014fc6	0.5051235
105	0x3ea29c1f	0.31759736
106	0x3ee667ec	0.4500116
107	0xbe9a4fef	-0.3013911
108	0xbea30d5c	-0.3184613
109	0xbec50310	-0.384789
110	0x3e968f6c	0.29406297
111	0x3e51ce39	0.20488824
112	0xbfe3c77f	-1.7795256
113	0xbeaf8f33	-0.3428894
114	0xbed95adc	-0.42452133
115	0x3eb07be4	0.3446952
116	0xbf835d05	-1.0262762
117	0xbe9cddad	-0.30637875
118	0xbde677c4	-0.11253312
119	0xbe67717b	-0.22601883
120	0xbe684eb0	-0.22686267
121	0xbd4996b8	-0.049216002
122	0xbf5c7839	-0.86120945
123	0xbe2b9670	-0.16756606
124	0x3e7a1505	0.24422081
125	0xbebe2de7	-0.37144396
126	0x3f18ca6f	0.5968389
127	0xbf344f89	-0.7043386
128	0x3f03c3ca	0.51470625
129	0xbf08af08	-0.53392076
130	0x3faeb9d1	1.3650457
131	0x3e7f8fc6	0.24957189
132	0xbf87640f	-1.057741
133	0xbe6d13db	-0.23152106
134	0xbf031d7b	-0.5121686
135	0x3e8e4f1e	0.27794737
136	0xbed0773f	-0.40715978
137	0x3e856161	0.26050857
138	0x3fae2f89	1.3608257
139	0x3e7cd331	0.24689938
140	0x3e32d364	0.17463452
141	0xbcf89723	-0.030345505
142	0xbebd0a8e	-0.36922115
143	0xbeb567d6	-0.35430783
144	0x3e9c42e1	0.30519775
145	0xbf2cfd29	-0.6757379
146	0xbe922e39	-0.2855089
147	0xbe9832f0	-0.29726362
148	0x3d87fb2e	0.066397056
149	0x3f65fee2	0.89842045
150	0xbf060d26	-0.5236381
151	0x3e97e1c7	0.29664442
152	0x3f1f568a	0.62241423
153	0xbe6d6b9a	-0.23185578
154	0xbefc8774	-0.49322093
155	0x3f2d3bc2	0.6766931
156	0x3e83facb	0.25777277
157	0x3f210d0c	0.6291053
158	0xbdd292e7	-0.10281926
159	0xbea83b57	-0.32857773
160	0x3e776ca2	0.24162534
161	0x3da6338f	0.08115303
162	0x3eed1dd8	0.4631183
163	0x3dbe0020	0.092773676
164	0x3f5bebb6	0.8590654
165	0x3f049e04	0.5180361
166	0x3ea4fb22	0.3222285
167	0x3dc6a61e	0.09699653
168	0x3e19907f	0.14996527
169	0x3e9e969f	0.3097429
170	0xbf955242	-1.1665728
171	0xbf484586	-0.78231084
172	0xbe22361a	-0.1584095
173	0x3ef29a5e	0.47383398
174	0x3eef3dd5	0.46726862
175	0xbf1fceab	-0.62424725
176	0x3e7eb8cf	0.24875186
177	0xbf27db22	-0.65568745
178	0x3e0c61ac	0.13709134
179	0xbf00ce27	-0.50314564
180	0xbf309370	-0.6897497
181	0xbe1270e2	-0.14300874
182	0xbef103da	-0.4707325
183	0x3e8b3dd6	0.27195615
184	0x3e65559f	0.22395943
185	0x3ef7bb96	0.48385304
186	0xbd834236	-0.06409113
187	0x3ed5c9cb	0.41755518
188	0x3ef2632e	0.47341293
189	0xbe35dc61	-0.17759849
190	0x3e8915aa	0.2677434
191	0xbed6b8ef	-0.41937968
192	0xbe9a97f7	-0.30194065
193	0xbee053ed	-0.4381403
194	0x3f1b981f	0.60778993
195	0x3e05d17f	0.13068198
196	0x3e136897	0.14395367
197	0x3e7680f3	0.24072628
198	0x3f1335ac	0.5750377
199	0xbeb4921a	-0.35267717

layers.0.bias f4 [100]
0	0xbd2713a2	-0.040790208
1	0xbf1be513	-0.60896415
2	0xbe08e9ed	-0.13370486
3	0x3e555a0b	0.2083513
4	0x3d451ae5	0.04812135
5	0x3e103c09	0.14085402
6	0xbf1315df	-0.5745525
7	0xbe4fce26	-0.20293483
8	0x3eae3a39	0.34028795
9	0xbe9874bd	-0.29776564
10	0x3e119c71	0.14219834
11	0x3c389c1e	0.01126769
12	0x3e04a87f	0.12954901
13	0x3e22f593	0.15913992
14	0x3c3d26d1	0.011544899
15	0x3e9e4544	0.3091222
16	0xbf26893d	-0.6505316
17	0xbd97feb7	-0.0742163
18	0x3e9ba255	0.30397287
19	0x3e8def0a	0.27721435
20	0x3eb5ba3c	0.35493648
21	0xbeb16a2b	-0.34651312
22	0x3e72b29c	0.23700947
23	0xbf18d0da	-0.5969368
24	0xbede709e	-0.43445295
25	0x3e4cf955	0.20016988
26	0x3e98d215	0.2984778
27	0xbeaf86cc	-0.3428253
28	0xbf34a12b	-0.7055842
29	0xbd2db061	-0.042404536
30	0xbed2261d	-0.41044703
31	0x3e95d9c7	0.29267713
32	0xbb6a0780	-0.0035710037
33	0xbe080271	-0.13282181
34	0xbea9fa68	-0.33198857
35	0x3e83b78b	0.2572597
36	0x3e867477	0.2626073
37	0x3da90b3c	0.08254096
38	0xbf2f0a83	-0.68375415
39	0xbda94f33	-0.08267059
40	0x3e444513	0.19166975
41	0xbe84bdd7	-0.25926086
42	0x3e953f0a	0.29149657
43	0x3e8fbd1f	0.28073975
44	0xbef274ca	-0.47354728
45	0xbee58ca3	-0.4483386
46	0xbec50ca3	-0.38486204
47	0x3e484fbf	0.1956167
48	0xbf10d523	-0.5657522
49	0x3e98489c	0.29742897
50	0x3c5d8fc7	0.013523049
51	0xbf0cbd9d	-0.54976827
52	0xbf1e4c7f	-0.61835474
53	0x3e7f55e2	0.24935105
54	0x3e49cc7a	0.19706908
55	0xbef9a9e6	-0.48762435
56	0xbc4414ac	-0.011967819
57	0xbe436e30	-0.19085002
58	0x3e2e0914	0.1699565
59	0x3e0c29bb	0.13687794
60	0x3e1bbd56	0.15208945
61	0xbdb2270b	-0.08698853
62	0xbe9114f3	-0.28336295
63	0x3e51d18c	0.20490092
64	0xbdcc180e	-0.099655256
65	0x3c40131e	0.011723308
66	0x3d8a1aac	0.067433685
67	0xbeac225f	-0.33619973
68	0x3dba6a67	0.09102326
69	0x3c2d6954	0.010584194
70	0xbd39dae1	-0.045374755
71	0xbec48e72	-0.38389927
72	0xbe43c1ec	-0.19116944
73	0x3e96058f	0.29301116
74	0x3c993603	0.018702513
75	0xbe97464e	-0.29545826
76	0x3dcd7c8e	0.100335225
77	0x3ead9a0b	0.33906588
78	0x3ea6a554	0.3254801
79	0x3e30b917	0.17258106
80	0xbecf83f5	-0.40530363
81	0xbf1905e7	-0.5977463
82	0xbc679845	-0.014135425
83	0x3e0d736b	0.1381356
84	0x3e0c1aca	0.13682094
85	0x3c98c759	0.018649744
86	0xbee76af1	-0.45198777
87	0x3e8a2e4a	0.2698844
88	0x3d709706	0.058737777
89	0xbe67120d	-0.2256548
90	0x3e75e356	0.24012503
91	0xbf0d0b74	-0.550956
92	0xbf2964c8	-0.66169405
93	0x3ea98121	0.3310633
94	0xbdba0a7b	-0.0908403
95	0xbf1702f5	-0.5898889
96	0xbea492f0	-0.32143354
97	0x3d8b180b	0.06791695
98	0xbf2179d5	-0.63076526
99	0x3e805ad7	0.25069305

layers.2.weight f4 [3, 100]
0	0x3da204c1	0.07911063
1	0xbd33e161	-0.04391611
2	0x3e71ae6f	0.23601697
3	0xbf8c9385	-1.0982519
4	0x3d944e4c	0.072414964
5	0x3d876ca4	0.066125184
6	0x3dc76db5	0.09737722
7	0xbf94b375	-1.1617266
8	0x3d061770	0.032737195
9	0xbd9c263f	-0.07624482
10	0x3d787104	0.060654655
11	0x3ef309fb	0.47468552
12	0xbe3959a6	-0.18100604
13	0x3e0af9d3	0.13571863
14	0x3d920f5b	0.07131835
15	0x3d648466	0.055790327
16	0x3daefc81	0.08544255
17	0x3e45cc36	0.19316182
18	0x3db03fb7	0.08605903
19	0x3d5b08f7	0.053475346
20	0xbced2b34	-0.028951265
21	0xbc495dc9	-0.0122904265
22	0x3d974d90	0.07387841
23	0xbdb18a57	-0.08668964
24	0x3cc8eb16	0.02452616
25	0xbe39a0a7	-0.1812769
26	0x3d352f79	0.044234727
27	0x3d60c6c9	0.054877076
28	0x3d386d6e	0.045026235
29	0xbe1deccf	-0.15422367
30	0xbddc47ea	-0.10755904
31	0x3d6ebad8	0.058283657
32	0x3f58d0c8	0.84693575
33	0x3dfba49f	0.12287258
34	0xbbf034f7	-0.0073305327
35	0x3d6a1e25	0.057157654
36	0x3c299d82	0.010352494
37	0xbe1ea449	-0.15492357
38	0x3d928658	0.0715453
39	0xbe429c23	-0.19004874
40	0x3e75b2e3	0.23994021
41	0x3baded91	0.005307861
42	0x3d2f3328	0.042773396
43	0xbd31b728	-0.043387562
44	0x3d190a29	0.037363205
45	0xbca6d78a	-0.020366449
46	0x3c181c37	0.009284071
47	0x3d4a55fa	0.0493984
48	0xbd990519	-0.074716754
49	0x3dbfb38c	0.09360418
50	0x3e44f3c8	0.1923362
51	0xbdc914d8	-0.09818429
52	0x3c9c2a99	0.01906328
53	0xbda4111b	-0.08011075
54	0x3a00e542	0.00049169746
55	0x3cef43e5	0.02920718
56	0x3f0f5ed3	0.56004065
57	0xbda14168	-0.078738034
58	0x3e04abdf	0.12956189
59	0x3d982345	0.07428602
60	0x3d2f56ca	0.042807378
61	0xbf24f341	-0.64433676
62	0xbca7ef46	-0.020499837
63	0xbe72cab8	-0.23710144
64	0xbe70dccc	-0.23521727
65	0x3e8977df	0.26849267
66	0x3e991415	0.29898134
67	0xbd0094d8	-0.03139195
68	0x3d42da23	0.047571313
69	0x3df07185	0.11740402
70	0xbdb2aeac	-0.08724722
71	0xbdaa4adc	-0.083150595
72	0x3de4d3c0	0.111732006
73	0x3cb93a4c	0.022610806
74	0xbeb1f7d1	-0.3475938
75	0x3c04df4b	0.008109878
76	0xbd258255	-0.040407497
77	0x3e02422a	0.12720552
78	0xbdff0f2a	-0.12454064
79	0xbcfbcfa0	-0.030738652
80	0x3d4cdedc	0.050017223
81	0xbd4a9ba7	-0.049464848
82	0x3e802db2	0.25034863
83	0xbd547769	-0.05187169
84	0xbcfd3e05	-0.030913362
85	0x3e1f7d2f	0.15575098
86	0xbd806447	-0.062691264
87	0x3c80edd9	0.015738415
88	0x3d60ee17	0.05491456
89	0xbc254b8f	-0.010088815
90	0x3d020d95	0.031751234
91	0xbc059d07	-0.008155114
92	0x3d8d7769	0.06907541
93	0x3da60f7c	0.08108422
94	0xbe68d20f	-0.22736381
95	0x3d70689c	0.058693513
96	0x3c35e686	0.011102324
97	0xbeabc528	-0.33548856
98	0xbcbecfe6	-0.023292493
99	0x3d53b57f	0.05168676
100	0xbbedf6f1	-0.0072621037
101	0xbdafc414	-0.08582321
102	0x3f3d45e9	0.739348
103	0x3f71c4cb	0.9444091
104	0x3e850cd1	0.2598634
105	0xbd51cdae	-0.051221542
106	0xbb0950db	-0.0020952735
107	0x3f7ca23a	0.9868504
108	0x3e26b626	0.16280422
109	0x3f2dc7d2	0.67883027
110	0x3d8cbf7d	0.06872461
111	0xbeec4ad8	-0.4615085
112	0xbdf2f70a	-0.11863525
113	0x3f17cdfc	0.5929868
114	0xbd1b5e38	-0.03793165
115	0x3d8bb7e3	0.06822183
116	0x3cdd9a33	0.027051067
117	0x3e1ac0d2	0.15112618
118	0x3e26df80	0.16296196
119	0x3e1522f6	0.14564118
120	0x3cbc7184	0.023003347
121	0x3c7f7fdb	0.015594448
122	0xbbbb50c1	-0.0057164137
123	0x3dc00672	0.09376229
124	0x3c821f53	0.015884077
125	0x3ec80952	0.3906961
126	0x3cfc74bd	0.030817384
127	0x3d241430	0.040058315
128	0xbda77fe0	-0.08178687
129	0x3dde3285	0.108494796
130	0x3dadaaed	0.08479867
131	0x3e233f8d	0.15942211
132	0xbfa6505b	-1.2993273
133	0xbc9d093e	-0.019169446
134	0x3cd0e41f	0.025499402
135	0xbd2bf238	-0.041979045
136	0x3c852a53	0.016255533
137	0x3d203b8c	0.03911929
138	0x3d2b780b	0.04186253
139	0xbc101fe1	-0.008796663
140	0xbb9f010e	-0.0048524207
141	0x3da68c9d	0.081322886
142	0xbc1dd686	-0.009633666
143	0x3db52169	0.08844263
144	0xbcc691e1	-0.024239482
145	0x3cd156f5	0.02555416
146	0xbcb6afe4	-0.022300668
147	0xbcd6a1f0	-0.026200265
148	0xbdae17de	-0.08500646
149	0x3d32276a	0.04349462
150	0xbe99466a	-0.29936534
151	0x3c97fd04	0.018553264
152	0x3d9722cb	0.07379683
153	0x3dbe5ae7	0.09294682
154	0x3ddda210	0.108219266
155	0xbc81abba	-0.015828956
156	0xbf9c2a7e	-1.2200468
157	0xbcacb5f5	-0.021082858
158	0x3ef56854	0.4793116
159	0x3c8557ba	0.016277183
160	0x3d4bee66	0.0497879
161	0x3ece7a11	0.40327504
162	0xbc859cce	-0.016310122
163	0xbe311d5d	-0.17296357
164	0x3cade344	0.021226533
165	0xbf762344	-0.9614756
166	0x3edce587	0.43143865
167	0x3d14e369	0.036349688
168	0xbd11d57e	-0.035603993
169	0xbf3df959	-0.742086
170	0xbd001ae8	-0.03127566
171	0xbd9739da	-0.07384081
172	0x3d819a05	0.06328205
173	0xbd6c5089	-0.05769399
174	0xbe366968	-0.17813647
175	0xbda7c2f9	-0.08191485
176	0x3cb372af	0.021905271
177	0xbd1a0ee5	-0.03761186
178	0x3d363bb8	0.044490546
179	0x3c8191a0	0.01581651
180	0xbd5986f3	-0.053107213
181	0xbc62be34	-0.013839293
182	0xbef6e7f3	-0.48223838
183	0x3da32c97	0.07967489
184	0x3d3d1ca8	0.046169907
185	0xbf477f8d	-0.77929
186	0xbd96af4e	-0.073576555
187	0xbba41ccd	-0.005008316
188	0x3e3cdb87	0.18443118
189	0x3d4295fd	0.04750632
190	0xbc8bcb49	-0.017064707
191	0x3ce870ac	0.028374039
192	0x3d54cbf7	0.05195233
193	0x3ca3c1f4	0.019989945
194	0xbdcbb27f	-0.09946155
195	0xbd925569	-0.07145197
196	0xbdbe354a	-0.09287508
197	0x3ebd7cef	0.3700938
198	0xbdc78bc2	-0.097434536
199	0x3df3afd4	0.11898771
200	0xbccde315	-0.025132695
201	0x3cb40e05	0.021979341
202	0xbf8af52d	-1.0856072
203	0x3dcb579a	0.09928818
204	0xbe94348a	-0.28946334
205	0x3bb58b62	0.0055402974
206	0xbd6ca088	-0.057770282
207	0x3e1066fb	0.14101784
208	0x3d648ce8	0.05579844
209	0xbf19cafb	-0.6007535
210	0xbd6898e4	-0.056786433
211	0xbd38c664	-0.045111075
212	0x3e807f8e	0.25097317
213	0xbf4aad2a	-0.7917048
214	0x3e1be1e6	0.15222892
215	0x3d05844c	0.03259687
216	0x3dbba3c8	0.09162098
217	0xbe396a03	-0.18106847
218	0x3dbabb91	0.09117807
219	0xbe30200a	-0.17199722
220	0x3d7c5ec7	0.061613824
221	0xbcd0a948	-0.025471345
222	0x3d6ee924	0.05832781
223	0xbd76c3de	-0.060245387
224	0xbd3c83a1	-0.04602397
225	0xbe515d5d	-0.20445772
226	0x3da6d07b	0.08145233
227	0x3d897469	0.067116566
228	0x3dc76f6c	0.09738049
229	0x3df0b9ee	0.11754213
230	0xbcd86b8f	-0.026418475
231	0xbd148d7f	-0.036267754
232	0x3ef2f374	0.47451365
233	0xbdbe53a9	-0.09293301
234	0xbe4f1018	-0.20220983
235	0x3d2ebd48	0.04266098
236	0xbd08bb52	-0.033381768
237	0x3e1fefa7	0.15618764
238	0x3dc17425	0.09445981
239	0x3c647c09	0.013945588
240	0xbe34ac87	-0.17643939
241	0xbc731830	-0.01483731
242	0x3d88115f	0.06643938
243	0x3d1d9a90	0.03847748
244	0x3d0e1e62	0.034696944
245	0xbc4aebf9	-0.012385362
246	0x3ce08680	0.027407885
247	0x3d9a88c4	0.07545617
248	0xbd6a3a74	-0.05718465
249	0xbc3dd7ab	-0.011587064
250	0xbc1c7574	-0.009549487
251	0x3d04f834	0.032463267
252	0x3d439b09	0.047755275
253	0x3d715378	0.058917493
254	0x3d59697c	0.053079113
255	0xbdca9dfb	-0.09893414

layers.2.bias f4 [3]
0	0x3ddb13b9	0.10697121
1	0x3dc29357	0.09500759
2	0x3da187a6	0.07887201
