Pb_policy_iteration/cart_pole_modified_env/reproduce_FHCP_results/original_algo/models/CartPole_10_3_200_0.05_pbpi_model.pt (torch, 2963 bytes, 4 tensors)

layers.0.weight f4 [50, 2]
00000000: a755 a83e d7ac adbe cece a53e 0d2b 323e
00000010: ed19 2abf f5f1 52bf 9a21 30be 1154 e93d
00000020: 33ea 913e 4b20 103e a83f ce3e 3353 e13d
00000030: ba7a c5be 343e 16bf 7008 b1be 4470 be3e
00000040: d5ab 8b3a d40c aabe 738c 3dbe 7e89 7e3e
00000050: 3872 433e 381c e13d 2e45 e0be 04cd c3be
00000060: 957d 243f e258 2ebf 976b 09be b9a4 d7be
00000070: 6779 83bd dffd 39be 3c19 cabe b96b 1fbf
00000080: 67ce b33e 5842 a9bd 58cf 0dbe 5cdb 09bf
00000090: 50b4 49bc 36aa c0be d349 b63d 8c2a e5be
000000a0: 024c b23d bf60 1e3e bf8d 0a3f ff7c 15bf
000000b0: d408 30bf d72f d03e 7b39 12bf a93d 393f
000000c0: d4ec 263f 8bd9 b53e 2987 a6be 3e94 97be
000000d0: 36b9 ba3e 53c2 3dbf 883e 2a3f c4a3 543e
000000e0: cf83 b0be d60d c23e 6357 1dbf 5723 dbbd
000000f0: 2004 28bf 2803 e73e ac8e 02bf 44e9 b73e
00000100: fd86 ebbe f9b8 1a3f 60a9 153f cd36 36be
00000110: c580 1ebf afcd de3e 8ad9 11bf 10cc c13e
00000120: e40b 25bf e043 1ebe 2f4c 4b3e acc7 0ebf
00000130: 4935 ef3e 69c8 393f 9793 953e ed55 ca3d
00000140: 1e7e 29bf 5016 b33e 6cb1 e4be a6ce 3a3e
00000150: 6210 9e3d 1932 423f c0dc bfbb 7027 223f
00000160: 35fa d6bd 3dcb 203f 631c fdbb 9d54 a63c
00000170: f72a ff3c cf33 0e3f 0b41 5dbe 53aa fd3d
00000180: c02d 313f 6c7f b6be 5786 b5be faa7 1a3e
0.32877848 -0.3392093 0.32384342 0.17399235 -0.6644581 -0.8240045 -0.17200318 0.113929875
0.28498992 0.14074819 0.4028294 0.11002197 -0.38570195 -0.58688664 -0.3457675 0.37195027
0.0010656068 -0.33212912 -0.18510608 0.24857137 0.1908654 0.109917104 -0.4380278 -0.38242352
0.6425412 -0.68104374 -0.13419949 -0.4211786 -0.0641964 -0.1816325 -0.39472377 -0.62273747
0.3511841 -0.08264607 -0.13848627 -0.5385034 -0.012311056 -0.3762986 0.089007996 -0.44759023
0.087059036 0.15466593 0.5412254 -0.58393854 -0.6876347 0.406615 -0.5711896 0.7235971
0.6520512 0.35517535 -0.32524994 -0.29605287 0.3646943 -0.7412464 0.66501665 0.20765597
-0.34475562 0.3790118 -0.61461467 -0.107001 -0.65631294 0.45119596 -0.5099895 0.35920155
-0.46001425 0.60438496 0.5846157 -0.17794342 -0.61915237 0.435163 -0.56972563 0.37851
-0.6447127 -0.1545558 0.1985328 -0.55773425 0.4672034 0.72571427 0.29214165 0.0987967
-0.66208065 0.3497796 -0.44666612 0.18242893 0.077179685 0.7585769 -0.005855173 0.63341427
-0.10496942 0.62810117 -0.007724331 0.020304019 0.031148417 0.55547804 -0.21606843 0.123860024
0.69210434 -0.3564409 -0.35454056 0.1510314

layers.0.bias f4 [50]
00000000: 7c7c 85be 55fa afbd c051 a23e 8fa3 b2be
00000010: 4091 ad3e aa77 a5be 06c4 10bf 29ef 413d
00000020: d328 023f b60f e73e 30c1 debe 1d5c 10bf
00000030: eac9 afbd eb0b 29bf 157b afbe 2d0e 723e
00000040: 5e48 2abf dd04 2b3f 67d7 08bf 66f0 263e
00000050: 9137 88bd 72e5 06bf d9a6 01be 6b3c d0be
00000060: 1ba9 32bf 14ab 103f 3ae8 dbbd c5ec 15be
00000070: f93f 1bbf b5f1 8ebe f4af d43e 320d b83e
00000080: 1b8b 51be 5c27 4bbd e936 fe3e 3ff9 f8be
00000090: 45be e7be ea70 b3bc 49a4 adbe 92b5 ddbe
000000a0: fdfd 33bf acd7 22bf 2c89 a0be 8f6d 303f
000000b0: f0fb 0ebf 4a0b dbbe 49d3 bf3d 2b7f c73e
000000c0: 0729 df3d b7fa f93e
-0.26071537 -0.08592669 0.31702995 -0.3489041 0.3389988 -0.3231786 -0.5654911 0.04734722
0.5084354 0.45129174 -0.43506765 -0.56390554 -0.08583434 -0.6603381 -0.34273592 0.2363822
-0.66516674 0.66804296 -0.5345368 0.16302642 -0.066512235 -0.52693856 -0.12661304 -0.40671095
-0.69789284 0.56511045 -0.10737653 -0.14641102 -0.6064449 -0.27918783 0.41540492 0.35947567
-0.20463221 -0.049598083 0.49651268 -0.4862766 -0.45262352 -0.021904428 -0.33914402 -0.4330259
-0.7030943 -0.6361034 -0.31354654 0.68917173 -0.55853176 -0.4278205 0.09366471 0.3896421
0.10896497 0.48824093

layers.2.weight f4 [3, 50]
00000000: 034c 8dbd beae fd3d ae6f a43e 9977 aabc
00000010: d4b7 bfbd f32e 373d d814 d0bc 75eb 7bbe
00000020: d902 80bc eaf3 c9bd 41f7 c3bd 4ec7 383d
00000030: 7fa8 c4bd 9b2c aa3d d8c7 61bd 2192 633e
00000040: 3712 7b3d 1cd3 7a3e d1dd d93d 508c 913e
00000050: c6ac 1b3e 459f 0fbe 8632 b83d 24ff 793d
00000060: 37c3 eb3c db5f 353e 5b03 8ebe bc39 863d
00000070: 044b 143a 5c6c 0e3e 3cd0 08be 6dda e53c
00000080: 3dff fb3d 1f4c f53c 62e5 423d d46b 17bd
00000090: c3d7 613d 7d4c d2bd 0a6b 523d b469 9e3d
000000a0: 2527 2c3d 6e42 33bd 6c54 4d3e 2a73 beb9
000000b0: 7cde b23d 3122 1b3d 68cd 2abe 1418 bcbc
000000c0: 5924 643e 2810 b03c 482b 673d d336 f73d
000000d0: 5bb5 693d 3788 ce3a 6f24 a7bd 434d a0bc
000000e0: 6d41 083c 5701 b3bd 68fa f23d 571c 553c
000000f0: 1c3b 243c 9ed1 14bd f1ab eb3d a254 f5bc
00000100: ccce 623d 9f45 90bd f6a5 0bbe 20da 093c
00000110: 98eb 8c3d 486e 733c 23f2 ecbb 315d 083e
00000120: 9fc0 e0bd fde2 95bd d7d4 91bd 9f07 0c3e
00000130: 2bee a2bd 6daf 273c c5e7 713d c67b e8bd
00000140: efa6 23bd 3fc0 8ebd b7d9 8a3b d4fb a4bc
00000150: 53eb d03d 4963 05be 452f 0dbb a817 47bd
00000160: cc71 14bd 3af3 da3d d3f4 1fbc 664b d83d
00000170: 281f 933c 5988 293e 6cc2 863d 8ef7 00be
00000180: 0ba1 bb3d d927 a0bb 512d fa3d 61fa 0c3e
00000190: 2922 fbbb c848 f8bd 0d01 c1be 3f32 cd3c
000001a0: 9f50 e138 a5e0 8bbd 0a75 cabd d3fd 5b3e
000001b0: 2654 b3bd d108 2e3e e00e 113d 4e0c 043e
000001c0: 0b11 353e 699a 873c c60b aa3c b11c 29be
000001d0: 996b 44bd 9767 bfbd 24a6 98bd 19b5 a9bd
000001e0: bb9f 313b 6406 a1bc e66a 2cbe 53c7 23be
000001f0: 0e0a 4f3c 2696 923d 6dd6 703e 7e04 95bc
00000200: fcd4 f13c 0d0f 4bbd 7e8d 38bc dcfe 243e
00000210: f32b 05be 295e a9bd 3305 13bd d109 873d
00000220: a5f4 cf3d 3bef 973d b0d9 eabd ce73 463d
00000230: 83e3 dcbd 93f5 003e 045a 84be c1b8 3b3e
00000240: 8190 babd de05 1dbc 4bcb c63e 18fa 0f3e
00000250: 29cc f6bd 9566 043e
-0.06899264 0.12386845 0.32116455 -0.020808982 -0.09361234 0.04472251 -0.025400564 -0.24601538
-0.015626358 -0.09860976 -0.09568644 0.045111947 -0.096024506 0.08309289 -0.055122226 0.22223713
0.061296668 0.24494594 0.10638011 0.28427362 0.15202627 -0.140256 0.089940116 0.061034337
0.02877961 0.17712347 -0.27736935 0.06553981 0.000565693 0.13908523 -0.13360685 0.028058255
0.12304542 0.029943524 0.047582038 -0.036968067 0.055137407 -0.10268495 0.05137161 0.07735005
0.04202952 -0.043764524 0.20051736 -0.00036325428 0.08733842 0.037874404 -0.16679919 -0.0229607
0.2227949 0.021492079 0.05643776 0.12071004 0.05705772 0.0015757148 -0.08161246 -0.019568091
0.00831638 -0.0874049 0.118641675 0.013007245 0.010023858 -0.03633272 0.115074046 -0.029947583
0.055372998 -0.07044529 -0.13637528 0.008413821 0.068808734 0.014857836 -0.0072310134 0.133168
-0.109742396 -0.07318685 -0.07120674 0.13674782 -0.07955583 0.010234696 0.059058923 -0.11351733
-0.039954122 -0.06970262 0.0042373794 -0.020139612 0.102011345 -0.13026156 -0.0021543067 -0.048606545
-0.036241338 0.10690923 -0.0097629605 0.10561256 0.017959192 0.16555919 0.06580052 -0.12594435
0.09161576 -0.0048875627 0.12215675 0.13767387 -0.0076639843 -0.12123257 -0.37696114 0.025048373
0.00010743853 -0.06829957 -0.09885605 0.21483545 -0.087562844 0.1699555 0.035414577 0.12895319
0.17682283 0.01655312 0.020757567 -0.16514851 -0.047954176 -0.0934593 -0.07453564 -0.08286495
0.0027103263 -0.019656368 -0.16837654 -0.15994005 0.012636675 0.07157545 0.23519297 -0.018190619
0.029520504 -0.0495749 -0.011264203 0.16112846 -0.13005047 -0.08269913 -0.03589363 0.06593669
0.10154084 0.074186765 -0.11467302 0.048450284 -0.10785582 0.12593679 -0.25849926 0.18332197
-0.09109593 -0.009583918 0.38826975 0.14060247 -0.12050659 0.12929757

layers.2.bias f4 [3]
00000000: 8a46 583d 9ae3 5a3a acd3 c03d
0.052801646 0.00083499553 0.09415373
