Pb_policy_iteration/cart_pole_modified_env/reproduce_FHCP_results/original_algo/models/CartPole_200_3_20_0.025_pbpi_model.pt (torch, 4755 bytes, 4 tensors)

layers.0.weight f4 [125, 2]
00000000: 41b1 863e 6cd6 163f 06eb 303f 58c5 3bbf
00000010: 7bb0 0d3f 955f 23bf 3d9e d63e 3925 7c3e
00000020: beb5 e8bd e07e ae3e 5033 eb3e 1b10 8d3d
00000030: 4abc 393c 9f5b 6e3e 2ab4 edbe 3c00 123f
00000040: 9e45 aa3e e0b4 e6be 228a 09be a9a7 043d
00000050: a59f 6e3e b3e1 85be 4d1f 823f 2178 1e3f
00000060: 286f 263f 5a07 423e d998 f53e 1c43 87be
00000070: b006 833e 79fe e3be ca0f a5be 3c16 3d3e
00000080: aeeb 91be e765 3a3f 155f 883d 53c8 05bf
00000090: 307f ea3e 73ca 213f b688 49bf e7de ec3e
000000a0: df2b 80be e579 6bbf ab7c 143e 669f 19be
000000b0: 6bb7 113f b1f4 6cbe 3690 1a3e 265f 96be
000000c0: 8bd0 c7be e91e 923e 093a 7d3e 3949 283e
000000d0: 01e7 1cbf 32ac 4bbc afdb 2dbf cea2 1b3f
000000e0: 28e7 173f 3760 59bf 427d 093e 2aff b2bd
000000f0: 6fcd 24bf bb6c a63e eacd 37bf 24a9 973e
00000100: 8cf0 153e fb7d e33e 7f70 763e 34a8 7cbe
00000110: 01ca 85be 5025 043e e30f a63c d238 973d
00000120: 9045 54be db91 953e f38c cd3e 3291 47bf
00000130: 37e5 ae3e 8e51 8d3d 198d c1bf 0eea 47bf
00000140: 870f aebe 0320 d43e 21a8 0cbf 0b81 45bd
00000150: 6940 ad3e e1d5 203f 481f c33e cbb5 133e
00000160: 994d a4bd e571 db3e 2c62 003f 1c23 1f3f
00000170: f6c5 ddbe 8c4f bfbd ed98 4abf 31df 213e
00000180: 1722 b1be 9ddf 913d 0ff3 c7bd f79c 123c
00000190: cb52 bbbe 92cf 213f f3c5 693f a5c3 873e
000001a0: f464 1f3f 4b7c 413e 2a51 ac3e 8212 dbbe
000001b0: d769 a0be 1091 3a3f 866f 00bf 49e6 353f
000001c0: d840 0b3e a2e8 40bc 6f65 20bf f42a 523f
000001d0: 59fa a4bc b0f7 b73e 6a6c 84bd 3534 c8be
000001e0: ed64 8c3d 7026 e5be 7932 e13d 7f79 4fbf
000001f0: fd43 f2be 2e97 8d3e 391c 9ebe f2e5 c63e
00000200: cc03 e8bf 332d 2a3e aebe 763f 1b89 d73e
00000210: b9fe e9bf 0b55 0abd 0acd 32be 7e8c e3bd
00000220: 43b3 59bf aeaa 563f 6e1b 80bf 3228 0cbf
00000230: 188c a8be 4dc1 573e bfdd 223f c793 84be
00000240: f860 2a3f b37e c93d 30dd c13d f7f4 ee3e
00000250: b2ed cdbe 81fe 90be 7141 fd3e cdd8 983d
00000260: 5f55 82bf 52e2 0bbf cb7c f7be abf9 273e
00000270: d403 8cbd 289f 82bd f3c6 32bd 2733 0abb
00000280: 139d 1fbf 14c1 21bc 0696 f13d b003 eabe
00000290: 4daf c0be 413d 9b3d c2aa 193f d951 ccbe
000002a0: ef07 62bd 7abf f03e e6b7 53bf 3f2f b7be
000002b0: efae ac3e de23 fa3e 7a97 01bf 58c1 0a3f
000002c0: b651 e1be e9d5 4cbe 053e a93d c29b eebe
000002d0: bf5b 5c3f 5546 133f 3864 873e 6df6 46bf
000002e0: 0131 d7be 8c79 2c3f 0615 05bf eb87 0d3f
000002f0: fcdc 9ebe 0636 813d da6d 273f 63d1 23bf
00000300: 1c84 663e 9a7d e7be 428f 0bbf 1155 1a3e
00000310: 57ce 1cbf 5076 133f ac52 ff3e 693d 13be
00000320: b3d5 5abf 004a dfbe 633a cf3e be85 bfbe
00000330: 8188 eb3e 9b46 1ebd 269e 32bf a77f d03e
00000340: eced d5be 0367 193f c6c8 b6bf ae98 2ebf
00000350: 2ead 9b3f 8ccc b73e f0d4 40bf a70f cabe
00000360: 0869 8fbf e384 d53d c254 e1be 4cc5 3bbd
00000370: e4a0 6bbc 070e 533e 0e3c a23e 48d7 96be
00000380: edf3 703e 4ca4 01bf b473 56bd b434 c33e
00000390: 9a73 c2be 75f2 c13d 7c3d 123f f3f2 dcbd
000003a0: 9186 cebe 7af6 22be 343c 04bf c20e 423e
000003b0: 75b1 cfbf f087 30bf 8772 033e bac8 09be
000003c0: 0673 913e 5a38 e5bd 7a77 4cbd 4a45 3a3e
000003d0: 6498 04bf 3046 0f3e 098e a3be 547b e93e
000003e0: 23c2 783d 4571 52be
0.2630711 0.5892093 0.6910862 -0.73348 0.5534741 -0.6381772 0.419176 0.24623574
-0.113627896 0.34081173 0.45937586 0.068878375 0.0113363955 0.23277138 -0.46426517 0.5703161
0.3325624 -0.45059872 -0.134316 0.032386456 0.23303087 -0.26148757 1.0165802 0.6190205
0.6501336 0.18948117 0.47968176 -0.26418388 0.2559104 -0.44530085 -0.3223861 0.18465513
-0.28500122 0.7281174 0.066587605 -0.52258795 0.4580016 0.6319954 -0.7872423 0.4626381
-0.2503347 -0.9198287 0.14500682 -0.15002212 0.569205 -0.23140217 0.15094075 -0.29369467
-0.39026293 0.28539208 0.2472917 0.16434182 -0.61289984 -0.012431191 -0.67913336 0.60795295
0.5933709 -0.8491244 0.13426688 -0.08740075 -0.64375967 0.3250483 -0.71798575 0.29621232
0.14642543 0.44432053 0.24066351 -0.2467354 -0.2613068 0.12904859 0.020271247 0.073838845
-0.20729661 0.2921284 0.40146598 -0.77955925 0.34159252 0.06900321 -1.5121185 -0.78091514
-0.3399622 0.41430673 -0.54944044 -0.048218768 0.33838204 0.62826353 0.38109803 0.14424817
-0.08022613 0.42860332 0.501498 0.6216295 -0.43315095 -0.09341344 -0.79139596 0.15807797
-0.3459632 0.07122729 -0.097631566 0.008948556 -0.36586604 0.6320735 0.9131767 0.26516452
0.6226342 0.1889507 0.33655673 -0.42787558 -0.3133075 0.728776 -0.5017017 0.7105451
0.13598955 -0.011774214 -0.62654775 0.8209679 -0.020138906 0.35931158 -0.06465991 -0.3910233
0.068551876 -0.44755888 0.10995955 -0.81044763 -0.47317496 0.27654403 -0.30880907 0.3884731
-1.8126159 0.16618805 0.96384704 0.4209679 -1.828086 -0.03377251 -0.17461029 -0.11110781
-0.85039157 0.83854187 -1.0008371 -0.54748833 -0.32919383 0.21069832 0.6361961 -0.25893995
0.6655421 0.09838619 0.09466016 0.46671268 -0.4022041 -0.2831917 0.4946399 0.074632265
-1.0182303 -0.5464221 -0.48337397 0.16403835 -0.06836668 -0.06378013 -0.043646764 -0.0021087618
-0.6234905 -0.009872694 0.11796193 -0.45705938 -0.37633744 0.07580043 0.6002618 -0.39906195
-0.055183347 0.47021085 -0.8270248 -0.35778233 0.33727214 0.4885549 -0.5062176 0.5420127
-0.44007653 -0.20003475 0.082637824 -0.4660321 0.86077493 0.57529193 0.26443648 -0.77719766
-0.42029575 0.67372966 -0.51985204 0.5528552 -0.31027973 0.06309132 0.65401995 -0.63991374
0.22511333 -0.45213014 -0.5451547 0.15071513 -0.6125235 0.57602406 0.4986776 -0.14378895
-0.8548233 -0.43611145 0.40474233 -0.37406725 0.46002582 -0.038641553 -0.69772565 0.4072239
-0.41783082 0.5992281 -1.4280021 -0.6820172 1.2162225 0.35898244 -0.75324917 -0.39465067
-1.1203928 0.10425737 -0.44009978 -0.045842454 -0.014381621 0.2061082 0.31686443 -0.29461122
0.2353055 -0.5064132 -0.052356437 0.38126147 -0.37978822 0.09470073 0.5712507 -0.107885264
-0.4033704 -0.15914336 -0.5165436 0.18950942 -1.622603 -0.68957424 0.12836657 -0.13455477
0.28408068 -0.11192389 -0.04991863 0.18190494 -0.5179503 0.13991618 -0.31944302 0.45601904
0.06073202 -0.20551021

layers.0.bias f4 [125]
00000000: c480 dfbe d46c aebd b539 03bb 0190 89be
00000010: e6ac 0ebf ae4b 053e 7fca 943d 3c70 d4be
00000020: ef3c 363e 266f 1a3c f9fd 90be 827a c0be
00000030: 3eaf b9be c006 b23d 4727 0fbf a04f 203e
00000040: b876 bdbe b985 363e 122d 79be 8afb 9f3d
00000050: 6bce b1bd a1dd 8a3d f780 ca3d aa12 e93d
00000060: f4e8 8ebe b29b 31bf b1b6 6a3d dfa6 1abe
00000070: 46c8 d1bd 8f8c 5f3d c838 093e c9a7 03be
00000080: 9903 1fbf 7f4f bb3d 25e8 db3d 1cfb 8c3d
00000090: 89ad e2be a575 c5bc d766 51be e30a 26ba
000000a0: 4192 1ebd a6fa 5f3d d1ca 73be 3403 abbe
000000b0: 6cba b3be 477a 7bbe 392a 2c3d 8f7d 1e3d
000000c0: 4ba7 953c ed0c 7ebe ff6d f6be cf7c c1bd
000000d0: b2fa ac3b 7fe2 a9bb 6503 12bf 4106 07bf
000000e0: 9fa4 f93c 198a 55be aaa6 1abf dbbc d83d
000000f0: 0c6d c4be fbd2 eabe 3594 e23d 4036 fe3d
00000100: 67a0 cebb c484 edba 6412 22be c103 8cbe
00000110: f991 99be dcde 9e3a 0978 d8be 8bac e03d
00000120: a627 403e 5325 d1be 8f5f 2abf 486d 113e
00000130: 6ee6 b43a 5ff5 b4be e2f7 5f3d eaef 303c
00000140: 8e65 4e3d e702 d03c e58a 4f3d fa53 0a3e
00000150: c9ce 12bf a302 103e 3ec7 223e 1b8a bbbb
00000160: c6d7 a33d 67eb cbbe 5fe8 abbe 654d 26bf
00000170: 7421 33bf 9b9a d3be bbcd 7f3c 6169 27bf
00000180: c48e f83d 0efd 11bf a348 92be f555 29bf
00000190: b5dc 00bf ef20 e9be 88f4 fdbd 05a1 2a3e
000001a0: ad8e 9c3d d7c3 64be 03ad 113e 9429 e7be
000001b0: 050a 763b a2fb 30bf 95f1 66bd 0dcf 27bf
000001c0: e0d7 d3be 1f5a 2dbf b736 21bf ef95 95bd
000001d0: 5227 843d 26d9 a63d 79e2 74be f4ea 823d
000001e0: ae9c 423d d275 623d d964 debe 9959 6e3d
000001f0: dd97 24bf
-0.43652928 -0.08516851 -0.002002341 -0.2686768 -0.5573257 0.13017151 0.072651856 -0.41491878
0.17796682 0.009425914 -0.28318766 -0.37593466 -0.36266512 0.08692694 -0.5591931 0.15655375
-0.37004638 0.17824449 -0.24333599 0.07811649 -0.08681949 0.067805536 0.09887879 0.11380513
-0.27912104 -0.693782 0.057303134 -0.15102719 -0.10243277 0.054577406 0.13400567 -0.12856974
-0.62114865 0.09146022 0.107376374 0.06883833 -0.44273022 -0.024103949 -0.20449387 -0.00063340197
-0.038713697 0.054682396 -0.23807837 -0.3340088 -0.35103166 -0.24558364 0.042032454 0.03869396
0.018268248 -0.24809618 -0.48130795 -0.094476335 0.0052789086 -0.005184471 -0.5703643 -0.5274392
0.030474005 -0.20853461 -0.6041056 0.10582896 -0.38364446 -0.4586409 0.110634245 0.12412691
-0.0063057425 -0.0018121232 -0.15827328 -0.27346614 -0.2999418 0.0012120861 -0.4227908 0.1097041
0.18765125 -0.4084879 -0.6655206 0.14201844 0.0013801584 -0.35343453 0.05467976 0.0107993875
0.05038982 0.025392009 0.05066957 0.13508597 -0.5734678 0.14063506 0.15896317 -0.0057232506
0.0800014 -0.39828035 -0.33575723 -0.64961845 -0.6997292 -0.41328892 0.015613015 -0.6539517
0.121366054 -0.57026756 -0.28571042 -0.66146785 -0.5033677 -0.4553294 -0.12400156 0.16662987
0.07644401 -0.22340332 0.14226155 -0.4514891 0.0037542593 -0.6913396 -0.056382734 -0.6555031
-0.41375637 -0.6771564 -0.62974113 -0.07303988 0.06452812 0.081468865 -0.23914517 0.0639247
0.047512703 0.055288143 -0.43436316 0.058190916 -0.64294225

layers.2.weight f4 [3, 125]
00000000: 54a5 9b3c e198 39be 6b3c 253e 6a8a a9bd
00000010: 7241 91bd ab36 f6bd 505f ebbd 84f1 ecbc
00000020: 8d62 ebbd 2654 02bd 93fb 533e 7ca6 4d3e
00000030: 058a b0bd b5be ba3d f118 8f3e 69f7 853e
00000040: 29e3 16be f03c 92be 65c1 08be df1f 3fbe
00000050: 0282 123f 18bc f93c 887f 0b3e 4db8 f1bd
00000060: 508c a1bc bc2e b83c 9389 2b3d dbfb 243e
00000070: e12a 10be 4d1a 143d c391 763d 62d8 503e
00000080: 68a4 a9bd 5065 39bd 4680 1e3e 6d55 97bc
00000090: 1e4f 4b3c 56d1 993e bcbf e03b 423c 2a3f
000000a0: fc3b 543d ab5a 7e3d 6f86 84bd bd75 6e3c
000000b0: ce8f bdbd 9a03 60bd 6f14 4ebb 6b17 47be
000000c0: 07be 18be a999 9d3d 0d20 323d f910 7d3e
000000d0: 173a e13e c278 a73d bd0c 6ebd 1725 853d
000000e0: f215 6e3d b9e1 773d 0a31 a4bd 3e09 08be
000000f0: 7fa0 87be beb8 b13e 9374 fd3c d55e 21be
00000100: 5005 103f 350c 203f f87d d23e 4be2 bf3d
00000110: 757c ca3d 7900 bf3e 56c9 39bd 3768 b23d
00000120: 5994 6fbe f245 a7bd 469c 523e 08c6 debd
00000130: 0a36 db3e d091 aa3d 89d7 f03c d6cd 473d
00000140: d09b 093c d171 b3bd 0af8 e13d 5b30 263e
00000150: 8897 4cb9 22b5 04be fdbf 41be 2cd7 fb3d
00000160: 0c1a c7bd 5dc7 2dbe ec39 423d bcc7 a8be
00000170: 79a3 79bd e853 6b3d e168 c7bd be93 193e
00000180: ff97 47bd f488 b93b fc76 c9bd b6f9 833d
00000190: 51e1 eabe b04d 213d adb0 bc3c 2d98 093e
000001a0: 651f 82bd 9a79 4abf 7f62 31bf 67df 8fbe
000001b0: c20c 903e 0df3 bf3c 6a8f 38be c153 043d
000001c0: a25e 50be e3c0 9c3d e77e 44bd 624a 0b3a
000001d0: b235 46bd 4151 18bd 5bc4 5fbf f03d afbd
000001e0: a69d 9fbc 3f19 2abd 9d70 6abd 1fee ccbd
000001f0: b156 ddbc 9ec7 30be 2066 c43e fc02 bdbe
00000200: 6c04 213e 5b3f a4bd c0e9 673e cc78 a83c
00000210: 17a4 6c3e b74c 4b3e 7498 9c3d c0f8 24be
00000220: eca9 24bf 6f93 54b9 d506 db3c 4c70 c3be
00000230: e90f 613c 3e7f 8d3d dc4f c93d 3ed9 9fbe
00000240: 6338 a73e 0801 80be a64f c03d 3cd8 873d
00000250: 88e7 043e 5caa 4d3c e5ef b83c 6a37 c83c
00000260: 87dc 1f3e 1715 183f b9f5 933d d1ab 94bd
00000270: 8eed b5be 578a 60bd ed7e c43d 50b5 37bc
00000280: 38c8 ab3d e63e f5bc 9733 cebe 6041 003d
00000290: cd78 e83e af85 9a3c 8a30 f93c 0ed1 51be
000002a0: c733 363d 79e9 d33d 923b 95be 09c5 6dbc
000002b0: e91f 8f3e c5aa bc3d 2aa3 473d bfd3 373d
000002c0: 9741 92be 4243 28be 2aae 59be 8a23 763e
000002d0: 2543 d63d 2d18 a13d 8b4a 913e 429d 0ebd
000002e0: ba51 1e3e d335 713e 0488 23bf ece5 0ebe
000002f0: 0c7a 85bd 682e 183f 137e adbc 24f4 9fbf
00000300: 3abf 36be 4b94 b53e 5534 a73e acaa 203d
00000310: 8768 20bd 7f1b 873e 1531 ed3d 2d82 4fbe
00000320: f9ef 8b3e 5fa9 a83e 18c9 373d 5c14 8b3d
00000330: fa67 023d 27b0 1cbc 5267 f1bd b3e9 1b3d
00000340: 79e9 e63d 52bf 6c3d a4d5 afbe 3733 e33d
00000350: e43d 64be 7635 30be 38c7 a13e 574d ebbe
00000360: b8c1 a83e 056a 23bd 614e 043e 7125 e93d
00000370: bbc8 1fbe 25c2 783e e5d5 183d c3db 0b3e
00000380: ee36 b7bd 4c48 f43e 30ba d7bd c485 903c
00000390: 5235 17be c723 9a3e a588 cabe e042 9f3e
000003a0: 6abe e63e 00e0 b33e 6ae7 3d3c f7b3 8cbc
000003b0: dec0 98bd a09f 8f3e 62a5 c33b 35d6 62bd
000003c0: a10e ccbd a59b 2abe 6e56 9d3d 1696 b0be
000003d0: a0c8 c33c c40d 48bd 2242 153d 5244 313d
000003e0: a276 353e bc81 a9bd c09f bd3d a48a f2be
000003f0: 1037 9a3e 37cd b5bd 46f4 aa3c 1279 0b3d
0.018999733 -0.18124725 0.16136329 -0.082783535 -0.07092561 -0.12022146 -0.11492789 -0.028923757
-0.114934064 -0.03181853 0.20701437 0.2008304 -0.08620075 0.09118406 0.27948716 0.2616532
-0.14735092 -0.28562117 -0.13355024 -0.18664502 0.57229626 0.030485198 0.13622868 -0.11802731
-0.019720227 0.022483222 0.041879248 0.161117 -0.14078857 0.036157895 0.060197603 0.20395043
-0.08283311 -0.045262635 0.1547862 -0.018473351 0.012409 0.30042523 0.006858794 0.66498196
0.051815018 0.062098186 -0.06470954 0.014554438 -0.09255944 -0.054690935 -0.0031445285 -0.19442527
-0.1491624 0.07695324 0.043487597 0.24713506 0.43989632 0.081773296 -0.058117617 0.06501215
0.058126397 0.060518 -0.08017166 -0.13284776 -0.26489636 0.3471126 0.030939376 -0.15758832
0.56258106 0.62518626 0.41111732 0.09369334 0.098870195 0.37305048 -0.045358025 0.08711284
-0.23396434 -0.08167638 0.20567426 -0.10877615 0.42814666 0.08328593 0.02939965 0.048780285
0.008398965 -0.08761943 0.11033638 0.16229384 -0.00019511406 -0.12959722 -0.18920894 0.122969
-0.09721765 -0.16970582 0.04741852 -0.32964885 -0.060946915 0.057453066 -0.09736801 0.14997765
-0.04872894 0.005662078 -0.098371476 0.06444113 -0.45875028 0.03938073 0.023033464 0.13436957
-0.06353644 -0.790918 -0.6929092 -0.2810013 0.28134733 0.023431325 -0.18023458 0.032306436
-0.203486 0.07653978 -0.047972586 0.0005313513 -0.04839105 -0.037186865 -0.8740899 -0.085567355
-0.019484352 -0.041527983 -0.057236303 -0.100063555 -0.027018877 -0.17263648 0.38359165 -0.3691634
0.15724343 -0.080198966 0.22647762 0.020565413 0.2310947 0.19853483 0.076462656 -0.16110516
-0.6432178 -0.00020272819 0.026736656 -0.38171613 0.013736703 0.06909035 0.09829685 -0.3122043
0.32660207 -0.25000787 0.09390192 0.0663304 0.12978947 0.012552824 0.022575328 0.024440486
0.15611468 0.5940718 0.07224602 -0.07259334 -0.35532802 -0.05481943 0.09594522 -0.011212662
0.08387798 -0.029937219 -0.40273735 0.031312346 0.45404664 0.018862573 0.030418653 -0.20489904
0.044482972 0.10347266 -0.2914701 -0.014512309 0.27954033 0.09212259 0.04873959 0.04487967
-0.28565666 -0.16431907 -0.21257845 0.24036995 0.104620256 0.07865939 0.28377184 -0.03481794
0.15460864 0.23555689 -0.6387942 -0.13954896 -0.06517419 0.5944581 -0.021178281 -1.2496381
-0.17846385 0.354647 0.32657114 0.039225265 -0.039162185 0.26388165 0.11581627 -0.20264502
0.27331522 0.3294172 0.044869512 0.067909926 0.03183744 -0.009563482 -0.11787285 0.03806467
0.11275 0.057799645 -0.34342682 0.11093753 -0.22289234 -0.17207894 0.31597304 -0.45957443
0.32960296 -0.03989603 0.12920524 0.113840945 -0.15603916 0.2429281 0.03731336 0.13658051
-0.08946024 0.47711408 -0.10533559 0.01764191 -0.14766434 0.3010542 -0.39557377 0.3110571
0.4506715 0.35131836 0.011590818 -0.017175658 -0.074586615 0.28051472 0.005970643 -0.055380065
-0.09963728 -0.16660936 0.07682501 -0.34489506 0.023899376 -0.048841253 0.036440022 0.043278046
0.17721036 -0.08276698 0.092589855 -0.473714 0.30120134 -0.08877032 0.020868432 0.03405101

layers.2.bias f4 [3]
00000000: f597 373e 2be5 063e 69dd 533e
0.17929061 0.13173358 0.2068993
