Pb_policy_iteration/models/cart_pole_pbpi_model.pt (torch, 323087 bytes, 24 tensors)

batch_norm_num.weight f4 [2]
000000 00 0c 05 3f 2c 52 f6 3f
       0.51971436 1.9243827

batch_norm_num.bias f4 [2]
000000 be 3f db 3f 10 ed c1 3f
       1.7128828 1.5150471

batch_norm_num.running_mean f4 [2]
000000 9c f6 2f 3c 48 44 d6 3d
       0.010739949 0.10462242

batch_norm_num.running_var f4 [2]
000000 05 05 a1 3b 49 3e a4 3e
       0.0049139285 0.3207877

layers.0.weight f4 [100, 2]
000000 c3 ad 1a 3f 83 16 0f 3f 89 82 df be b4 fd 0e bf
       0.6042139 0.55893725 -0.43654278 -0.5585587
000010 65 28 c1 be f0 16 22 3f 9a 19 01 bf a0 a7 2e 3f
       -0.3772613 0.6331625 -0.5042969 0.68224525
000020 56 2d 94 bf 56 9d dc be 39 0c 56 bf d5 62 da 3e
       -1.1576335 -0.43088788 -0.836124 0.42653528
000030 6e a8 16 3f 9e 28 02 bf fb 22 25 bf 2a de f6 be
       0.58850753 -0.50843227 -0.645065 -0.48216373
000040 2a 4d 0d bf a7 26 9e be 82 c9 17 3f e0 fb 01 bf
       -0.5519587 -0.30888864 0.5929185 -0.50774956
000050 2c e6 8b 3c 24 2d eb be 34 00 53 3d 0b af f9 3e
       0.017077528 -0.45932877 0.051513866 0.4876636
000060 62 16 a3 3e ce 80 aa be 8d 5b c0 bd c4 c7 44 bf
       0.31853014 -0.33301395 -0.09392462 -0.7686732
000070 91 a4 82 bf 4c 34 5e 3c aa f7 47 bf 99 a3 2d bd
       -1.0206472 0.013562273 -0.7811228 -0.042392347
000080 fa a4 c8 be 8e 28 38 bf 4f 65 2d be 20 f6 17 bf
       -0.39188367 -0.7193688 -0.16933177 -0.5935993
000090 d9 31 ec be 7e 6c 0f 3f f6 26 77 bf 5d 67 ba 3f
       -0.4613178 0.5602492 -0.96543825 1.4562794
0000a0 bf 14 d5 3f d8 24 84 3f a2 c2 eb be 62 62 fd be
       1.6646956 1.0323744 -0.4604693 -0.49489123
0000b0 63 71 9a be 96 4a 6a 3e 87 39 64 3f d3 3b f0 3e
       -0.30164632 0.22880015 0.8915028 0.46920642
0000c0 2c f1 1d 3f db f6 b7 be a3 3e 85 bf e5 2e 1c 3f
       0.61696124 -0.35930523 -1.040974 0.61009055
0000d0 22 58 3a bb a4 00 d6 3e 47 65 fd be 8b 44 cc 3e
       -0.002843388 0.41797364 -0.4949133 0.39896044
0000e0 6e b2 9b 3e 97 96 0c bf 4e 3b 17 bf 32 fd 38 bd
       0.3040957 -0.5491728 -0.59074867 -0.04516334
0000f0 8f ea 2f bf 7c 8b d0 3c 54 91 38 3f 6c 4e 22 bf
       -0.68717283 0.025457136 0.72096753 -0.6340091
000100 5f 37 64 3d 5f 54 50 3e ba 22 da be 2b d1 c2 3e
       0.05571687 0.20344685 -0.4260462 0.38050207
000110 99 17 8a bf 6c 9e 62 3d 2c 93 be 3d 7e 02 ac be
       -1.0788451 0.055326864 0.093054146 -0.3359565
000120 9a ca 6e bf cc 05 b0 3e 2f 7d 83 3e 45 dd 39 3f
       -0.93277895 0.34379423 0.25681445 0.72603256
000130 fe 40 c4 be 20 40 17 3f e1 a7 e3 3e 84 05 dc be
       -0.38330835 0.5908222 0.4446402 -0.42972958
000140 66 82 b4 3e 18 44 1e bf 82 dc bb be ff 41 47 bd
       0.35255736 -0.6182265 -0.36691672 -0.048646923
000150 59 4b 06 bf 66 f3 d1 3e ef 91 81 bf cc d1 03 be
       -0.5245872 0.4100601 -1.012266 -0.12873
000160 8f 63 13 3f ec c9 96 be e0 07 14 3c 84 3f 96 be
       0.5757379 -0.2945093 0.009035081 -0.29345334
000170 5a fc 24 bf 2d 22 15 bf 10 f3 91 3e 4a e7 21 3f
       -0.6444756 -0.58255273 0.28505754 0.63243544
000180 fa df 55 bf fc 8d 9a 3e 04 5c 2e bf 40 82 bc 3b
       -0.83544886 0.3018645 -0.68109155 0.0057528317
000190 ce 28 93 3d 3c 38 de be 2b 75 1a bb ae cc 08 3f
       0.07185517 -0.43402278 -0.0023568373 0.53437316
0001a0 c7 b7 80 3e 3d f1 84 bf c5 c5 00 3f bf a4 5f 3f
       0.2514021 -1.038612 0.5030177 0.8736076
0001b0 f8 7b 64 bd dc 06 ca be 94 1f 10 c0 b1 f3 31 bf
       -0.05578229 -0.39458358 -2.2519274 -0.6951247
0001c0 8b 9b df be 60 8f 15 bf da bc f0 3e 66 2e a2 3e
       -0.43673357 -0.584219 0.47019082 0.31676024
0001d0 1a ee a2 3e de da 4e 3f 4b c8 d6 3e a8 b1 ae be
       0.31822282 0.80802715 0.41949686 -0.34119916
0001e0 47 0c 2f bf 97 01 20 40 1a bc 75 be 65 81 68 3f
       -0.6837811 2.500097 -0.23997536 0.9082244
0001f0 73 53 8b bf 9f 44 89 3d 05 a7 91 be 1a aa 3a be
       -1.0884842 0.067025416 -0.28447738 -0.18228951
000200 d2 06 1b 3e 84 ac fc bd a8 51 bf bd 44 c4 b3 be
       0.1513932 -0.12337592 -0.093417466 -0.35110676
000210 b4 64 3a bf 42 b4 9c 3d 3c 02 f0 3e 04 69 0f 3f
       -0.7280991 0.07651569 0.46876705 0.56019616
000220 62 3d e5 be 9f 76 ca be e6 ad 1c bf 55 3d 81 3a
       -0.44773394 -0.39543626 -0.6120285 0.0009860197
000230 85 5c 04 3f 52 5c 8d 3f e5 b4 6c 3f 18 81 74 3f
       0.51703674 1.1043799 0.92463523 0.9550948
000240 d7 fc da be a7 cb 46 3f 7a 7c 9e 3e 4d 86 10 bf
       -0.42771026 0.776545 0.30954343 -0.56454927
000250 ee ee 8b 3e 4a 2f 14 3f e7 10 1b 3f 1a c6 85 3e
       0.27330726 0.5788466 0.60572666 0.26127702
000260 e8 8b 91 3b 39 4a 0d 3e 92 49 88 3e 9e 71 4c bf
       0.004441727 0.13797845 0.2661863 -0.79860866
000270 33 ca 10 bc 47 64 91 be f7 76 03 bf dd 04 7e be
       -0.008837271 -0.28396818 -0.513534 -0.24806543
000280 d6 fe c0 40 1a 35 7a c0 e2 1c 21 bf 6a 5f da 3e
       6.031108 -3.909491 -0.62934697 0.4265092
000290 2f f1 37 3f ca 87 89 3e 42 7a 5d bf a9 1a b2 be
       0.7185239 0.2686141 -0.86514676 -0.34785965
0002a0 c0 5a fa 3e de 87 d2 3d c0 84 43 3d e0 48 95 bd
       0.48897362 0.10279821 0.047734022 -0.072892904
0002b0 d4 e6 32 3f f5 73 95 3d 9e 3d d9 bc 5e 56 14 3f
       0.69883466 0.07297508 -0.02651864 0.57944286
0002c0 fa bd d4 be 03 5e 64 3e e4 9d 84 bf a3 68 1c 3f
       -0.4155119 0.22301488 -1.0360684 0.6109716
0002d0 5d 94 d0 bd 42 97 2b bf 0e a4 45 3f 8b 22 9d 3e
       -0.10184548 -0.67027676 0.7720345 0.30690417
0002e0 0e b9 20 be 4b ab 2f bf 6f 24 de bf d6 14 de 3e
       -0.15695593 -0.6862075 -1.7354869 0.43375272
0002f0 4c 41 22 bf 46 ac 5b be 55 4e 1d bf ec c7 3f bd
       -0.63380885 -0.21452436 -0.6144765 -0.04682152
000300 10 2f a8 3e c4 05 60 be 98 5d 2e 3b 14 88 c0 be
       0.32848406 -0.218772 0.002660608 -0.3760382
000310 01 d7 a7 3f b4 d5 0c be 60 ff 41 3e 68 5b 31 bf
       1.3112489 -0.13753396 0.18945074 -0.692801

layers.0.bias f4 [100]
000000 a2 87 31 be a5 b4 2d 3f 6e 0b 07 bf d6 aa 51 be
       -0.17336896 0.67853767 -0.52751815 -0.20475325
000010 41 e7 2a bf fa be 8c bf bd bd 8c bc 34 7e 22 bf
       -0.66759115 -1.0995781 -0.017180318 -0.6347382
000020 9f 3d 73 3e 3c 6d 39 3e 96 18 03 3f bf db b2 3e
       0.23753975 0.18108076 0.5120939 0.34933278
000030 91 b2 9f be 29 4c ff be ae 00 d9 3e 9c 26 e8 3e
       -0.31190923 -0.49862793 0.4238333 0.45341957
000040 3a c4 80 3e 86 8f 60 bf 20 0d e9 3e 77 ec 09 3f
       0.2514971 -0.87719 0.45517826 0.5387644
000050 c9 e2 ba bf 48 d3 81 3e ae 8d 44 3f eb a1 2a 3f
       -1.4600459 0.25356507 0.76778686 0.6665332
000060 ca ee 1e 3f 54 db 05 3f 01 87 10 bf bc a3 03 3f
       0.62083113 0.52287793 -0.56456 0.51421714
000070 f2 04 9f be ea b7 55 3e 49 79 11 bf 4d f9 3c 3f
       -0.3105846 0.20870939 -0.5682569 0.738179
000080 1f c8 a6 be 64 02 5a 3e 59 4a c4 3e a0 ee a6 3e
       -0.32574555 0.21289974 0.38337973 0.3260393
000090 97 75 30 3e a6 23 2c bf 95 7a ce 3e 54 5c 58 be
       0.17232357 -0.67241895 0.40327898 -0.2112897
0000a0 18 59 31 be 1c db 4b 3f 3c 8d 04 3f b8 f0 7a bd
       -0.17319143 0.7963121 0.51778007 -0.061264724
0000b0 ee df dc 3e c8 2f 65 bf 80 d6 12 bf f1 57 f4 be
       0.43139595 -0.89526033 -0.5735855 -0.47723344
0000c0 f3 91 1c 3d b9 67 4d 3e fd 36 80 bf 97 76 2e bf
       0.038225126 0.20059098 -1.0016781 -0.68149704
0000d0 b7 52 48 bf f2 80 23 be a3 ff 24 bf 39 8a 14 3e
       -0.7825121 -0.15967157 -0.6445257 0.14505853
0000e0 d1 f1 48 3e 25 ac a0 be fb 61 10 3f 3c bc e9 be
       0.19623496 -0.31381336 0.56399506 -0.45651424
0000f0 7a e6 05 3f c9 67 0a 3f e4 d5 92 3e 4c 01 1c bf
       0.52304804 0.54064614 0.2867881 -0.6093948
000100 80 54 19 bf c7 3f 2f bf 40 91 ad 3d dd d3 96 be
       -0.5989456 -0.6845669 0.0847497 -0.29458514
000110 98 b0 29 bf 4c 6a b4 bc 0a 47 e2 3e a4 64 95 bf
       -0.66285086 -0.022023343 0.44194824 -1.1671338
000120 71 1a 1c bf 83 18 9c 3e 7a d8 1d be de 44 09 bf
       -0.60977846 0.3048745 -0.1541461 -0.5362071
000130 d8 53 3e bf 6e 8d 9d 3e 29 47 02 bf fa 0c c5 3e
       -0.74346685 0.30771965 -0.5088983 0.38486463
000140 df 4e aa c0 0e 25 17 3f a6 d2 e3 3e dc 0a dc 3e
       -5.322128 0.59040916 0.4449665 0.42977035
000150 62 3e c9 3e d4 d2 1f bf df d2 b8 3d f3 f8 5c be
       0.39305407 -0.62431073 0.090245955 -0.21579342
000160 98 8f 32 bf 37 89 ef 3e 13 d3 78 3f 96 0e ba bd
       -0.69750357 0.46784374 0.97197074 -0.09084813
000170 8d f6 e4 3e ea 3b b5 3e 43 41 44 be 74 60 2d bd
       0.44719353 0.35397273 -0.1916552 -0.042328313
000180 6d 94 6a be 0e c4 38 bf 88 44 39 be 7e 5c 34 3f
       -0.22908182 -0.72174156 -0.18092549 0.7045363

layers.2.weight f4 [100]
000000 4a 0e 6f 3f 2d 8f 10 3f 7e 55 50 3f d5 ec 36 3f
       0.9338118 0.5646847 0.8138045 0.71455127
000010 f2 cd 9d 3f 59 df 78 3e e8 15 ce 3e 54 cb 7f 3f
       1.2328475 0.2430395 0.40251088 0.9991963
000020 11 94 a4 3f 66 37 64 3f 3c ad 3f 3f e1 ea 80 3f
       1.2857686 0.8914703 0.7487371 1.0071679
000030 70 c9 5d 3f b4 62 65 3f 1e aa 9b 3f c8 ff 61 3f
       0.86635494 0.89603734 1.2161291 0.88280916
000040 d2 4d 9e 3f de f7 3e 3f 90 ab 8b 3f 7a fb c1 3f
       1.2367499 0.74596965 1.0911732 1.515487
000050 c6 db 99 3f e4 4b 83 3f 51 c9 a2 3f 80 50 6b 3f
       1.2020195 1.0257535 1.2717687 0.9191971
000060 7a 12 73 3f 59 7d 93 3f c9 61 b5 3f 8a 65 82 3f
       0.9495007 1.1522628 1.4170467 1.0187237
000070 ef e3 82 3f 72 45 81 3f 95 98 5a 3f 59 b8 7c 3f
       1.022581 1.0099318 0.8538907 0.9871879
000080 3d dd 88 3f bf 3f b5 3f 48 2c 53 3f 38 67 4f 3f
       1.0692517 1.4160079 0.8248944 0.81016874
000090 fe 5c 68 3f 5e 2f 7a 3f d3 ab 6d 3f ad d1 66 3f
       0.90766895 0.97728527 0.9284031 0.9016369
0000a0 2e bb 43 3f 60 d8 92 3f 02 8e ac 3f 17 3b d5 3f
       0.7645749 1.1472282 1.3480837 1.6658658
0000b0 e2 26 59 3f 51 0e 75 3f 88 7f 9c 3f d7 64 99 3f
       0.84824955 0.9572497 1.222642 1.1983899
0000c0 e7 de 6d 3f ce 1c 4a 3f db 33 84 3f 58 d6 9e 3f
       0.92918247 0.789502 1.0328325 1.2409163
0000d0 97 c1 9c 3f af c8 b3 3f f7 1c 7c 3f d1 15 5e 3f
       1.2246579 1.4045619 0.98481697 0.8675204
0000e0 a6 b3 90 3f f0 92 93 3f f3 b5 84 3f 5b 6b 7c 3f
       1.1304824 1.1529217 1.0368026 0.9860131
0000f0 64 55 58 3f 44 5e 76 3f 2d 65 88 3f d0 cd 54 3f
       0.84505296 0.9623759 1.0655876 0.83126545
000100 e7 ba 47 3f 00 00 80 3f f2 f6 6a 3f 98 a0 4c 3f
       0.78019565 1.0 0.9178306 0.79932547
000110 dc e7 5d 3f 16 b0 a0 3f 36 22 86 3f de d3 60 3f
       0.86681914 1.2553737 1.047919 0.87823284
000120 70 47 48 3f 02 3b 68 3f ea b1 06 3f fb 3d 9b 3f
       0.78234005 0.9071504 0.52615225 1.212829
000130 41 61 4e 3f b9 31 44 3f 35 4e 7f 3f 18 57 95 3f
       0.8061715 0.7663837 0.9972871 1.1667204
000140 7a 1a 93 3f 91 bc 67 3f 93 6f b9 3e 51 d0 bf 3f
       1.1492455 0.90522105 0.36217937 1.4985448
000150 70 cf 4e 3f 00 00 80 3f 8b da 06 3f 82 22 a3 3f
       0.80785275 1.0 0.5267722 1.2744906
000160 10 dc 6f 3f fc 36 85 3f f9 2d 9b 3f c3 69 92 3f
       0.93695164 1.0407405 1.2123405 1.1438526
000170 77 0e 8e 3f 6a 3d 40 3f 6e 34 b6 3f 36 07 48 3f
       1.1098164 0.7509371 1.423475 0.78136003
000180 8a f3 3a 3f c7 f5 7f 3f 43 29 c1 3f 9d d7 65 3f
       0.7302786 0.999844 1.5090717 0.89782125

layers.2.bias f4 [100]
000000 b0 16 30 be 8e 47 2e bf a3 dc 92 3d 0c a4 c9 bd
       -0.17196155 -0.68077934 0.07170989 -0.098457426
000010 1d 0a f0 be 2b 29 00 bf b5 4c 36 be a3 e5 bb 3d
       -0.46882716 -0.5006282 -0.17802699 0.09174659
000020 a3 f0 75 be 8d e4 d9 bd 4f 07 4e bd 37 32 86 3e
       -0.24017577 -0.10639296 -0.05029994 0.26210186
000030 07 8f 4f 3e e9 45 a1 be 0b 88 2c be 02 f2 ac bd
       0.20269404 -0.3149865 -0.16848771 -0.08444597
000040 8c 3f a3 bd ca 0a 6b be 95 56 15 bf 83 64 1d bd
       -0.07971105 -0.22953334 -0.5833524 -0.038425934
000050 82 4a 56 be a8 70 ff be 6e fc a3 3d 7c ce e9 be
       -0.2092686 -0.49890637 0.080071315 -0.45665348
000060 90 d6 93 be 7f 94 0d bf 9d 06 34 bf 0c ec 3e 3e
       -0.28874636 -0.5530471 -0.7032259 0.18644732
000070 7c 85 0a be 5c a0 69 3e 8b 03 e8 3d c4 32 9c 3c
       -0.13527483 0.22815078 0.11328801 0.019067176
000080 09 cf d1 3e c1 71 de be 1c 2c c1 3c 92 e7 fb be
       0.40978268 -0.43446162 0.023580603 -0.49200112
000090 47 72 09 be e8 99 2d 3e cf 7b 5b bd 2c 04 16 be
       -0.134225 0.16953242 -0.05358487 -0.14650029
0000a0 60 69 8c 3d 20 aa 05 3e 1b d1 91 be 2a b2 e6 3e
       0.06856036 0.13053179 -0.28479847 0.45057803
0000b0 dd a3 b1 3e 06 ae 15 3e c0 68 a9 bd c2 19 9a 3e
       0.3469533 0.14617166 -0.082719326 0.30097777
0000c0 0d 8e 2a 3e 31 5b be be 23 67 ce be a6 3e 04 bf
       0.1665575 -0.3717895 -0.40313062 -0.51658094
0000d0 23 48 ba be af 6c 6d bf 8b 90 20 3e 94 78 4e 3e
       -0.3638316 -0.92743963 0.15680139 0.20163184
0000e0 0e 89 31 3c 11 57 ca 3d 57 d4 0e be 6c 05 e4 3e
       0.010835899 0.09879888 -0.13948189 0.44535387
0000f0 55 61 23 be 58 af 8d 3d 03 ac 36 bf a9 6f 66 3d
       -0.15955098 0.0691821 -0.7135622 0.05625883
000100 a9 9d a5 3e 79 5e 40 3e c9 1e 50 3c a4 ec 29 bd
       0.32346848 0.18786038 0.012702652 -0.041485444
000110 7b 6e d5 be 44 ff 02 bd bf b7 c0 be c5 10 f2 be
       -0.41685852 -0.03198172 -0.37640187 -0.4727842
000120 0a 29 26 3f 37 0e 9b 3c 53 f9 fd bd e6 50 ba b8
       0.6490637 0.018927677 -0.124010704 -8.88424e-05
000130 69 e8 49 3e 77 49 93 3d 1d 66 3d 3e bb 39 51 bc
       0.19717564 0.07191747 0.18495984 -0.012770112
000140 f7 86 6d be 18 df 60 3e a6 e4 fd 3e dc 7f 82 3d
       -0.23196016 0.21960104 0.49588507 0.063720435
000150 d8 a5 bf 3c 75 22 90 be 32 10 86 bc 18 34 32 be
       0.02339451 -0.2815129 -0.016365144 -0.17402685
000160 b9 0e a6 3d b8 0b 53 be 46 d3 3d 3e 98 59 63 3e
       0.08108277 -0.20609939 0.18537626 0.22202146
000170 95 2e 28 3e 6b c6 93 3d f9 f7 be be ed ba 5b 3d
       0.1642402 0.072155796 -0.37298563 0.053645063
000180 20 fc 2c bd 77 ff 9c be 54 07 52 be 5a a3 4f 3f
       -0.042232633 -0.30663654 -0.20510608 0.8110863

layers.2.running_mean f4 [100]
000000 55 10 de 3f 27 8b 1d 3e 11 f4 c9 3e 0a 79 03 3f
       1.7348734 0.15385114 0.3944402 0.51356566
000010 55 32 0b 3a 6e f4 be 20 33 df fc 3e 82 66 54 3b
       0.0005309929 3.2349002e-19 0.49389037 0.0032409732
000020 5b 4a 05 3c 3d b5 1c 3f c9 34 a3 3e 11 6e 9a 3f
       0.0081354035 0.6121405 0.3187621 1.206484
000030 54 0a 0c 3e d3 c1 5b 3d 04 00 00 00 02 87 43 37
       0.13675815 0.053651642 6e-45 1.165434e-05
000040 a8 fb df 3d 01 c6 e8 3b 86 2c 3a 3f ce d3 e0 3f
       0.109366715 0.007103682 0.7272419 1.7564638
000050 04 49 44 40 b9 14 41 3d b6 62 1a 3f ab fc 39 40
       3.0669565 0.047138903 0.6030687 2.9060466
000060 9e d1 91 3f 2c 36 8e 3e c0 f0 c7 3e 23 1e e5 3e
       1.1392095 0.27775705 0.39050865 0.44749555
000070 a3 d1 34 3e 6d 40 1a 22 04 00 00 00 47 a5 8d 3f
       0.17658095 2.0904999e-18 6e-45 1.1066064
000080 6a b3 63 3e 93 5d a0 3e 04 00 00 00 60 22 88 3e
       0.2223641 0.3132139 6e-45 0.26588726
000090 f2 8e cd 3c f9 c0 91 3f ca 77 56 3f ae b2 8c 3e
       0.025092576 1.1387016 0.83776534 0.27480072
0000a0 0e 6d 8a 3e 48 cf 27 3e b8 1d df 3e 5c 86 55 0c
       0.27036327 0.16387665 0.4357736 1.6449355e-31
0000b0 44 15 7a 3f 5e b8 86 3a 6f 75 c6 3b 01 01 92 3f
       0.976887 0.0010278334 0.0060564796 1.1406556
0000c0 c1 ba 53 3c 04 00 00 00 4b b7 7f 3b 4f a1 05 3f
       0.012922944 6e-45 0.0039019163 0.5219926
0000d0 47 cf 18 3e a6 fb 07 40 cd 24 98 3b fd 1d 83 3b
       0.1492282 2.1247344 0.004643059 0.0040013776
0000e0 41 e7 77 3d aa 83 7e 3f 95 83 16 40 bd df 11 3e
       0.060523275 0.99419653 2.3517811 0.14245506
0000f0 48 a2 78 40 da ca d6 3f 04 00 00 00 c3 23 d4 1d
       3.8849049 1.6780655 6e-45 5.615291e-21
000100 c5 20 96 38 b9 7c 4b 3b 04 00 00 00 b2 19 b6 3f
       7.158661e-05 0.0031049682 6e-45 1.4226592
000110 f1 5a 0e 3b 04 00 00 00 63 1c 43 40 1f 87 04 40
       0.0021721686 6e-45 3.0486076 2.0707471
000120 3e ce 08 3f 52 71 e1 3e fc d3 a3 3f 7a ae 6b 3f
       0.534397 0.4403177 1.2799067 0.92063105
000130 04 00 00 00 93 32 e6 3e 2c 19 53 3b dc 1e 87 3c
       6e-45 0.4496046 0.0032211049 0.016494207
000140 e9 51 18 40 39 c4 c9 3e 2d 4c 05 40 8a 85 d1 3b
       2.3799994 0.39407519 2.0827744 0.006394093
000150 87 76 b1 3f 00 00 00 00 ac ef b2 3f c3 52 57 3f
       1.3864297 0.0 1.3979392 0.8411066
000160 04 00 00 00 b8 eb 84 3e a9 34 f7 3e 99 90 d9 3f
       6e-45 0.2596109 0.48282364 1.6997253
000170 b1 2c 6f 3e f0 d2 d0 3b 57 bc 1a 3a 04 00 00 00
       0.23356892 0.006372802 0.00059026986 6e-45
000180 7c 59 22 3e c1 d9 83 3b 88 b4 ed 3f 7b db 0f 3f
       0.15854448 0.004023761 1.8570719 0.56194276

layers.2.running_var f4 [100]
000000 b9 5b 04 40 e4 2e 04 3e 54 e3 c7 3e 07 99 12 3f
       2.0680983 0.12908512 0.39040625 0.5726475
000010 f6 72 ac 38 b3 18 56 1e e6 f0 ec 3e 41 aa 14 3b
       8.223012e-05 1.1334173e-20 0.4627754 0.0022684487
000020 79 f1 a6 3b 89 62 18 3f a9 40 82 3e bf 41 94 3f
       0.0050947038 0.5952535 0.25439957 1.1582564
000030 b7 d6 83 3d 19 55 2a 3d 04 00 00 00 9d 5d 49 33
       0.06437438 0.04158506 6e-45 4.68841e-08
000040 66 df bd 3d 81 d2 04 3c f1 a6 3e 3f 1e 86 95 40
       0.092711255 0.008106829 0.7447348 4.6726217
000050 32 5b f7 40 b4 45 e6 3c 10 6a 51 3e 4e 33 fe 3f
       7.7298822 0.028109409 0.20450616 1.9859407
000060 3b 15 ff 3e f0 ab 8a 3e ac 11 96 3e dc d0 a0 3e
       0.49820885 0.27084303 0.29310358 0.31409347
000070 56 e5 00 3e 5f 7c a6 1e 04 00 00 00 4a 35 a5 3f
       0.12587485 1.7627372e-20 6e-45 1.2906888
000080 90 49 b3 3d 42 c8 4f 3e 04 00 00 00 2a 48 25 3e
       0.08754265 0.20291236 6e-45 0.1614081
000090 7b eb 39 3c d7 ef e6 3f 86 d4 6e 3f 61 8c 4d 3e
       0.011347647 1.8041943 0.93293035 0.20073082
0000a0 4a 40 77 3e 3e 4c 21 3d 61 c2 9f 3e 35 37 e0 09
       0.24145618 0.03937935 0.31202987 5.3977955e-33
0000b0 cf 6d ab 3e 70 6a a1 39 8d a6 ce 3b 4e 5f ce 3f
       0.33482215 0.00030787615 0.0063064755 1.6122835
0000c0 3f e4 87 3b 04 00 00 00 b1 ff 29 3b 32 ee 01 3f
       0.004147082 6e-45 0.0025939757 0.5075408
0000d0 1c 4a 1d 3e 3e fe 7c 40 b9 ce 62 3b 8b cd 98 3b
       0.15360302 3.9530177 0.003460808 0.0046631745
0000e0 1f 51 26 3d 42 e0 3a 3f ba 43 69 40 7c b3 90 3d
       0.040604707 0.7299844 3.6447587 0.07065484
0000f0 47 6c 9b 41 f7 a3 40 40 04 00 00 00 7d dc a2 1a
       19.42787 3.0100076 6e-45 6.735785e-23
000100 cd 8f c8 35 86 24 dd 3a 04 00 00 00 23 92 e0 3f
       1.4943013e-06 0.0016871847 6e-45 1.7544597
000110 26 9e 98 3a 04 00 00 00 d6 16 d8 40 09 a7 95 40
       0.0011643812 6e-45 6.7527876 4.67664
000120 ab 33 2a 3f aa d3 e2 3e b6 a2 cb 3f c6 40 22 3f
       0.6648509 0.44302112 1.590903 0.63380086
000130 04 00 00 00 c0 2b 13 3f d6 54 db 3a b7 9e c6 3b
       6e-45 0.5748863 0.0016733657 0.0060614008
000140 4c 73 7b 41 63 cc 94 3e 61 f3 52 3f 09 71 bb 3b
       15.715649 0.29062185 0.82402617 0.005720262
000150 7d ce 58 3e 04 00 00 00 1f f5 8e 3e d2 e7 7c 3f
       0.21172519 6e-45 0.27921388 0.9879123
000160 04 00 00 00 d4 b7 7f 3e 57 c9 13 3f 9b e3 81 3f
       6e-45 0.24972469 0.57729095 1.0147585
000170 a0 53 6d 3e 6a 3b c2 3a 5c f9 d4 38 04 00 00 00
       0.23176432 0.0014818732 0.000101553946 6e-45
000180 c4 02 79 3d 07 45 2d 3b 5c 52 01 3f 53 b3 35 3f
       0.060793653 0.0026438849 0.50516295 0.7097675

layers.4.weight f4 [500, 100]
000000 14 31 12 3e a5 66 13 3d 8b ad 73 3d 40 49 f9 3c
       0.14276534 0.03598656 0.059491675 0.030430436
000010 6b 9b e9 bc 34 5a 3b bd e1 cd 4a bc c2 f3 7e bd
       -0.028516492 -0.04574032 -0.012378187 -0.062244184
000020 fe 3f 46 3c 01 9d 8a bc ff 93 22 3d 14 37 e3 3d
       0.012100218 -0.016920568 0.03969192 0.1109449
000030 91 b4 f6 3c bd 14 9c 3c 68 c3 84 3c 51 a9 fd bd
       0.030115398 0.019052858 0.016206458 -0.1238581
000040 16 74 2b bd 7e 0b 29 3c 1d 4f f3 3c 91 e8 0a bc
       -0.041858755 0.010317681 0.02970081 -0.0084783
000050 2e 98 28 3e cf fa 0a be 82 c7 f4 bc 7e 98 8f bd
       0.16464302 -0.13572238 -0.029880289 -0.070115075
000060 00 15 f1 3d 4c 2e ac bb 39 c4 15 3d 73 5f 90 bb
       0.117715836 -0.0052545425 0.036564086 -0.0044059097
000070 fc cc f8 bd b3 df 11 be a1 36 09 3d d6 18 63 bc
       -0.12148473 -0.1424549 0.033499364 -0.013860902
000080 13 55 24 3e 86 bb 25 3a 1a 21 bb bd cc 55 31 bd
       0.16048078 0.00063221937 -0.09137173 -0.043294713
000090 9a cc 98 bc 86 b4 33 3e 38 67 09 bd 99 fd 87 bc
       -0.01865225 0.17549333 -0.033545703 -0.016600417
0000a0 a0 38 91 3d 28 45 ff bc 22 7e 00 be 06 df 1f 3d
       0.070908785 -0.031160906 -0.12548116 0.03903105
0000b0 39 c8 82 3d bb 31 b5 3c 57 0a ad bd 5f d8 6b 3d
       0.06385846 0.02211844 -0.08449238 0.057579394
0000c0 82 e1 cb bd 4a 9f 0a 3d 96 bd 7f 3d 85 a5 15 3e
       -0.099551216 0.033843316 0.062436663 0.14613922
0000d0 85 0a c5 bd ef 60 05 3e e6 b3 7f 3d f1 d5 75 3d
       -0.09621147 0.13025258 0.062427424 0.060018484
0000e0 13 a2 94 bc 6a 21 b6 3d 6c 6f 90 3d cb 81 35 3e
       -0.01814369 0.08893092 0.07052502 0.17725293
0000f0 11 51 2d 3d 21 d2 b4 3d 33 33 4b be e1 44 43 3d
       0.04231364 0.088291414 -0.1984375 0.04767311
000100 74 79 cc ba e1 08 b0 3c 5b 34 68 3c 21 41 1e 3d
       -0.0015600161 0.021488609 0.014172639 0.03863633
000110 a8 d9 ce bd 52 19 c8 bd 32 2b 20 3e 46 2d 2f 3d
       -0.101001084 -0.097704545 0.15641478 0.042767785
000120 77 b1 9b 3c 9b b4 68 3d f8 a9 ff 3d 15 17 38 3d
       0.01900552 0.056812864 0.12483591 0.044943888
000130 14 da 82 bd cd 1e bb 3d 56 cd 19 3d 09 74 0f bd
       -0.06389251 0.09136734 0.03754934 -0.03502277
000140 83 68 00 3d 57 5f 14 bd a1 48 5f 3b a2 e9 21 be
       0.03134967 -0.036223736 0.003407039 -0.1581178
000150 49 25 85 3c 12 f3 63 bb 55 f4 56 bd 4f 4c 4e 3e
       0.01625313 -0.0034782332 -0.052479107 0.20146297
000160 08 1e cb 3c 62 fc 9d 3c 3c 2c d5 3a 3d b2 e6 3c
       0.024794593 0.019285385 0.0016263793 0.028161163
000170 13 22 02 be 33 e3 e4 bb 2d cc 7a bb d5 fb d0 bd
       -0.12708311 -0.006985092 -0.003826867 -0.10204283
000180 03 b7 30 bb 8c d3 72 3d 2c 9e b1 3d d5 cb 99 3b
       -0.0026964552 0.059283778 0.08672747 0.004693488
000190 dd 01 a6 3d 6e 6c ac 3d fb c0 33 3e ba 73 2f 3c
       0.08105824 0.08419119 0.17554085 0.010708744
0001a0 d3 a9 18 be 80 5d e7 bd 4b c0 41 bd 14 dc 14 be
       -0.14908533 -0.112971306 -0.047302525 -0.14537078
0001b0 5a c3 c7 bd c0 84 b7 be 90 ac cd be 2e 00 70 bd
       -0.09754057 -0.35843468 -0.40170717 -0.05859392
0001c0 81 6a 5f 3d 49 61 50 3d e8 3b 36 3e 8f cb 12 be
       0.05454493 0.05087403 0.1779629 -0.14335464
0001d0 3f 78 27 be c6 cb 12 3d 72 c6 4f 3d b2 fa 2a 3d
       -0.16354464 0.035838865 0.05072636 0.041742988
0001e0 cb 79 ab 3d 9c 0b fd bb df 7d 18 be 1e 7b 67 3d
       0.083728395 -0.007722331 -0.14891766 0.056513898
0001f0 9a bf 5f bd 09 fb bf 3d 59 df ab bc ab 21 e6 3d
       -0.054626085 0.09374053 -0.020980524 0.112368904
000200 ac 2d c6 bd 90 de 7a 3e b7 40 53 be 44 f9 2b bd
       -0.0967668 0.24498963 -0.20630156 -0.041985765
000210 19 ac 93 bd c2 9f 94 bd af 33 3b 3e ce 02 92 3d
       -0.072105594 -0.07257034 0.18281434 0.07129441
000220 63 75 f8 ba a9 45 ba 3d 85 e0 b7 3e a8 d0 09 be
       -0.0018955882 0.09095318 0.35913482 -0.13458502
000230 c0 f0 9f be df 27 1c 3c 43 f2 57 3e 17 18 67 be
       -0.31238365 0.00953099 0.2108851 -0.22567783
000240 0b fa 2b be a7 f6 8b bd 3b db be 3d 2c 9a d1 3e
       -0.16794603 -0.068341546 0.09319159 0.40937936
000250 a6 5a 13 3e 29 43 5d 3d d9 15 69 3c 79 f4 00 bd
       0.14390048 0.054019127 0.0142264 -0.031483147
000260 1d 3c bb be 95 a8 79 be 7d ea 54 bc 91 8a 5e 3e
       -0.365693 -0.24380715 -0.0129953595 0.21732546
000270 dc 5f a2 3d c2 3c 9d be ac ee 95 3d 8b 0b b9 bd
       0.0792844 -0.30710417 0.07320914 -0.09035405
000280 f9 d8 4d bd 18 a6 02 3e ce bc f1 bc 62 54 62 be
       -0.05025575 0.12758672 -0.029508974 -0.22102502
000290 01 bf aa 3d 4e 47 9c 3c 47 53 99 3d 9c 49 2e 3d
       0.08337212 0.01907697 0.07486587 0.042550668
0002a0 5e 0f 4a 3e 9e 60 c6 bd 18 17 aa be de 1c d7 bd
       0.19732425 -0.09686397 -0.33220744 -0.10503553
0002b0 f7 39 99 bd f3 cb 8e be c8 1e 85 3e 8a 8e b3 be
       -0.07481759 -0.27889976 0.26000047 -0.35069686
0002c0 91 42 25 3e 9c 02 e8 bd df 99 e3 bc 32 b7 57 bc
       0.16138674 -0.11328623 -0.027783332 -0.013166236
0002d0 e1 8c de 3d 79 47 be bd a7 54 51 be 5d 12 06 be
       0.10866714 -0.09290976 -0.20442449 -0.13092943
0002e0 81 61 3b bd 89 c6 3e 3d 8a de e3 bd 22 78 a9 bd
       -0.045747284 0.046576057 -0.1112643 -0.08274867
0002f0 cc a0 f3 b9 ec b7 2f 3e 38 1d 0a be ce bc c4 3e
       -0.00046468375 0.17160004 -0.13487709 0.38425297
000300 59 0c 8e be 30 af 49 be 11 e9 a7 bd 04 e9 b0 3c
       -0.27743796 -0.19695735 -0.08198751 0.021595486
000310 97 07 8b be c9 6b db 3d 14 ef b4 be 70 4b 0c 3d
       -0.27154228 0.10713918 -0.35338652 0.03425163
000320 c7 7e d3 bc 36 85 a5 bc 7d c1 4b bd 29 68 b2 bd
       -0.025817288 -0.020205121 -0.04974507 -0.08711273
000330 fa c0 b0 bc b1 35 bb bd 94 34 d7 3b 0c 66 d4 3d
       -0.021576393 -0.091411 0.006567547 0.103710264
000340 0f d1 6d 3d b6 fb a9 bd a7 10 29 3d a3 e9 c4 bc
       0.058060702 -0.08299963 0.041275647 -0.024037188
000350 1d ec 39 3c db a2 20 3d 11 ea 7b bd d4 a1 65 3d
       0.011347798 0.03921781 -0.06150252 0.056062534
000360 8e ce ed bd f8 23 03 3c 96 e2 90 bc 9f 57 90 3d
       -0.11611663 0.008004181 -0.01768617 0.070479624
000370 ad d0 22 3e f7 92 83 3c 07 d4 7f 3d e8 dd b8 3d
       0.15899916 0.01606129 0.062458064 0.090267
000380 d8 12 bf 3d bf 3d 96 3d 24 2e 0c 3e 31 8b 6d bd
       0.09329766 0.07335996 0.13689476 -0.05799407
000390 23 20 9b 3c 9c 70 00 bd dc 25 bb 3d 4e 35 07 3d
       0.018936222 -0.031357393 0.091380805 0.03300982
0003a0 88 0e a3 bd dc 6c b3 bd f2 36 c7 bc 77 25 6e bd
       -0.07961756 -0.08760998 -0.024318192 -0.058141198
0003b0 61 b5 cf 3d 81 a8 4d 3d 8c 0e 84 3c 87 50 4a 3d
       0.10142017 0.050209526 0.016120218 0.049393203
0003c0 58 07 d5 3c c3 2e 3c bd 47 6d 93 3d 1a 32 95 3c
       0.026004478 -0.045943033 0.071985774 0.018212367
0003d0 7c f4 82 3d 42 59 70 3d 47 77 8b bd 42 f7 db 3d
       0.06394288 0.058678873 -0.0680986 0.1074052
0003e0 03 a7 77 bd e2 c1 02 be c5 2c 7c 3d a1 7c 2c 3e
       -0.06046201 -0.12769273 0.061566133 0.16844417
0003f0 75 29 43 39 3e a8 87 bd 18 7c 33 3c 97 af 64 bd
       0.00018612093 -0.066238865 0.010954879 -0.055831518

layers.4.bias f4 [500]
000000 60 10 37 3c 64 f4 0c 3d 27 1c 95 bb ef 5f 75 3d
       0.011173338 0.034412757 -0.004550475 0.059905943
000010 b4 cb f0 bd a4 23 cc 3c 2f 5b 6c 3d 1a 44 9e bd
       -0.11757603 0.024919339 0.057704147 -0.07727833
000020 5a 4b 2d bd 65 6a 2a 3d 8a cb f0 3c e2 07 f7 3c
       -0.04230819 0.041605372 0.02939393 0.030155126
000030 ad c1 b1 3d fd 36 4d 3d b6 22 de 3d 73 d7 bb bc
       0.08679519 0.05010127 0.10846464 -0.022929883
000040 89 a7 63 bd f4 f4 00 3e f7 e7 f9 3d bb ae 9f 3d
       -0.055579696 0.12593442 0.12202447 0.07796999
000050 30 ee 37 bd c2 58 cc bd 4d 8c 74 bc 00 24 08 3d
       -0.044904888 -0.09977867 -0.014926028 0.033237457
000060 86 ff 69 3c d6 3e 70 bd ed fb 15 bd f4 29 3a 3d
       0.014282113 -0.058653675 -0.03661721 0.045450166
000070 34 62 b3 3b 48 75 b1 3d af 3c f6 bc 9d 1c 36 be
       0.005474353 0.08664948 -0.030058233 -0.17784353
000080 1b 25 9e 3d 54 bc 96 3c 5e 26 c4 3d 29 31 a5 bb
       0.07721921 0.018400349 0.095776305 -0.0050412607
000090 b9 32 f0 3c d7 40 d3 bd 0b 57 27 3d d9 50 08 be
       0.029321061 -0.103151016 0.040854495 -0.13312091
0000a0 44 81 dd bd b4 8a 01 3e 3b 5f 05 bd a7 54 09 bd
       -0.10815671 0.12650567 -0.032561522 -0.033527996
0000b0 cf 15 8a 3d c3 55 66 3c 50 41 50 3d 39 f4 43 bd
       0.06742441 0.014058533 0.050843537 -0.04784033
0000c0 29 56 4d 3d 44 70 73 3d 3b d7 3e bd c0 ac 75 3d
       0.050130997 0.059433237 -0.04659198 0.0599792
0000d0 f3 de af 3c f4 b5 7a 3c 07 df 98 3d 03 a7 98 bc
       0.021468615 0.01530217 0.07464414 -0.018634325
0000e0 41 2e 5c bd c9 6f 81 38 48 d7 ca 3c 26 2f 91 3d
       -0.05375505 6.172021e-05 0.024760857 0.07089071
0000f0 79 aa 1f bc e9 aa ce bd ae 41 89 3d 8e f7 a7 3d
       -0.009745234 -0.10091192 0.067019805 0.08201514
000100 81 52 40 3d c5 7e 97 3d bc e3 f5 bb 8d 73 4d 3b
       0.04695368 0.07397226 -0.0075039547 0.0031349391
000110 ac 66 f3 3c f1 b3 41 3d 32 05 80 3c f8 bd 00 bc
       0.029712044 0.047290746 0.015627477 -0.007857792
000120 e7 49 9a bd 58 ec cb 3d ee 97 62 be 63 02 76 bd
       -0.07533627 0.09957188 -0.22128269 -0.06006087
000130 57 28 02 3c 1c 0b 30 3d 20 81 4e 3d 12 48 99 3d
       0.007944188 0.042979345 0.050416112 0.074844494
000140 c3 f0 c8 bc be a5 36 bd db 38 21 3d 7e f1 c0 bd
       -0.024528867 -0.044591658 0.039360862 -0.09421061
000150 c4 fa b7 3d 85 04 8f bd 6e 28 9c 3d c2 8a 8d 3d
       0.089833766 -0.06983284 0.07624899 0.069112316
000160 fd 69 b6 3a 4d 1b 86 bc da 08 e3 3d fb c5 8e bb
       0.0013917085 -0.01637044 0.11085673 -0.004357097
000170 0f 28 6c bd 7b d5 54 bb 0c 39 80 bd 17 98 49 bd
       -0.05765539 -0.0032475877 -0.06260881 -0.04921731
000180 64 b6 11 3d 1a 5f 6f 3d ad ae 9b 3d de d8 a5 bc
       0.035574332 0.058440305 0.07601676 -0.020245012
000190 8a 61 86 3d c4 d4 e6 be 65 5c 9c 3c 6f e9 ad 3c
       0.06561573 -0.45084202 0.019087026 0.021229474
0001a0 e7 8b d9 3c 17 95 a4 3d e9 08 87 3c da 08 1f 3e
       0.026555968 0.08036249 0.01648374 0.1553072
0001b0 d5 d1 08 bc 78 2e 51 bd 5e 92 87 bd 10 b0 88 3c
       -0.008350809 -0.051069707 -0.06619714 0.016685516
0001c0 57 bc 1a 3f c0 c4 79 bd 63 3b 4c 3d 99 c0 b7 3c
       0.60443634 -0.06097865 0.049861323 0.022430705
0001d0 75 00 99 3d ae e5 ca bc 33 df 95 bd 2a 54 ab bd
       0.0747079 -0.024767723 -0.073179625 -0.083656624
0001e0 c3 61 a7 3d cc 85 5d 3d 70 a8 88 bd 7f 20 ef 3c
       0.081729434 0.054082677 -0.06672752 0.0291903
0001f0 b2 90 86 3c 2c b4 9f 3c 07 36 56 bc 8f 66 3b 3c
       0.016426418 0.019495092 -0.013074405 0.011438026
000200 13 7f 94 3d 4d d3 df bc 8c 46 0c 3c 6f 4b 8a 3d
       0.072508 -0.027322436 0.008561742 0.06752669
000210 f3 92 4b bd ba 25 21 3d 3c 80 60 bd 7b 0e d1 3d
       -0.04970069 0.03934262 -0.054809794 0.1020784
000220 70 4d af bd f4 a0 c8 bd d5 8c 5d bd b1 73 e8 bc
       -0.08559692 -0.09796324 -0.054089386 -0.028375478
000230 6a ab c9 bb c1 c3 7d bd 48 78 5f bd 4c 39 93 3d
       -0.0061544674 -0.061954264 -0.05455807 0.07188663
000240 fe 18 0a 3e d3 28 46 3d f0 fe f4 3c 69 f5 d7 bc
       0.13486096 0.048378777 0.02990672 -0.026362138
000250 ff 15 ac bd bc cf 43 3d 14 32 a2 3d 1b a0 72 bd
       -0.08402633 0.047805533 0.07919708 -0.05923472
000260 d0 6d ad 3d 47 ea ac 3d d3 b7 4f bd 30 e9 e1 bb
       0.08468211 0.08443122 -0.050712418 -0.006894253
000270 eb 4d da bd bf f5 31 3d 9e 1d 42 3d 3f 5f 7d 3d
       -0.10659393 0.043447252 0.047391526 0.061858412
000280 d9 90 07 bf a2 50 34 3d 9d fa 74 3d 76 65 85 bd
       -0.52955395 0.04402221 0.059809316 -0.06513493
000290 1a e3 8b 3c 28 4a 4c bc 14 88 a2 bd 1c 9c 53 3c
       0.017076064 -0.012468852 -0.07936111 0.012915637
0002a0 e7 31 23 bd 80 3f da 3b c7 fb 43 3d 54 4a 09 3d
       -0.039842512 0.006660402 0.047847535 0.03351815
0002b0 04 fc 04 3d 40 9b ae bc b6 41 65 bd 69 61 ea bc
       0.032466903 -0.021314263 -0.05597087 -0.028610902
0002c0 57 3d c7 bd 06 b4 03 bd b3 bf 09 bd 96 c7 47 3f
       -0.097284965 -0.032154106 -0.033630084 0.7803892
0002d0 00 47 cf 3d f5 8b d2 3d 90 89 cc 3c 0e a5 3a bd
       0.10120964 0.10280601 0.024967939 -0.045567565
0002e0 98 7b 30 3c b0 e0 53 be 3e 13 91 3d 46 67 b1 bd
       0.010771655 -0.2069118 0.07083748 -0.08662276
0002f0 24 94 19 be 1d be 92 bd 39 44 b3 3c 8e ac 81 bd
       -0.14997917 -0.071651675 0.021883117 -0.0633174
000300 79 af 83 3d 53 3b e9 3d 3a a2 80 3c ad 33 8a 3d
       0.06429953 0.11388268 0.015702356 0.067481376
000310 65 ae 8a bc a9 7a 96 3d d1 92 c1 bd 04 c1 9c bc
       -0.01692886 0.07347614 -0.09451831 -0.019135006
000320 b7 bc 26 3e 6c 6d 03 be 4a e0 2c 3d f0 b7 c5 3d
       0.16282926 -0.1283471 0.042206086 0.09654224
000330 c7 63 c3 bc 91 14 69 bd 81 23 87 bd cf 62 01 3d
       -0.023851288 -0.05690438 -0.06598569 0.03158837
000340 7a 1e 13 bd 15 bf 23 3d 3e 68 2b bd 4e 2c e1 3d
       -0.035917737 0.039977152 -0.04184746 0.109947786
000350 97 ed 28 3d fe 92 35 bd 17 be 96 bd f9 b3 7d bd
       0.04124221 -0.044329636 -0.073604755 -0.061939213
000360 71 aa 6f 3c 71 ac 02 3d e1 b3 d9 3c a8 e0 88 bd
       0.014628039 0.031902734 0.02657503 -0.06683475
000370 27 fb 32 be 56 e7 98 bd 95 d1 44 bd d2 db 47 3d
       -0.1747862 -0.07465999 -0.048051436 0.04879362
000380 aa 7b 64 3d de 47 4f 3c 37 dc c4 3d 54 04 42 3d
       0.055781998 0.012651412 0.09612315 0.04736741
000390 7c 14 9d bd d2 35 5b bc 76 9c da bd 29 55 46 3d
       -0.07669923 -0.013379531 -0.10674374 0.04842106
0003a0 f2 cd c4 bd 6f 95 c4 bb 41 b7 b0 bd 77 61 f4 bc
       -0.096095935 -0.005999259 -0.08628703 -0.029831631
0003b0 2e 96 d8 bc 15 74 64 bd 41 2d bb 3d e0 61 dc 3c
       -0.026438799 -0.055774767 0.09139491 0.02690214
0003c0 59 26 95 bc bd c5 95 3d 46 2d 57 bd 4f 4a 89 bc
       -0.018206762 0.07313106 -0.05253341 -0.016759066
0003d0 26 c4 43 3d 3c ee e4 3d fb 1e e3 bb 32 6f 2c 3d
       0.047794484 0.11178252 -0.0069311834 0.04209823
0003e0 ae 4d e4 3c 30 5e 09 3d 5c 28 d7 3c 3f 16 ce bd
       0.027869072 0.03353709 0.026264362 -0.10062837
0003f0 32 27 d7 bd 0b 0b 19 bd 31 5b 8b 3a cb 04 94 3c
       -0.10505523 -0.037364047 0.0010632036 0.018068692

layers.6.weight f4 [500]
000000 81 6b 80 3f 92 ce 6c 3f ea 34 80 3f 7a 00 79 3f
       1.0032808 0.925027 1.0016148 0.9726635
000010 b1 5c 83 3f cc 0d 94 3f 4c 97 86 3f 4b ba 7a 3f
       1.0262662 1.156671 1.0514922 0.9794051
000020 ce c2 78 3f 2d 99 7c 3f 6b 8b 6f 3f df 24 8f 3f
       0.9717225 0.9867123 0.9357211 1.1183127
000030 bf a3 7e 3f 83 da 80 3f 1c b2 7f 3f 81 1a 87 3f
       0.99468607 1.0066684 0.9988115 1.0554963
000040 ce 3f 7d 3f 45 f1 64 3f 83 05 85 3f 11 0b 9d 3f
       0.98925483 0.8943065 1.0392307 1.2269002
000050 1e ea 8e 3f 65 06 75 3f 9a 3c 70 3f f3 ef 7e 3f
       1.1165197 0.9571288 0.9384247 0.99584883
000060 c6 af 84 3f 76 9a 8b 3f 7d 79 78 3f 99 11 88 3f
       1.0366142 1.0906513 0.97060376 1.063037
000070 f8 eb 83 3f 95 d5 8a 3f 1c 6a 85 3f 78 fb 80 3f
       1.0306387 1.084643 1.0423007 1.0076742
000080 84 90 76 3f 4f d1 82 3f 5b 59 90 3f 69 f8 77 3f
       0.96314263 1.0220126 1.1277269 0.9686342
000090 f2 be 5f 3f 01 0d 8c 3f ec 73 68 3f 7a 7d 78 3f
       0.87400734 1.0941468 0.9080188 0.9706646
0000a0 63 84 6f 3f 1f 51 81 3f 8b e8 81 3f 4b a0 81 3f
       0.9356138 1.0102881 1.0149091 1.0127043
0000b0 d4 0d 82 3f 78 64 79 3f 42 22 8d 3f aa c5 80 3f
       1.016047 0.9741893 1.102608 1.0060322
0000c0 fc 60 6a 3f e6 06 79 3f eb dc 86 3f ca d4 75 3f
       0.91554236 0.9727615 1.0536169 0.96027815
0000d0 c1 60 82 3f a4 b9 5e 3f 8b 0c 89 3f 11 81 78 3f
       1.0185777 0.87002015 1.0706953 0.9707194
0000e0 35 be 80 3f ec fa 78 3f 89 ff 80 3f ea b6 69 3f
       1.0058047 0.97257876 1.0077983 0.9129473
0000f0 b4 be 82 3f 5c 82 69 3f 66 c7 90 3f a9 93 87 3f
       1.0214448 0.9121454 1.1310852 1.0591937
000100 13 d4 8f 3f 14 88 83 3f 0c e5 8a 3f 66 de 7a 3f
       1.1236595 1.0275903 1.085115 0.97995603
000110 38 41 7e 3f 60 aa 6a 3f 00 68 8d 3f 8c 64 7a 3f
       0.99318266 0.9166622 1.1047363 0.9780967
000120 9a b2 80 3f 11 5a 8a 3f da 54 76 3f 98 2c 7a 3f
       1.0054505 1.0808736 0.96223223 0.97724295
000130 fb 8c 79 3f 80 8e 80 3f 95 c1 85 3f ef ed 7e 3f
       0.97480744 1.0043488 1.0449702 0.9958181
000140 77 1a 5e 3f 0d 36 76 3f 85 57 92 3f 51 54 77 3f
       0.8675913 0.96176225 1.1432959 0.9661303
000150 0a ab 84 3f fc a0 74 3f ac 52 81 3f 0a 29 75 3f
       1.0364697 0.9555814 1.0103354 0.95765746
000160 25 bc 85 3f 70 59 7f 3f b1 8a 8d 3f 61 1a 72 3f
       1.0448042 0.99745846 1.105795 0.945715
000170 ce 49 85 3f ca ec 83 3f a8 66 96 3f 91 91 8b 3f
       1.0413148 1.0306637 1.1750078 1.0903798
000180 ba 3d 69 3f a2 25 87 3f 99 c7 92 3f ed 0e 74 3f
       0.9110981 1.055836 1.1467162 0.95335275
000190 b3 13 72 3f 43 5b 7a 3f 8a 21 89 3f d8 42 87 3f
       0.9456131 0.97795504 1.071336 1.0567274
0001a0 b3 87 79 3f 32 a7 78 3f 66 c7 6c 3f 4b 55 7b 3f
       0.97472686 0.9713012 0.9249176 0.9817702
0001b0 58 25 8a 3f a8 f2 72 3f f4 87 83 3f bf 34 81 3f
       1.0792646 0.94901514 1.0275865 1.0094222
0001c0 10 4c 81 3f 61 30 83 3f 3c 57 76 3f c3 b4 7f 3f
       1.0101337 1.0249139 0.9622686 0.99885195
0001d0 0f 67 7e 3f 66 36 6f 3f 72 29 85 3f b2 2a 82 3f
       0.99376005 0.9344238 1.0403273 1.016928
0001e0 15 6f 77 3f 97 62 74 3f a1 d5 82 3f b0 97 82 3f
       0.9665387 0.95462936 1.0221444 1.0202541
0001f0 3f 64 7a 3f 5e ab 8a 3f f7 5a 83 3f 9e 24 7f 3f
       0.97809213 1.0833547 1.0262135 0.9966525
000200 15 cf 7d 3f 3b b8 59 3f 6c 4d 7f 3f 1e ca 80 3f
       0.9914411 0.8504674 0.9972751 1.0061681
000210 36 c9 78 3f 90 86 7c 3f b3 11 81 3f 68 d3 83 3f
       0.97182024 0.98642826 1.0083526 1.0298891
000220 96 44 79 3f 74 41 77 3f 21 4c 84 3f b6 d1 7e 3f
       0.9737028 0.9658425 1.0335733 0.99538743
000230 5d 8a 88 3f 7a 42 7e 3f 3d e7 85 3f ee 8a 75 3f
       1.0667225 0.99320185 1.0461193 0.95915115
000240 4d 8b 70 3f 33 52 8d 3f 59 38 61 3f 12 6d 7e 3f
       0.93962556 1.104071 0.87976605 0.9938518
000250 8a e8 81 3f be 04 7d 3f 04 da 85 3f fc aa 8b 3f
       1.014909 0.9883536 1.0457158 1.0911555
000260 b1 c5 74 3f 67 79 8a 3f 77 d8 7b 3f 0a a0 76 3f
       0.95614153 1.0818299 0.98377174 0.9633795
000270 89 76 83 3f 2d 53 80 3f fa fc 80 3f 7e d6 84 3f
       1.0270549 1.0025383 1.0077202 1.0377958
000280 54 d6 87 3f fc 3b 7c 3f 0b 23 73 3f 24 96 80 3f
       1.0612283 0.9852903 0.94975346 1.0045819
000290 6e c7 86 3f 95 86 83 3f 86 70 83 3f dd a3 80 3f
       1.0529611 1.0275446 1.0268714 1.0050007
0002a0 cd 61 59 3f 76 3b 86 3f 26 f1 7d 3f 7d 9f 9c 3f
       0.8491486 1.0486896 0.9919609 1.2236172
0002b0 91 63 70 3f 4c 62 74 3f 66 3e 81 3f 1b 53 81 3f
       0.93901926 0.9546249 1.0097167 1.0103487
0002c0 c8 ad 6d 3f 43 18 91 3f 6f a2 75 3f ca eb 7c 3f
       0.92843294 1.1335529 0.9595098 0.98797286
0002d0 c1 cb 80 3f df 29 8e 3f 77 ae 7d 3f a2 e0 78 3f
       1.0062181 1.1106528 0.9909434 0.9721776
0002e0 ca ae 73 3f 55 0a 78 3f bd 58 77 3f 46 89 84 3f
       0.9518858 0.96890765 0.9661978 1.0354393
0002f0 d1 7a 81 3f d5 24 79 3f 91 3d 80 3f fe 70 72 3f
       1.0115606 0.97321826 1.0018789 0.9470366
000300 53 ba 84 3f 1b ab 95 3f 2b e3 8f 3f db 2a 82 3f
       1.0369362 1.1692842 1.1241201 1.0169328
000310 8a 61 80 3f e5 6a 7e 3f ab ea 79 3f de 73 80 3f
       1.0029767 0.9938186 0.976237 1.003536
000320 9d 7e 86 3f 53 4f 58 3f e6 0b 7b 3f 05 1d 7e 3f
       1.0507389 0.8449604 0.9806503 0.9926303
000330 fd 6c 87 3f 15 b7 87 3f 40 b9 6b 3f b3 4a 8a 3f
       1.0580136 1.0602747 0.92079544 1.0804046
000340 91 44 77 3f 2c f6 68 3f d9 db 92 3f 81 30 80 3f
       0.96589 0.9100063 1.1473342 1.0014802
000350 6f 22 81 3f 17 9e 81 3f 9a 05 82 3f 26 8d 78 3f
       1.0088633 1.012637 1.015796 0.97090375
000360 33 87 7f 3f 51 0b 89 3f c8 f0 83 3f 30 07 75 3f
       0.9981567 1.0706578 1.0307856 0.9571409
000370 7b a1 8b 3f 7a 58 7c 3f 7f ee 5f 3f e4 32 72 3f
       1.0908655 0.98572505 0.8747329 0.946089
000380 b8 3c 87 3f b5 e4 87 3f 8c c6 81 3f 2e f7 82 3f
       1.0565405 1.0616671 1.0138717 1.0231683
000390 9a b7 81 3f cf 10 82 3f d6 de 82 3f e9 c4 84 3f
       1.0134156 1.016138 1.0224254 1.0372592
0003a0 bc f9 7d 3f 83 b7 7f 3f 53 8a 70 3f 02 5d 93 3f
       0.9920919 0.9988939 0.93961066 1.1512759
0003b0 9f 77 89 3f d4 e7 5d 3f 87 37 85 3f af b1 78 3f
       1.073963 0.86681867 1.0407571 0.97146124
0003c0 14 1a 84 3f 1a d7 7a 3f 15 61 81 3f 79 a1 92 3f
       1.0320458 0.9798447 1.0107752 1.1455528
0003d0 41 9c 7f 3f 8e fe 5f 3f 6a d0 6c 3f c9 b6 80 3f
       0.998478 0.87497795 0.92505515 1.0055782
0003e0 a7 b2 75 3f af d0 76 3f 23 12 92 3f ba c7 51 3f
       0.95975727 0.96412176 1.1411785 0.81945384
0003f0 4b b0 59 3f 4f 7e 81 3f c7 92 8b 3f 2b cc 70 3f
       0.85034627 1.0116671 1.0904168 0.94061536

layers.6.bias f4 [500]
000000 d6 0a 26 bb bb 07 a0 bd de 55 37 bb 91 f3 1e 3d
       -0.0025336049 -0.078139745 -0.0027974765 0.0388065
000010 fb f8 f5 bb ec 74 89 bd 23 03 48 bd 6e 6f 59 3d
       -0.0075064874 -0.06711754 -0.048831116 0.053084783
000020 47 da 18 bd 7c 80 c3 bc 03 9a d9 3c 9d 5a e6 3d
       -0.03731754 -0.023864977 0.026562696 0.11247752
000030 3f c7 a9 3b 1b 95 28 bc b3 dc f4 3c e7 2b 78 bb
       0.0051812227 -0.010289456 0.029890394 -0.0037867965
000040 71 64 11 3c 69 e3 f4 3c 9b 03 30 bd b1 3e 95 bc
       0.008874045 0.029893594 -0.04297219 -0.01821837
000050 19 c1 a3 3d 39 5d c9 3c ce 73 27 bd b8 0f e8 bb
       0.07995815 0.024580585 -0.040881924 -0.007081952
000060 67 8b 25 3d ee 29 95 bd 17 7e 2a bc f7 fd 36 3c
       0.040416148 -0.07283388 -0.010406039 0.011168948
000070 86 65 4c 3d 2d e7 c3 3d 4a 9c 90 3b 1e a2 8c bd
       0.049901508 0.09565578 0.0044131624 -0.06866859
000080 8f 89 22 bc ff 06 42 3d 49 e5 fd 3d 87 21 7e bb
       -0.009920492 0.047369953 0.12397248 -0.0038777308
000090 eb 0d 46 bd c1 48 cd 3c 87 3b 10 bd f5 4b a9 bc
       -0.048353117 0.025059106 -0.03521302 -0.020666102
0000a0 fd 06 e1 bc 34 21 17 bd 29 77 e4 bb 36 dd 51 bd
       -0.027469153 -0.0368969 -0.006972213 -0.051236354
0000b0 42 45 91 3c 70 19 b9 3c 23 d1 8f bd b5 48 07 bc
       0.01773322 0.022595137 -0.070223115 -0.008257081
0000c0 35 2b 12 be d6 71 11 3d 0e 35 1d 3b 7b f2 c3 bc
       -0.14274295 0.035508953 0.0023987922 -0.023919335
0000d0 1c 50 6a 3d da a2 55 bd 08 d7 a7 bd 7f 51 97 3d
       0.057205305 -0.05215726 -0.08195311 0.07388591
0000e0 03 b1 24 3c a9 54 1d 3c 4b 15 37 bb 48 f5 8b 3d
       0.0100519685 0.009602704 -0.0027936276 0.06833893
0000f0 3f d8 04 3d 48 a8 83 bc c4 1b ff 3d 4a e6 bc bc
       0.03243279 -0.016071454 0.12456468 -0.02305903
000100 4a 99 41 bd 1d 85 09 3d 1f 28 f8 bd 57 6a 36 3b
       -0.04726533 0.033574212 -0.121170275 0.002783438
000110 05 5f 0d bc 97 0e 38 3c e7 1d cc 3c 72 d1 c8 bc
       -0.008628611 0.011233947 0.024916602 -0.024513934
000120 a7 f1 6f 3c 76 f7 31 3c cc fc e7 3d 2c c3 9b bd
       0.014645017 0.010862222 0.11327514 -0.076055855
000130 76 16 85 3a 12 5d c1 bc 1b da d6 bb cf b2 9d bc
       0.0010153789 -0.02360395 -0.006556762 -0.019250302
000140 fe 0a 4d 3d 71 a5 41 3c e7 51 c5 bc 5e 76 90 bb
       0.05005931 0.011819229 -0.024086906 -0.0044086417
000150 f0 59 89 3c 67 01 0f 3c 6f 86 09 bd 09 3e 92 3c
       0.016766518 0.008728362 -0.03357547 0.017851846
000160 fa bb c6 3c b6 b8 8a 3d 1b 34 ed bd ea 6b 89 3c
       0.024259556 0.06773512 -0.11582204 0.01677509
000170 e8 ad 94 bd 99 66 8c bd 36 45 4f bd c3 36 a4 3c
       -0.072597325 -0.068555064 -0.050603114 0.020045644
000180 4c 0b 0a 3d 28 cf 85 bc 03 8a cf bd c8 b0 a8 bc
       0.03370218 -0.016334131 -0.101337455 -0.020592108
000190 f9 e4 15 3d 5e 01 5c 3b e2 d3 f7 3b 87 a9 04 bd
       0.03659532 0.003357015 0.0075631 -0.032388236
0001a0 09 1d 52 3c f4 5c 6c 3d 43 b8 18 ba 74 ef 13 3c
       0.012824305 0.057705835 -0.0005825797 0.009029258
0001b0 e6 8b 7e bc 86 fa 5c 3c 51 d4 a8 3c 9d a2 bb bc
       -0.015536284 0.013487464 0.020609053 -0.022904688
0001c0 37 6e 0c bd 14 76 b9 3d 03 bd c7 3c ad 64 a5 3c
       -0.034284797 0.09055725 0.02438212 0.020189608
0001d0 15 c6 89 3c a5 60 ce 3d 16 f1 0b bb 86 df eb bc
       0.016818086 0.10077027 -0.0021353415 -0.028793108
0001e0 a5 12 90 bd d0 a4 e9 3b 34 f9 3e bc c3 38 4a 3d
       -0.07034806 0.007130243 -0.011656094 0.04937054
0001f0 52 95 0d 3c 90 51 3c 3c 6a 01 c5 bc 93 3e 84 bb
       0.008641558 0.011494055 -0.024048526 -0.0040357797
000200 8b 94 ca bc af 18 26 bd eb ea 58 bc 7c 2d 0c 3d
       -0.024729034 -0.040550884 -0.013239603 0.034223065
000210 2a e2 91 bd dd 21 4e bc ce 91 cf 3a db d8 c8 3d
       -0.071232155 -0.012581316 0.00158363 0.09806987
000220 57 7b dc bc cb 15 8d bc 96 be 62 38 9a e0 91 bc
       -0.026914282 -0.017222306 5.4060096e-05 -0.017807294
000230 bc ee 0e bd 08 59 12 3d bf 77 99 bb 8c 54 2b 3d
       -0.034895644 0.035729438 -0.0046834643 0.041828677
000240 b0 fd 3b bd 44 32 a9 bb ab ec 8d bd 1a b9 fc 3a
       -0.045896232 -0.005163463 -0.069299065 0.0019281239
000250 bc 57 41 3d 0b 95 29 bd ab fb af bd 69 8b 8e bc
       0.04720281 -0.041401904 -0.08592924 -0.01740046
000260 e0 c4 16 3e a7 83 bf bc 7f 15 33 bc c0 89 34 bd
       0.1472354 -0.023378206 -0.010930418 -0.04407668
000270 40 9b 14 bd 13 9d a0 3c 4d c5 8a 3d ba f3 0a bc
       -0.03628087 0.019606149 0.067759134 -0.0084809605
000280 f7 f1 41 bb 92 2e 8b 3c c6 19 65 3c 01 45 1e 3d
       -0.0029593685 0.01698998 0.013983196 0.038640026
000290 88 2c 35 3d 5b 49 a1 bc 10 82 21 bc fd b6 c9 bd
       0.04423192 -0.019688299 -0.0098576695 -0.09849355
0002a0 85 66 93 bd 84 a5 eb bc 05 8b 18 bd 9d aa ee 3d
       -0.071972884 -0.028765447 -0.037241954 0.11653636
0002b0 71 f5 bf 3c b6 60 54 3d 79 f9 76 3d 62 bb e5 3c
       0.023432465 0.051850043 0.06029651 0.028043453
0002c0 76 d4 e3 bb 1e 43 a2 3d 9d 45 95 bc 79 a3 59 bd
       -0.0069528176 0.07922958 -0.01822167 -0.053134415
0002d0 4a a2 31 bc 35 23 ca 3d a8 bc cf 3b bf a0 0c bd
       -0.010841915 0.098699965 0.0063396282 -0.034332987
0002e0 d7 35 e5 bc 35 3b f2 ba 34 82 45 3d 7c dc 47 bd
       -0.027979774 -0.001848078 0.048219875 -0.048794255
0002f0 54 97 f3 bc e8 7c f4 bc c9 c8 ec bc 1a 3a 26 3d
       -0.029735245 -0.029844716 -0.028904336 0.040582754
000300 74 c2 10 3d 9c 38 27 3c 4d 5a c2 3d 17 3f 57 3c
       0.035341695 0.010206368 0.0948988 0.0131376
000310 5c ce 8e bd 14 87 16 3c 9a a8 81 3d de de a9 3c
       -0.06972954 0.009187479 0.06330986 0.020736154
000320 77 93 8d bc 77 bd 0b bc 09 5d a7 ba 6e 37 a9 3b
       -0.01728223 -0.008529059 -0.0012768816 0.0051640784
000330 15 bb 10 3d 0a 36 d3 3c fa 0c bd 3d 34 ff 83 3d
       0.035334665 0.025782604 0.09230991 0.064451605
000340 8e 0a a9 3d 9f ed c7 3d 88 41 81 bd 48 a2 20 3d
       0.08253966 0.097621195 -0.06311327 0.039217263
000350 01 76 12 bd 78 bf 1d 3c f8 88 1f 3d 5f 17 2c bd
       -0.03575707 0.009628169 0.038948983 -0.042014476
000360 0d df 94 3c ee 2e 30 bd 28 3c 40 ba 77 de f2 bc
       0.018172765 -0.043013506 -0.0007333183 -0.029647095
000370 95 9a c0 3d 61 75 85 3d 51 a1 c7 3d fb b0 95 bd
       0.09404484 0.06516529 0.097475655 -0.07309147
000380 92 f6 4c 3d 81 6c 06 bd a7 20 42 3b 77 0d de bc
       0.050039835 -0.03281832 0.0029621513 -0.02710603
000390 3d 1f d9 3c a0 b2 27 3c d1 14 91 3d a4 7b 73 bc
       0.026504153 0.010235459 0.070840485 -0.014861021
0003a0 86 3d df 3c 39 f7 84 bc c1 dc 47 3d 5a 07 f6 bd
       0.027251016 -0.016231166 0.04879451 -0.12013121
0003b0 b7 68 97 bd 37 27 14 3d f3 96 48 3b 74 43 42 bb
       -0.0739302 0.03617021 0.003060755 -0.0029642256
0003c0 3c 0f a7 bd ea 18 23 3d 85 f2 19 3c a4 79 0b bd
       -0.081572026 0.03981868 0.0093962 -0.034051552
0003d0 c6 52 1b bc b7 c5 d4 bc 0d 4e 71 3d 92 a7 89 bb
       -0.009480184 -0.025973184 0.058912326 -0.004200884
0003e0 95 26 1d 3d 57 9a 91 3c c9 10 29 bd 8d be 3f 3d
       0.038366873 0.01777379 -0.041275773 0.046812583
0003f0 74 51 66 3d e7 06 20 bd 7f 0c 1a 3d 0e 97 81 bd
       0.056230024 -0.039069083 0.037609573 -0.063276395
